bdm_CNN_augmented.pt (torch, 710153 bytes, 22 tensors)

conv1.weight f4 [64, 1, 7]
0	0x3ef33709	0.47502926
1	0x3e7a5bb3	0.24449043
2	0xbe23b2ca	-0.15986171
3	0xbdedc6c1	-0.11610175
4	0xbe1e7123	-0.15472846
5	0xbe6dfe97	-0.2324165
6	0xbe825d2d	-0.25461712
7	0xbedcc59c	-0.43119514
8	0x3e4af9fc	0.19821924
9	0x3e9600a8	0.29297376
10	0x3dd1edb3	0.10250416
11	0xbe2eba8c	-0.1706335
12	0xbe8773b2	-0.26455456
13	0xbc6cd0d1	-0.014454083
14	0xbe63c4b4	-0.22243005
15	0x3da55716	0.08073251
16	0xbe9985ee	-0.29984993
17	0x3eb21f6e	0.34789604
18	0x3d9b4a2a	0.07582505
19	0xbdc6d7ca	-0.09709127
20	0xbeeaf4de	-0.45889944
21	0xbdc183f1	-0.09448994
22	0x3e4fd108	0.20294583
23	0xbe1751ea	-0.14777341
24	0x3e661336	0.22468266
25	0x3d2e4641	0.042547468
26	0xbd9b3a66	-0.07579498
27	0x3eb075d4	0.34464896
28	0xbe20ac01	-0.15690614
29	0xbdf7dce5	-0.12102679
30	0xbec779de	-0.38960165
31	0x3bc181ec	0.0059053805
32	0x3ea80b30	0.32821035
33	0x3e29aa32	0.1656883
34	0xbe83b63f	-0.2572498
35	0x3e59feb4	0.21288568
36	0xbeb96512	-0.36209923
37	0x3e17619d	0.1478333
38	0x3dd3d956	0.10344188
39	0xbe66a1ea	-0.22522703
40	0xbe11d3a3	-0.14240889
41	0x3c3cb9c5	0.0115189
42	0x3ea9a2ee	0.33132118
43	0xbc9b7f31	-0.018981548
44	0xbd07bf87	-0.03314164
45	0xbe940f40	-0.28917885
46	0xbe7f5872	-0.24936083
47	0x3d8c45db	0.068492614
48	0x3ea60cd5	0.32431665
49	0x3da1d5ce	0.07902108
50	0x3ec94056	0.39306897
51	0xbdafa36d	-0.08576093
52	0xbdd7de67	-0.10540467
53	0x3e76b277	0.24091516
54	0xbea3701a	-0.31921464
55	0x3dc6af32	0.097013846
56	0x3d445e01	0.04794121
57	0xbeb3f049	-0.3514426
58	0x3e89d1c1	0.26917842
59	0xbe663d7d	-0.22484393
60	0xbe285ee8	-0.16442454
61	0xbc3b4e67	-0.011432267
62	0xbead3a30	-0.33833456
63	0x3dbe0faa	0.092803314
64	0xbdb8fad0	-0.09032214
65	0xbec6b8b4	-0.38812792
66	0x3dc5cf45	0.09658674
67	0x3e004527	0.1252638
68	0x3dc167f1	0.094436534
69	0x3d115c66	0.03548851
70	0x3e5035a6	0.20332965
71	0x3e828c44	0.2549764
72	0xbe5ef91c	-0.21774715
73	0xbe7e408f	-0.24829315
74	0xbe23d238	-0.15998161
75	0x3e29177d	0.16512866
76	0xbee03435	-0.4378983
77	0xbe8ae43c	-0.27127254
78	0xbe1cd443	-0.15315346
79	0xbdc08c9e	-0.094018206
80	0x3cea2921	0.028584065
81	0x3e3db7b8	0.18527114
82	0x3e4ab0ac	0.19793957
83	0xbeeba41f	-0.46023652
84	0x3e60a36f	0.21937345
85	0xbeca70bb	-0.39539132
86	0x3e203abe	0.15647408
87	0x3df2321a	0.11825962
88	0xbcbcda03	-0.023053175
89	0x3e1d68f1	0.15372063
90	0x3ee3a5b6	0.44462365
91	0xbec44c35	-0.3833939
92	0x3ea15a45	0.31514183
93	0xbe088cfd	-0.13335033
94	0x3dfe1385	0.12406067
95	0x3e5ab65f	0.21358632
96	0x3e03e6b1	0.1288097
97	0x3e9401e4	0.28907692
98	0x3e91115c	0.28333557
99	0xbe1e368b	-0.15450494
100	0xbeb3845d	-0.35061923
101	0x3e9a3594	0.30119002
102	0xbe0e785e	-0.13913104
103	0xbee6f75c	-0.45110595
104	0xbdfa8ade	-0.12233518
105	0x3ea9fc82	0.3320046
106	0xbe2b2191	-0.16712023
107	0xbeb8aaf8	-0.3606794
108	0x3e7f852f	0.2495315
109	0x3dbbefd0	0.091766
110	0x3ecd3d9b	0.40086064
111	0x3be4cfbf	0.006982773
112	0x3e23d489	0.15999044
113	0x3de80402	0.113288894
114	0x3dd55687	0.104168944
115	0xbe519fdd	-0.20471139
116	0x3e37e2fa	0.17957678
117	0xbe29189c	-0.16513294
118	0xbd9b7139	-0.07589955
119	0x3e895ad9	0.26827124
120	0xbe5ca255	-0.215463
121	0x3e2aeb3e	0.166913
122	0xbe61e845	-0.2206126
123	0xbe1df34d	-0.15424843
124	0x3e8e303d	0.27771178
125	0x3d10748e	0.035267405
126	0xbe11a231	-0.14222027
127	0x3e3e8436	0.18605122
128	0x3e47de0e	0.19518301
129	0x3de8ff6f	0.11376845
130	0xbe49598c	-0.19663066
131	0x3e5638f8	0.2092017
132	0xbe266d97	-0.16252743
133	0xbcf6e607	-0.030138982
134	0x3dde68b0	0.10859811
135	0xbd386986	-0.04502251
136	0xbe913669	-0.28361824
137	0xbded27a2	-0.11579825
138	0xbe4f036f	-0.20216154
139	0x3ed46086	0.41479892
140	0xbe189e6f	-0.14904188
141	0x3eb3915c	0.35071838
142	0xbe5b4ce2	-0.21416047
143	0xbca45d51	-0.020064028
144	0xbe52cd2b	-0.20586078
145	0xbe2ba531	-0.16762234
146	0xbdb62774	-0.08894244
147	0x3e495441	0.19661047
148	0x3f0e92e2	0.55692875
149	0x3c1345bc	0.008988794
150	0xbe4dd55b	-0.2010092
151	0x3d6e012d	0.05810659
152	0x3da0887b	0.078385316
153	0xbe153311	-0.14570262
154	0x3d07164a	0.03298024
155	0x3e53c234	0.20679551
156	0xbe97c5de	-0.29643148
157	0x3e6482da	0.22315541
158	0x3d7b63ae	0.06137436
159	0x3e2b852e	0.16750023
160	0xbd87b3b1	-0.0662607
161	0x3cbf8532	0.023378942
162	0xbe6ac02d	-0.22924872
163	0x3e98105a	0.29699975
164	0xbde45cb2	-0.11150493
165	0x3e980a01	0.29695132
166	0xbe386b3b	-0.18009655
167	0xbde31821	-0.110885866
168	0x3eba24fd	0.36356345
169	0xbed04ba0	-0.40682697
170	0xbe9e22af	-0.30885836
171	0x3d90fb49	0.07079179
172	0x3e8436bf	0.25823018
173	0x3d37295a	0.04471717
174	0x3d1d414f	0.03839236
175	0xbef31b6b	-0.47481856
176	0x3dd8bc00	0.10582733
177	0xbd9e25bd	-0.07722042
178	0xbdf15985	-0.117846526
179	0x3ccfbdbe	0.02535903
180	0x3dbe785d	0.09300301
181	0x3e9884b5	0.29788747
182	0x3ec2f49b	0.38077244
183	0xbc3dc46c	-0.011582475
184	0x3ebe01a0	0.37110615
185	0x3e1357b5	0.14388926
186	0x3d84897b	0.06471535
187	0xbe863ce1	-0.26218322
188	0xbec83c3a	-0.3910845
189	0xbe58ee3c	-0.21184629
190	0x3e81c793	0.25347576
191	0x3e32a1e0	0.17444563
192	0xbde8b57c	-0.113627404
193	0x3d81141d	0.063026644
194	0xbe355a1d	-0.17710157
195	0xbe6c7c20	-0.23094225
196	0xbe4bd3a9	-0.1990496
197	0xbe2651ae	-0.16242096
198	0xbebeb3dc	-0.37246597
199	0xbe4b602a	-0.19860902
200	0x3d869acb	0.06572493
201	0x3e32e56a	0.17470327
202	0x3ccdb5f6	0.02511118
203	0x3d9f1c3c	0.07769057
204	0xbda9c080	-0.082886696
205	0xbd809ed9	-0.06280298
206	0x3ea00019	0.31250075
207	0x3d635464	0.055500403
208	0xbe98947f	-0.29800794
209	0x3c2151da	0.009846175
210	0x3d481b15	0.048853952
211	0x3c16428a	0.009171138
212	0x3e337f98	0.17529142
213	0xbe89a447	-0.26883146
214	0xbdb3e233	-0.087833785
215	0xbe4c18a2	-0.19931272
216	0xbe7ff828	-0.24997008
217	0x3ec0b4c3	0.3763791
218	0x3d482fea	0.04887382
219	0x3e3086b7	0.1723889
220	0x3eb8aa4a	0.3606742
221	0xbe91272e	-0.28350204
222	0xbddf1513	-0.108926915
223	0x3ec07c81	0.3759499
224	0xbe18fd9b	-0.14940493
225	0x3e7d9d49	0.24767031
226	0xbdc21911	-0.09477437
227	0x3d8dc9ff	0.06923293
228	0xbeb59108	-0.35462213
229	0x3ca6e6ac	0.020373665
230	0x3ea4f663	0.32219228
231	0x3de93ccc	0.11388549
232	0x3ddd0f93	0.10793986
233	0xbeaa0db2	-0.33213574
234	0xbcaf5ce7	-0.021406604
235	0xbe8987a8	-0.2686131
236	0x3ed55811	0.41668752
237	0x3cbb90b6	0.022896152
238	0x3eb4eb98	0.35335994
239	0xbe302f78	-0.17205608
240	0x3e1ca4bc	0.15297216
241	0xbd7c0791	-0.061530653
242	0x3e8ba733	0.27276
243	0xbe9e4ceb	-0.3091806
244	0x3e8babf8	0.2727964
245	0x3dbd90e4	0.09256151
246	0x3e4dba7a	0.20090666
247	0xbe8caafb	-0.27474198
248	0xbe200e5e	-0.1563048
249	0xbd1123c3	-0.035434496
250	0xbd4b761c	-0.049673185
251	0x3e25cbc7	0.16191016
252	0x3e30b4b2	0.1725643
253	0xbc8378ef	-0.016048877
254	0xbd6c175e	-0.057639472
255	0xbe5a9418	-0.21345556

conv1.bias f4 [64]
0	0xb516c19d	-5.61611e-07
1	0x3842a4ec	4.64068e-05
2	0xb7de87a9	-2.6527634e-05
3	0x36d10994	6.2298004e-06
4	0xb7a578dd	-1.9725814e-05
5	0xb81c8720	-3.7319143e-05
6	0x3982cbe3	0.0002494744
7	0xb4f3afea	-4.5390271e-07
8	0xb83e46f8	-4.5365625e-05
9	0xb620dc3f	-2.3970058e-06
10	0x373b9436	1.1180577e-05
11	0x3730c4a0	1.0536198e-05
12	0x36d5d404	6.3725765e-06
13	0xb776c225	-1.4707945e-05
14	0x3633b4e2	2.6778366e-06
15	0x36d78628	6.423117e-06
16	0x3822637c	3.8716462e-05
17	0x37702367	1.43133575e-05
18	0x369f906a	4.7553813e-06
19	0x389d363c	7.496445e-05
20	0xb819b47b	-3.6646128e-05
21	0x37a1c3a4	1.9283798e-05
22	0x38306ddb	4.206398e-05
23	0x3837200e	4.3660453e-05
24	0x382a8ed1	4.0664167e-05
25	0x36ec6ce3	7.046024e-06
26	0xb722347f	-9.668175e-06
27	0xb81972d9	-3.6585003e-05
28	0xb7292f1b	-1.0084153e-05
29	0x360dfdb4	2.1158312e-06
30	0xb8029a17	-3.1137923e-05
31	0x35429ce4	7.249894e-07
32	0xb7ed8653	-2.8315151e-05
33	0x372bc27b	1.0237675e-05
34	0xb694b24a	-4.4314993e-06
35	0x36a5d04c	4.941632e-06
36	0x37144da6	8.839566e-06
37	0xb8041182	-3.1487558e-05
38	0x37b44ee6	2.1494412e-05
39	0x375ae577	1.3047239e-05
40	0xb80d2dea	-3.365978e-05
41	0xb7db1d55	-2.6120493e-05
42	0x370dc09e	8.449102e-06
43	0x36c3cb43	5.8351156e-06
44	0x373f2bad	1.1394656e-05
45	0x38070245	3.2188622e-05
46	0xb7df150f	-2.6593478e-05
47	0x37210b26	9.5989435e-06
48	0x3785e0fc	1.5959602e-05
49	0x35452995	7.344873e-07
50	0x376a2b9b	1.395764e-05
51	0xb860118a	-5.3422096e-05
52	0x3889a416	6.5632325e-05
53	0x37b08797	2.1043974e-05
54	0x378a4e01	1.6487205e-05
55	0x38c19466	9.2305985e-05
56	0xb83f00d7	-4.553873e-05
57	0x36ee59e2	7.1034165e-06
58	0xb73c2197	-1.1213494e-05
59	0xb8893eb6	-6.54435e-05
60	0x385c9928	5.2594725e-05
61	0xb81390d5	-3.5182416e-05
62	0x37e52b14	2.7318987e-05
63	0xb7915417	-1.7324504e-05

bn1.weight f4 [64]
0	0x3f837c8b	1.0272382
1	0x3f7f4e34	0.99728703
2	0x3f6f1e45	0.9340556
3	0x3f45eab4	0.77311254
4	0x3f6d1d91	0.9262324
5	0x3f71398d	0.9422844
6	0x3f70d382	0.94072735
7	0x3f716ea7	0.9430947
8	0x3f635992	0.8880855
9	0x3f77fd8d	0.9687126
10	0x3f87276f	1.0558909
11	0x3f799b1c	0.97502303
12	0x3f69d372	0.91338265
13	0x3f770999	0.9649902
14	0x3f6dd9e2	0.9291059
15	0x3f537152	0.8259479
16	0x3f66c878	0.9014964
17	0x3f61c025	0.88183814
18	0x3f6d7b83	0.9276659
19	0x3f82a569	1.0206729
20	0x3f6bd5fc	0.9212339
21	0x3f4fa2d7	0.8110785
22	0x3f606589	0.8765493
23	0x3f717c99	0.94330746
24	0x3f7c2da9	0.9850717
25	0x3f93cb89	1.1546489
26	0x3f890b6f	1.0706614
27	0x3f817e77	1.0116719
28	0x3f6805e9	0.9063402
29	0x3f5fda3a	0.8744236
30	0x3f5e6298	0.8686919
31	0x3f69ecc6	0.9137691
32	0x3f7bce44	0.9836161
33	0x3f783200	0.96951294
34	0x3f612d26	0.87959516
35	0x3f809f3e	1.0048597
36	0x3f6ea7c1	0.9322472
37	0x3f4fb164	0.8113005
38	0x3f5dc354	0.8662617
39	0x3f8053ea	1.0025609
40	0x3f82d0fe	1.0220029
41	0x3f846319	1.0342742
42	0x3f4744a5	0.7783912
43	0x3f639aa5	0.88907844
44	0x3f7313ea	0.9495226
45	0x3f7dfbc0	0.99212265
46	0x3f8d6680	1.1046906
47	0x3f61da23	0.88223475
48	0x3f7a5fcb	0.9780242
49	0x3f6cdb11	0.9252177
50	0x3f56f931	0.83973986
51	0x3f85c6a9	1.0451251
52	0x3f85061c	1.039249
53	0x3f70937e	0.93975055
54	0x3f7cf2b7	0.98807853
55	0x3f7fa6c4	0.9986384
56	0x3f696a09	0.9117742
57	0x3f89117c	1.0708461
58	0x3f86a15a	1.051799
59	0x3f51fa11	0.82022196
60	0x3f64cf58	0.8937888
61	0x3f7fbfcd	0.9990204
62	0x3f62eedb	0.88645715
63	0x3f838840	1.0275955

bn1.bias f4 [64]
0	0xbe155cf5	-0.14586242
1	0x3c624986	0.013811475
2	0xbe43a2c5	-0.1910506
3	0xbca1ecb1	-0.019766184
4	0x3d0ba8fa	0.034096695
5	0x3e2e8c87	0.17045794
6	0x3c162f34	0.009166528
7	0xbd983b5f	-0.07433199
8	0xbe6eeaec	-0.23331803
9	0xbd21f17b	-0.039536934
10	0xbd4e0e17	-0.050306406
11	0x3dc7f964	0.09764364
12	0xbdb9bb7c	-0.09068963
13	0xbe8a576e	-0.2701983
14	0xbd1c43be	-0.03815054
15	0xbe947961	-0.28998855
16	0xbd887f9c	-0.066649646
17	0xbb9ebce9	-0.004844297
18	0xbbcc713f	-0.006239086
19	0x3e7cf362	0.24702218
20	0xbeca0650	-0.3945794
21	0xbe1c699e	-0.15274665
22	0xbe4cd7ca	-0.20004192
23	0x3e577933	0.21042328
24	0x3d184be1	0.03718174
25	0x3dd82aa5	0.10555009
26	0xbe308ce2	-0.17241243
27	0x3dd6e159	0.104922004
28	0x3dbc98c9	0.09208829
29	0x3d889b1b	0.06670209
30	0x3d12fc5a	0.035885192
31	0xbda9336b	-0.0826176
32	0x3e3e026c	0.18555611
33	0xbe93ff43	-0.28905687
34	0x3c12c449	0.008957931
35	0x3d8bcbde	0.06825994
36	0x3ca0309d	0.01955443
37	0x3d7ed185	0.062211532
38	0x3dd08fab	0.101836525
39	0xbd32f7b1	-0.04369325
40	0xbd56866a	-0.05237428
41	0xbcfd1203	-0.030892378
42	0xbdf76e09	-0.120815344
43	0xbdf05891	-0.11735643
44	0xbd00517b	-0.031327706
45	0x3d0251de	0.031816356
46	0x3cc93902	0.024563316
47	0x3c8580a4	0.016296692
48	0x3e5cd30b	0.21564882
49	0x3c64ee78	0.013972871
50	0x3d02e580	0.03195715
51	0xbc242109	-0.010017642
52	0x3d460e5b	0.048353534
53	0x3c7ec881	0.015550734
54	0xbcc8ca86	-0.024510633
55	0xbe2d6a0a	-0.16934982
56	0xbe518f2d	-0.20464773
57	0xbd2e5ac8	-0.042567044
58	0xbe0c7bae	-0.13719055
59	0xbe0e23cf	-0.13880847
60	0xbe848695	-0.25883928
61	0x3dbfeb6e	0.093710765
62	0xbda128dd	-0.07869122
63	0xbdaf078c	-0.08546361

bn1.running_mean f4 [64]
0	0x3b592969	0.0033136255
1	0x3adfc44b	0.001707205
2	0x3b6483d4	0.0034868615
3	0xbb0c31b2	-0.0021391925
4	0x399f4316	0.00030376826
5	0x3a8773e4	0.0010334221
6	0xbb0dc731	-0.002163362
7	0x39c4b176	0.00037516252
8	0x3b3214bc	0.0027173003
9	0xba7a9f83	-0.0009560512
10	0x3b3080ee	0.0026932317
11	0x3af962a8	0.0019026594
12	0xbb7af88d	-0.003829512
13	0xbb4e5720	-0.0031485036
14	0x3b5785bf	0.0032886115
15	0xbb0b0760	-0.0021214113
16	0x3a67431e	0.0008821952
17	0xba9af89c	-0.0011823359
18	0x3a1b551f	0.0005925465
19	0xbadb32ad	-0.0016723477
20	0x3aedd170	0.0018144082
21	0x3a26ec3d	0.00063675997
22	0xb9f4d894	-0.0004670067
23	0x3a8a75ef	0.0010563711
24	0xba8799cc	-0.0010345518
25	0xbb2c67c6	-0.002630697
26	0x3b809e9b	0.0039251572
27	0x3b17b096	0.0023146025
28	0xba9b1688	-0.0011832276
29	0x3a9f61fc	0.0012159939
30	0x3b3e1890	0.002900634
31	0xbac5f6ba	-0.0015103437
32	0xbadebdb7	-0.0016993795
33	0xbac3154b	-0.0014883665
34	0xba81c2ce	-0.0009899975
35	0xba4d0a5c	-0.0007821673
36	0xb946f1e5	-0.00018972864
37	0xbb6da7c4	-0.0036263326
38	0x3acf59c0	0.0015819594
39	0xba06d352	-0.00051431835
40	0xba8420d0	-0.001008058
41	0xbb26dcbe	-0.0025461162
42	0xbaceb352	-0.0015769994
43	0xbb2904e4	-0.0025790269
44	0xbb284db6	-0.0025681085
45	0xb98959c7	-0.00026197566
46	0x3ad27f83	0.001605973
47	0xba4219ce	-0.0007404358
48	0xbafcf938	-0.0019300347
49	0x3ab52c54	0.0013822415
50	0x3907b316	0.00012941318
51	0xbaabca0a	-0.0013106477
52	0x3a510ef4	0.00079749455
53	0xba854922	-0.001016889
54	0xbb3a734b	-0.0028450068
55	0x3b1c854a	0.0023883157
56	0x3ab9e570	0.0014182758
57	0xba380b0f	-0.0007020691
58	0x3af57d13	0.0018729292
59	0xbb1d6a70	-0.002401974
60	0xba16ec1a	-0.0005757228
61	0x39f65b88	0.00046988972
62	0xba8ea35f	-0.0010882429
63	0x3b7345bb	0.003712042

bn1.running_var f4 [64]
0	0x3ea3b86c	0.3197664
1	0x3e804c53	0.2505823
2	0x3eaed88c	0.34149587
3	0x3e5aabd0	0.21354604
4	0x3e916013	0.2839361
5	0x3e685c18	0.22691381
6	0x3e6c10c2	0.23053268
7	0x3e8fd629	0.2809308
8	0x3ec1c5a8	0.37846112
9	0x3e06d098	0.1316551
10	0x3ea385d7	0.3193805
11	0x3eaa7e9f	0.3329973
12	0x3eead00d	0.45861855
13	0x3ea111f3	0.31459007
14	0x3f0568dc	0.5211313
15	0x3eb8bc1b	0.36081013
16	0x3dcc7f68	0.09985238
17	0x3e4d65a2	0.20058301
18	0x3e177184	0.14789397
19	0x3e3611cd	0.17780228
20	0x3e55a5ee	0.20864078
21	0x3eb646d2	0.35600907
22	0x3e12378b	0.14279
23	0x3e0f8ce6	0.14018592
24	0x3e98f742	0.29876143
25	0x3e5bc50e	0.21461889
26	0x3ea582f8	0.32326484
27	0x3e50a4d4	0.20375377
28	0x3e8975a7	0.26847574
29	0x3e20b4c0	0.1569395
30	0x3e54fed9	0.20800342
31	0x3f22498f	0.6339349
32	0x3e30fe9a	0.17284623
33	0x3e43e050	0.19128537
34	0x3e975478	0.29556632
35	0x3df12e4a	0.11776407
36	0x3e29e8c1	0.16592695
37	0x3f151b6b	0.5824496
38	0x3e7ffb38	0.24998176
39	0x3e67ab9b	0.22624056
40	0x3e9c7672	0.30559117
41	0x3e4b888e	0.1987631
42	0x3e96762c	0.29387033
43	0x3eaf5cc4	0.34250462
44	0x3e45c97e	0.19315144
45	0x3e6ad326	0.22932109
46	0x3e05a767	0.1305214
47	0x3dd2d9d6	0.10295455
48	0x3e3e80ca	0.18603817
49	0x3e896361	0.26833633
50	0x3e345e61	0.17614128
51	0x3e1870f8	0.14886844
52	0x3e810f04	0.2520677
53	0x3e5cfc00	0.21580505
54	0x3eaf0a8c	0.34187734
55	0x3e7eda01	0.2488785
56	0x3e2293da	0.15876713
57	0x3e831756	0.2560374
58	0x3e61423b	0.21997921
59	0x3eb5084d	0.35357895
60	0x3dde703f	0.10861253
61	0x3e588412	0.21144131
62	0x3e3e925c	0.18610519
63	0x3eb31b19	0.3498161

conv2.weight f4 [128, 64, 5]
0	0xbdb61543	-0.08890774
1	0x3b149680	0.0022672713
2	0xbd06fecc	-0.032957837
3	0xbc4afca6	-0.012389338
4	0xbdcd9477	-0.10038083
5	0xbdc76f40	-0.09738016
6	0x3dfecf59	0.12441892
7	0xbd54f176	-0.051988088
8	0x3d809244	0.06277898
9	0x3d8c67c4	0.06855729
10	0xbd911fba	-0.070861295
11	0xbb5ba0d4	-0.003351261
12	0x3d6b54e4	0.057454005
13	0x3d3e29ab	0.046426456
14	0x3dde5edb	0.10857936
15	0xbd0868ae	-0.033302955
16	0x3da85bcd	0.082206346
17	0xbd7554d2	-0.059895344
18	0xbd8efaa9	-0.069814034
19	0x3d07ef94	0.033187464
20	0x3bcfb3e7	0.0063385847
21	0x3d8be761	0.068312414
22	0x3bd8af7c	0.0066127162
23	0xbc897848	-0.016780987
24	0x3d8c4b1a	0.06850262
25	0xbc84e2a0	-0.016221344
26	0x3cbaeab0	0.022816986
27	0x3cdd2c49	0.026998656
28	0x3a82304c	0.0009932606
29	0x3d5882a2	0.052858956
30	0x3cf0de8d	0.029402995
31	0xbb770cec	-0.003769691
32	0x3d820e11	0.06350339
33	0x3c889764	0.016673751
34	0x3d71115c	0.058854446
35	0x3d5cb610	0.053884566
36	0xbce1b251	-0.027550848
37	0xbc867dcb	-0.016417405
38	0x3d78116e	0.060563497
39	0x3d8b7995	0.06810299
40	0xbd942174	-0.07232943
41	0x3d26c218	0.040712446
42	0xbcb8fc87	-0.022581352
43	0xbd78a236	-0.06070157
44	0x3d13262c	0.035925075
45	0x3c7ca9d6	0.015421351
46	0x3dced530	0.10099256
47	0xbd56bae3	-0.052424323
48	0x3c8ffdfe	0.017577168
49	0x3d21f901	0.03954411
50	0xbbb9f15b	-0.0056745238
51	0x3d63ead6	0.05564388
52	0xbd640785	-0.055671234
53	0xbd8d929a	-0.06912728
54	0x3d457373	0.048205804
55	0xbda9a7e9	-0.082839794
56	0x3d1a1602	0.037618645
57	0x3d5669a0	0.052346826
58	0xbda06ec6	-0.07833628
59	0x3d680e8b	0.056654494
60	0x3c344f01	0.011005164
61	0xbbe5b944	-0.007010611
62	0xbb931eb6	-0.004489745
63	0xbd7eb877	-0.062187638
64	0xbd273502	-0.040822037
65	0x3da348d4	0.07972875
66	0xbca74942	-0.020420674
67	0xbc91321b	-0.017724087
68	0x3cb07759	0.021541284
69	0xbd889fd9	-0.066711135
70	0xbc0419d2	-0.008062797
71	0x3c2d1652	0.010564404
72	0x3c143687	0.009046203
73	0x3e0738a4	0.132052
74	0x3d8033f1	0.06259907
75	0xbdc16dfa	-0.094448045
76	0x3dfd25b9	0.12360711
77	0x3b5c5a0e	0.0033623013
78	0xbd25c4f0	-0.040471017
79	0x3d72e7af	0.059302982
80	0x3c9bb688	0.019007936
81	0x3ced96ff	0.029002665
82	0xbd06c3d3	-0.032901596
83	0x3cc08a94	0.02350358
84	0x3cb483b3	0.022035455
85	0x3d1764c2	0.036961325
86	0xbe1d50dc	-0.15362877
87	0x3d28dbeb	0.041225355
88	0x3b3392cb	0.0027400728
89	0xbd887a2e	-0.06663929
90	0x3d06c228	0.032900006
91	0x3d9eb678	0.07749647
92	0x3da3b601	0.07993699
93	0x3d34b6c8	0.044119626
94	0x3d249aae	0.040186577
95	0x3a92223c	0.0011149119
96	0xbc754e8b	-0.014972339
97	0x3cf2326e	0.029565062
98	0xbd49a3cb	-0.04922847
99	0xbd0aea47	-0.03391483
100	0xbd26f79c	-0.040763482
101	0xbd4101b6	-0.047120772
102	0xbc07e5fe	-0.0082945805
103	0x3d9540ed	0.07287774
104	0xbdb029dd	-0.08601735
105	0x3ddcbf4c	0.107786745
106	0xbda92430	-0.08258855
107	0xbd29ed7d	-0.041486252
108	0xbd3f1603	-0.04665185
109	0xbc5f20c7	-0.013618655
110	0xbcf86b9f	-0.030324755
111	0xbc910058	-0.01770036
112	0xbd394659	-0.045233104
113	0xbd2962ec	-0.041354105
114	0x3d42919b	0.04750214
115	0x3cb49114	0.022041835
116	0xbd177230	-0.036974132
117	0xbc7c6893	-0.015405792
118	0xbc52aa25	-0.012857948
119	0xbb377da6	-0.0027998476
120	0xbd1abd19	-0.037777994
121	0x3de537fb	0.11192318
122	0x3c5b67ef	0.013391479
123	0xbdb91a52	-0.09038223
124	0x3d9ae72b	0.07563623
125	0xbd6a5055	-0.057205517
126	0xbca6dea2	-0.020369831
127	0xbe743c69	-0.2385117
128	0xbd0b046f	-0.033939775
129	0xbdf6c7de	-0.120498404
130	0x3d0768fe	0.033059113
131	0xbdfdbc94	-0.12389484
132	0xbdcb49ce	-0.099261865
133	0xbd549c10	-0.051906645
134	0xbddf0975	-0.10890476
135	0xbd41ebae	-0.047343902
136	0x3dc0d7f9	0.094161935
137	0x3d31f2c7	0.04344442
138	0xbd4eae61	-0.05045927
139	0x3d449ff6	0.048004113
140	0xbde66822	-0.112503305
141	0xbd06dbc7	-0.03292444
142	0xbd8c4e02	-0.06850816
143	0xbd0c9388	-0.034320384
144	0x3d6d4cf5	0.05793472
145	0xbcf3706b	-0.029716691
146	0xbc7844fa	-0.015153164
147	0x3d7120b3	0.058869075
148	0x3d87da6b	0.06633457
149	0x3ae44e83	0.0017418418
150	0xbd04c3b2	-0.032413192
151	0x3d151c8c	0.036404178
152	0x3c188b67	0.00931058
153	0xbdcac407	-0.099006705
154	0x3d961a8d	0.07329283
155	0xbd3ffa01	-0.04686928
156	0x3cd041d0	0.025422007
157	0xbc579437	-0.013157896
158	0xbd3d38d7	-0.046196785
159	0x3ce788c6	0.02826346
160	0xbd8c3f6d	-0.06848035
161	0xbd8cb96b	-0.06871303
162	0x3ad6ffe4	0.0016403166
163	0xbd3e3023	-0.046432626
164	0xbd3b4344	-0.045718446
165	0xbd27c927	-0.04096332
166	0xbe035b12	-0.1282771
167	0x3d5b4e16	0.053541265
168	0xbde4476a	-0.11146434
169	0xbd1c21fb	-0.038118344
170	0xbc8d75ef	-0.01726815
171	0x3dabe045	0.083923854
172	0xbcfb0e54	-0.03064648
173	0xbd2a1cbf	-0.04153132
174	0xbd796ac3	-0.06089283
175	0x3d38c467	0.04510918
176	0xbd32af05	-0.043623943
177	0x3ce76ef0	0.028251141
178	0x3d1a997f	0.03774404
179	0xbdb3f8ba	-0.08787675
180	0x3d41dd04	0.047329918
181	0xbc2c9ab1	-0.010534928
182	0x3da6223a	0.08111997
183	0x3cf045f0	0.029330224
184	0x3de04496	0.10950582
185	0x3c6d1611	0.014470593
186	0x3c1339e8	0.008985974
187	0xbca0d7f2	-0.01963422
188	0xbbbac08f	-0.0056992243
189	0xbd21ad50	-0.039471924
190	0x3cc7a6f5	0.024371604
191	0xbddfcce4	-0.10927752
192	0x3c032bec	0.008006077
193	0x3ca07910	0.019588977
194	0xbd568dcf	-0.052381333
195	0xbd97b4d5	-0.07407538
196	0x3c09822a	0.00839285
197	0x3d4cb152	0.049973793
198	0x3d021bc6	0.031764768
199	0xbd8afbe0	-0.067863226
200	0xbd66a595	-0.056310255
201	0x3daf7fdd	0.0856931
202	0x3dc81409	0.097694464
203	0xbd27975f	-0.040915843
204	0xbcdaf4c2	-0.026728038
205	0x3dd9b937	0.1063103
206	0xbd204bda	-0.039134838
207	0x3d2992eb	0.041399878
208	0x3ce4abe6	0.027913999
209	0xbc280303	-0.010254624
210	0x3bef86db	0.007309777
211	0x3d107420	0.035266995
212	0xbc7e8d63	-0.015536639
213	0x3d39a42c	0.045322582
214	0xbd0d9cf9	-0.03457353
215	0xbd1a7248	-0.037706643
216	0x3d990089	0.07470805
217	0x3c541c0d	0.012946141
218	0xbba2f3c0	-0.004972905
219	0x3d98c0ff	0.07458686
220	0xbd8a5d76	-0.067561075
221	0x3d9c24e4	0.07624224
222	0xbd993807	-0.074813895
223	0xbe260f43	-0.1621676
224	0xbd34c9a1	-0.0441376
225	0xbe2f0e4f	-0.17095302
226	0x3dc8dc08	0.09807593
227	0x3c34ff0d	0.011047137
228	0xbdf5b49f	-0.11997341
229	0x3d9de5d0	0.07709849
230	0xbd08e0e4	-0.033417597
231	0x3e17b6d0	0.14815831
232	0x3db4a497	0.088204555
233	0xbcbbfb1f	-0.022946892
234	0x3df36b4e	0.11885701
235	0x3cc1e04e	0.023666527
236	0x3d2e991e	0.042626493
237	0xbc79842a	-0.015229264
238	0xbd824261	-0.06360317
239	0xbd4b1bef	-0.049587186
240	0xbdbc1015	-0.09182755
241	0x3da40e9c	0.08010599
242	0xbcdebc61	-0.027189435
243	0xbdf04b81	-0.11733151
244	0x3ddcb4af	0.1077665
245	0x3cad02a9	0.021119433
246	0x3d31bdbf	0.043393847
247	0x3df27dbb	0.118403874
248	0x3dbdc3b5	0.09265844
249	0x3daecbd8	0.08534974
250	0x3cc32999	0.023823546
251	0x3cf8909c	0.030342393
252	0xbcb4c141	-0.022064807
253	0xbdd98dcb	-0.10622748
254	0x3ba1efc6	0.0049419133
255	0xbdb77d36	-0.08959429

conv2.bias f4 [128]
0	0x38a16f04	7.6977565e-05
1	0xb633863c	-2.6751213e-06
2	0x36e73d13	6.8914464e-06
3	0x37a6f7bc	1.9904102e-05
4	0xb7642907	-1.3599411e-05
5	0x391212e2	0.0001393068
6	0x36ac7b75	5.1403717e-06
7	0x37bfe4f1	2.2875583e-05
8	0xb7bdd5b9	-2.2630078e-05
9	0x37005b21	7.650612e-06
10	0xb75d5138	-1.3191537e-05
11	0x3725b37a	9.876554e-06
12	0x359812f1	1.1330395e-06
13	0x37b600f4	2.1696535e-05
14	0x361969a2	2.2860263e-06
15	0xb716a291	-8.978547e-06
16	0xb8e72f51	-0.00011023752
17	0x3873cd10	5.8126694e-05
18	0xb91225ce	-0.00013937728
19	0x37bda4e6	2.2607343e-05
20	0xb4b9e8d4	-3.462834e-07
21	0x37d33cb8	2.5181434e-05
22	0xb9377ded	-0.00017499151
23	0x3715113d	8.885106e-06
24	0x3748cfe6	1.1969334e-05
25	0x36871bf4	4.0265677e-06
26	0x360d3a76	2.1044666e-06
27	0xb7537ab4	-1.2605149e-05
28	0xb79c76df	-1.8652003e-05
29	0xb7a4fa30	-1.9666826e-05
30	0x384d82e8	4.8997725e-05
31	0xb70f77bf	-8.551345e-06
32	0xb70b2f90	-8.29612e-06
33	0x3804725f	3.157777e-05
34	0x3802d4dc	3.1192656e-05
35	0x380a0dbb	3.291455e-05
36	0x388e9358	6.7985326e-05
37	0xb70356fd	-7.828462e-06
38	0xb6cf2023	-6.172822e-06
39	0x38ca61a4	9.6502976e-05
40	0x35b30bd8	1.3339986e-06
41	0x36ee00b0	7.0930328e-06
42	0xb5fb4fc7	-1.8724176e-06
43	0xb787bd4b	-1.61814e-05
44	0xb6e6cb06	-6.878169e-06
45	0x370c97e0	8.380011e-06
46	0xb7b2c815	-2.1312424e-05
47	0xb80d71fd	-3.372318e-05
48	0x354ffa4f	7.7477756e-07
49	0x36af65a8	5.2272408e-06
50	0x35a4f76d	1.2290963e-06
51	0xb72328e7	-9.72508e-06
52	0x34c06f48	3.5843755e-07
53	0xb6d8bf65	-6.459583e-06
54	0x3844c5cf	4.6914265e-05
55	0xb6c60b78	-5.902195e-06
56	0x36e6b07e	6.8750805e-06
57	0x386ff672	5.721156e-05
58	0x36db56ba	6.536805e-06
59	0x381c9364	3.7330567e-05
60	0xb9012321	-0.00012315485
61	0x3713f9b7	8.820024e-06
62	0xb88b8bdc	-6.654087e-05
63	0xb829bdb7	-4.0469426e-05
64	0x37d40b01	2.5277493e-05
65	0xb4183b7a	-1.417774e-07
66	0xb705cf78	-7.975723e-06
67	0xb644039c	-2.9208377e-06
68	0x3776c2eb	1.47081255e-05
69	0xb77d17fa	-1.5085558e-05
70	0x388d7939	6.7459834e-05
71	0x364e027b	3.0697836e-06
72	0x37233a3e	9.729118e-06
73	0x37bef058	2.2761684e-05
74	0x37178b09	9.032673e-06
75	0x3727c7ac	1.0000465e-05
76	0xb88e2418	-6.7778106e-05
77	0xb734eadb	-1.0783518e-05
78	0x37d96d92	2.5919438e-05
79	0xb683dba2	-3.929673e-06
80	0x34d6aaad	3.998479e-07
81	0x3786b708	1.6059275e-05
82	0xb7258776	-9.866306e-06
83	0xb76b0245	-1.400762e-05
84	0x348c4374	2.612611e-07
85	0x382cdc40	4.121312e-05
86	0xb79f38c0	-1.8980703e-05
87	0x36e5d60c	6.84965e-06
88	0x378c0cbe	1.6695234e-05
89	0xb6a72bc4	-4.982083e-06
90	0x3742295d	1.1572932e-05
91	0x365aab71	3.2584323e-06
92	0x365bd738	3.2758817e-06
93	0x36a83328	5.0127455e-06
94	0x38335e38	4.2764674e-05
95	0xb753a201	-1.26142995e-05
96	0xb6cd54bc	-6.1193405e-06
97	0x38ae40a5	8.3090075e-05
98	0x3792614e	1.7449867e-05
99	0xb71eacb3	-9.4577435e-06
100	0x3818e921	3.6456742e-05
101	0x39859091	0.00025475447
102	0xb790f676	-1.7280905e-05
103	0x368e814b	4.2469815e-06
104	0xb6729a98	-3.6150795e-06
105	0x372e1ccc	1.0377913e-05
106	0x36bfb23a	5.712992e-06
107	0xb752d02f	-1.2565447e-05
108	0x38304697	4.2027412e-05
109	0xb8470ec5	-4.7459052e-05
110	0xb6c39d59	-5.8297705e-06
111	0xb8d1db28	-0.00010006718
112	0x37e11cce	2.6835503e-05
113	0x386e6735	5.683974e-05
114	0x37e31789	2.7071468e-05
115	0xb7ee84a6	-2.843358e-05
116	0xb6687551	-3.463898e-06
117	0xb651ca04	-3.1261015e-06
118	0xb6784a26	-3.699804e-06
119	0x35734fa3	9.064044e-07
120	0x36800526	3.8152966e-06
121	0x376e5dd0	1.4207748e-05
122	0x36ab1293	5.0983595e-06
123	0x37f8cb02	2.9658437e-05
124	0x3834c9f9	4.3103446e-05
125	0xb590976b	-1.0772904e-06
126	0xb40530ae	-1.24043e-07
127	0xb8140e9d	-3.529956e-05

bn2.weight f4 [128]
0	0x3f72e470	0.9487982
1	0x3f46077e	0.7735518
2	0x3f75711a	0.95875704
3	0x3f6d30e2	0.92652714
4	0x3f3ffdaf	0.74996465
5	0x3f7344d5	0.95026904
6	0x3f37b958	0.7176719
7	0x3f5bd5aa	0.858729
8	0x3f6dd654	0.92905164
9	0x3f511cc2	0.81684506
10	0x3f624b88	0.883965
11	0x3f45b6bf	0.77231973
12	0x3f500225	0.8125327
13	0x3f478258	0.77933264
14	0x3f4f2ca0	0.8092747
15	0x3f262eeb	0.6491534
16	0x3f85994d	1.0437409
17	0x3f6e5ad2	0.9310733
18	0x3f833f69	1.0253726
19	0x3f5539c2	0.83291256
20	0x3f4a08dd	0.78919774
21	0x3f59c88f	0.85071653
22	0x3f6c698e	0.92348564
23	0x3f5d5989	0.86464745
24	0x3f654fbd	0.89574796
25	0x3f635b49	0.88811165
26	0x3f5ed5ea	0.87045157
27	0x3f78b8ef	0.97157186
28	0x3f6117ae	0.8792676
29	0x3f6d5d5f	0.927206
30	0x3f531d80	0.8246689
31	0x3f50fbf1	0.8163443
32	0x3f454dbd	0.77071744
33	0x3f40f68c	0.753762
34	0x3f451d40	0.76997757
35	0x3f52f77a	0.8240887
36	0x3f7382f9	0.95121723
37	0x3f6069c9	0.87661415
38	0x3f58f21d	0.84744436
39	0x3f7da733	0.9908325
40	0x3f7a7d7e	0.97847736
41	0x3f7d8506	0.990311
42	0x3f6eff2b	0.93358105
43	0x3f4bc571	0.79598147
44	0x3f3b80db	0.7324349
45	0x3f49d77f	0.78844446
46	0x3f534d68	0.8253999
47	0x3f70bf9c	0.9404237
48	0x3f5be439	0.85895115
49	0x3f5f805b	0.8730523
50	0x3f379c7e	0.71723163
51	0x3f61289d	0.87952596
52	0x3f5360c7	0.82569546
53	0x3f1c4bae	0.6105298
54	0x3f88a884	1.0676427
55	0x3f4c3959	0.79775006
56	0x3f5cbd1c	0.8622606
57	0x3f7a3955	0.9774373
58	0x3f3b3271	0.7312384
59	0x3f7339ee	0.9501027
60	0x3f83e1f9	1.0303336
61	0x3f4fb146	0.8112987
62	0x3f6544d6	0.8955816
63	0x3f675b17	0.9037337
64	0x3f5b34cb	0.8562743
65	0x3f71306d	0.94214517
66	0x3f7ceae5	0.9879592
67	0x3f4a589a	0.79041445
68	0x3f6cba11	0.92471415
69	0x3f69ae63	0.9128172
70	0x3f6bfd60	0.92183495
71	0x3f5cf825	0.8631614
72	0x3f782cfb	0.96943635
73	0x3f6142e1	0.87992674
74	0x3f2626d8	0.6490302
75	0x3f749b7c	0.9554975
76	0x3f63b735	0.88951427
77	0x3f6d8bc5	0.92791396
78	0x3f3bddd9	0.7338539
79	0x3f486469	0.78278214
80	0x3f331962	0.69960606
81	0x3f538177	0.8261942
82	0x3f67a033	0.9047882
83	0x3f75ff75	0.9609292
84	0x3f2dcbbc	0.67889
85	0x3f4f57af	0.8099317
86	0x3f5ac3fb	0.8545529
87	0x3f52f50a	0.8240515
88	0x3f3e5656	0.7435049
89	0x3f6a02bd	0.9141043
90	0x3f640c48	0.8908124
91	0x3f408720	0.75206184
92	0x3f24706f	0.6423406
93	0x3f6cabe5	0.9244979
94	0x3f5de3dc	0.8667581
95	0x3f6663e3	0.89996165
96	0x3f4d2ea4	0.8014929
97	0x3f854005	1.0410162
98	0x3f4d7e8f	0.8027124
99	0x3f71e551	0.94490534
100	0x3f6dbb8c	0.928643
101	0x3f96f7fa	1.1794426
102	0x3f50f99d	0.8163088
103	0x3f555ab0	0.83341503
104	0x3f6721e4	0.9028609
105	0x3f637624	0.88852143
106	0x3f7d83e2	0.9902936
107	0x3f65c467	0.8975281
108	0x3f56845b	0.8379571
109	0x3f7922a0	0.9731846
110	0x3f590cd6	0.8478521
111	0x3f64ae5b	0.89328545
112	0x3f537c49	0.8261152
113	0x3f719c42	0.94379056
114	0x3f77fcfc	0.968704
115	0x3f6cabfd	0.92449933
116	0x3f5350b6	0.8254503
117	0x3f4e153a	0.8050114
118	0x3f836a8b	1.0266889
119	0x3f2606dc	0.64854217
120	0x3f49f3f6	0.7888788
121	0x3f541521	0.8284474
122	0x3f4e9c0b	0.8070685
123	0x3f4fb02d	0.811282
124	0x3f6f0af0	0.93376064
125	0x3f4d37b8	0.80163145
126	0x3f70c61d	0.94052297
127	0x3f4eed75	0.8083108

bn2.bias f4 [128]
0	0xbda23286	-0.07919793
1	0xbe65ca10	-0.22440362
2	0xbe22888e	-0.15872404
3	0xbe94a65e	-0.29033178
4	0xbe3daf21	-0.18523838
5	0xbe8950b4	-0.26819384
6	0xbe7c0c6a	-0.2461411
7	0xbdfbfd96	-0.12304227
8	0xbe937e7a	-0.2880743
9	0xbe51dd63	-0.20494609
10	0xbe28b33d	-0.16474624
11	0xbdfdc04e	-0.12390195
12	0xbea9f96c	-0.33198106
13	0xbe71d749	-0.23617281
14	0xbe68d281	-0.22736551
15	0xbe180275	-0.14844687
16	0xbddf5fb7	-0.10906928
17	0xbdee6fdb	-0.116424285
18	0xbe4c6921	-0.19961978
19	0xbe2bc9c1	-0.16776182
20	0xbd6f22e8	-0.0583829
21	0xbdd0a83e	-0.1018834
22	0xbe478f87	-0.19488345
23	0xbe1fe6dd	-0.15615411
24	0xbe49299b	-0.19644777
25	0xbeb1d8bc	-0.34735668
26	0xbe8443ee	-0.25833076
27	0xbdaac5fa	-0.08338542
28	0xbe45d992	-0.19321278
29	0xbe828ebf	-0.25499532
30	0xbde405f7	-0.1113395
31	0xbe4e3a15	-0.20139344
32	0xbd82256c	-0.06354794
33	0xbe2f0000	-0.17089844
34	0xbe0b4873	-0.13601856
35	0xbdf8e4b5	-0.121529974
36	0xbd5eb9e8	-0.054376513
37	0xbd40be9c	-0.04705678
38	0xbe536373	-0.20643406
39	0xbe1fc251	-0.1560147
40	0xbe284369	-0.16431965
41	0xbe909dd5	-0.28245416
42	0xbe5e5aac	-0.21714276
43	0xbe34ed58	-0.17668664
44	0xbe43370d	-0.19063969
45	0xbdeebb1e	-0.116567835
46	0xbe1e4cc1	-0.15458967
47	0xbe8ede6f	-0.27904078
48	0xbe93905a	-0.2882107
49	0xbe4e7e72	-0.20165423
50	0xbe505233	-0.20343857
51	0xbe211303	-0.15729909
52	0xbde2c813	-0.110733174
53	0xbe053b68	-0.13010943
54	0xbe0c732c	-0.1371581
55	0xbe8ab3df	-0.27090356
56	0xbe526ae4	-0.20548588
57	0xbc9e63c8	-0.019334689
58	0xbd63c605	-0.055608768
59	0xbd252041	-0.040313963
60	0xbe824143	-0.25440416
61	0xbd5753b4	-0.05257006
62	0xbe5bd17a	-0.21466628
63	0xbe2b65ed	-0.167381
64	0xbdcfb1b3	-0.10141315
65	0xbe3accf9	-0.18242253
66	0xbe4d038d	-0.20020886
67	0xbe259e49	-0.16173662
68	0xbe3f884f	-0.18704341
69	0xbd346c17	-0.044048395
70	0xbdda983a	-0.10673566
71	0xbcb5fd43	-0.022215491
72	0xbded4ca8	-0.11586887
73	0xbe1f2212	-0.1554034
74	0xbe508f4b	-0.20367162
75	0xbe08d0e2	-0.13360932
76	0xbe16aacb	-0.1471359
77	0xbe10077f	-0.1406536
78	0xbe0560ac	-0.13025159
79	0xbdc0ae03	-0.0940819
80	0xbe352f33	-0.17693786
81	0xbe372afd	-0.17887492
82	0xbe160a85	-0.1465245
83	0xbe04b1fb	-0.12958519
84	0xbe37f181	-0.1796322
85	0xbde12e19	-0.109951206
86	0xbe30dee0	-0.1727252
87	0xbe08c7be	-0.13357446
88	0xbe1f7457	-0.15571724
89	0xbd6e5c46	-0.058193468
90	0xbd555226	-0.052080296
91	0xbe286de0	-0.16448164
92	0xbe551ca3	-0.20811705
93	0xbe518e56	-0.20464453
94	0xbe147fb9	-0.14501847
95	0xbe621f99	-0.22082366
96	0xbeb5a970	-0.35480833
97	0xbe6c3eac	-0.23070782
98	0xbe7d3bc4	-0.2472983
99	0xbe43e316	-0.19129595
100	0xbe9612ed	-0.29311314
101	0xbdbac130	-0.09118879
102	0xbe739211	-0.23786189
103	0xbe5af878	-0.21383846
104	0xbe343fd0	-0.17602468
105	0xbe814f61	-0.25255874
106	0xbe73d6d8	-0.23812425
107	0xbe182935	-0.14859469
108	0x3b06da0e	0.0020576748
109	0xbe65d966	-0.22446212
110	0xbe1a5b45	-0.15073879
111	0xbe8e52f1	-0.27797654
112	0xbe397ea9	-0.18114723
113	0xbda62063	-0.08111646
114	0xbe1ee061	-0.15515281
115	0xbe7fb06f	-0.24969648
116	0xbdd55112	-0.104158536
117	0xbdff825d	-0.12476037
118	0xbdfcc4fa	-0.12342258
119	0xbe42f849	-0.19040026
120	0xbe40f1cd	-0.1884224
121	0xbe593960	-0.21213293
122	0xbdb59579	-0.088664
123	0xbe2e24e3	-0.17006259
124	0xbe204bd7	-0.1565393
125	0xbe0e085c	-0.13870376
126	0xbe105e8c	-0.14098567
127	0xbe2025af	-0.15639375

bn2.running_mean f4 [128]
0	0xbf42f234	-0.7615082
1	0xbf40196d	-0.75038797
2	0xbfc77113	-1.5581383
3	0x3fba5f55	1.4560343
4	0xbe436853	-0.19082765
5	0xbf42f168	-0.76149607
6	0xbf8bc977	-1.0920857
7	0xbe40ca44	-0.18827158
8	0x3ff1449d	1.8849064
9	0xbefc98e7	-0.49335405
10	0xbf9161b4	-1.1357942
11	0xbf8462db	-1.0342668
12	0x4004b28e	2.073398
13	0x400a6ce0	2.1628952
14	0x3dc3bd78	0.09557623
15	0xbf0c504a	-0.5481001
16	0xbf18a153	-0.5962116
17	0xbb2256c6	-0.002477096
18	0xbead52af	-0.33852145
19	0xbf4973f1	-0.7869254
20	0xbf318045	-0.6933635
21	0xbe8dba77	-0.27681324
22	0xbe918b05	-0.28426376
23	0xbfed4570	-1.8536816
24	0x3e827c57	0.2548549
25	0xbee9189d	-0.4552659
26	0xbea42c93	-0.32065257
27	0xbf83329d	-1.0249821
28	0x3f21ee52	0.6325427
29	0x3f9e5ef3	1.2372726
30	0xbf3f2e1c	-0.7467973
31	0xbfa4a43b	-1.2862619
32	0xbf61ca14	-0.8819897
33	0xbf76ea49	-0.9645124
34	0xbf46386f	-0.7742986
35	0xbf960936	-1.1721561
36	0xbfc7a64d	-1.5597626
37	0xbfe1319e	-1.7593267
38	0xbf25bce5	-0.64741355
39	0xbf1b0421	-0.60553175
40	0xbfdd735b	-1.7300829
41	0xbf86c2a1	-1.0528146
42	0x3fbd8060	1.4804802
43	0xbeb6b455	-0.35684457
44	0xbef79544	-0.48356068
45	0xbf9f7530	-1.2457638
46	0xbf3a912b	-0.7287776
47	0xbf0217f4	-0.508178
48	0x3f8b7e91	1.0898
49	0xbf4af1be	-0.7927512
50	0xbf2ce0b6	-0.6753038
51	0xbf95c055	-1.169932
52	0xbf9abdd1	-1.2089177
53	0xbf782719	-0.9693466
54	0x3f29fde9	0.6640306
55	0x3e3477f5	0.17623885
56	0xbebaf5f3	-0.3651577
57	0xbf1394e3	-0.5764906
58	0xbf907ac5	-1.1287466
59	0xbfa33e45	-1.2753378
60	0xbd4eadf4	-0.050458863
61	0xbf5ab843	-0.8543741
62	0xbe6c64ce	-0.23085329
63	0x3f01d13a	0.5070988
64	0xbf761646	-0.96127737
65	0xbd0a73cf	-0.03380185
66	0xbe0f4c35	-0.13993914
67	0xbf584fcb	-0.84496754
68	0xbc5eb18a	-0.013592133
69	0xbfa86e85	-1.3158728
70	0xbfc006bd	-1.5002056
71	0xbfb5363d	-1.4157177
72	0x3d28b19d	0.04118501
73	0x3d94858e	0.07252036
74	0xbf001c02	-0.50042737
75	0xbfb059c6	-1.3777397
76	0x3f727d89	0.947228
77	0xbe9b70cf	-0.30359504
78	0xbf08ae3d	-0.53390867
79	0xbf9f380a	-1.2438977
80	0xbf21d3bc	-0.63213706
81	0xbf3837a6	-0.7195991
82	0xbf66a1b3	-0.90090483
83	0xbf5c5eb1	-0.8608199
84	0xbf5e3e79	-0.86814076
85	0xbe1d4f29	-0.15362228
86	0xbe90ae22	-0.28257853
87	0xbf3399cb	-0.70156544
88	0xbf184634	-0.5948212
89	0xbfb117f6	-1.3835437
90	0xbfde08df	-1.7346457
91	0xbf94f22d	-1.1636406
92	0xbecd7e9a	-0.40135652
93	0xbb0f21b4	-0.0021840157
94	0xbe8563c1	-0.2605267
95	0x400ddcdb	2.216605
96	0x3def3c5d	0.11681435
97	0xbedb5657	-0.4283931
98	0xbf583c33	-0.84466857
99	0xbe8e13c2	-0.2774945
100	0x3dd852c5	0.10562662
101	0x3f02374c	0.50865626
102	0x3eddb5f4	0.43302882
103	0xbe337fe1	-0.1752925
104	0xbf7f9677	-0.99838966
105	0x3ee14f83	0.44005975
106	0x3d90428e	0.07043944
107	0x3e2d2c60	0.16911459
108	0xbf2c181b	-0.6722428
109	0x3e3124b9	0.17299165
110	0xbf828113	-1.019564
111	0x3fd57d39	1.667884
112	0xbe50a030	-0.20373607
113	0xbf80e7e6	-1.007077
114	0xbe1cf2d8	-0.15327013
115	0x3f9a3644	1.204781
116	0xbf39da87	-0.7259907
117	0xbfa325e5	-1.274594
118	0xbf22ffbe	-0.6367148
119	0xbedba46f	-0.4289889
120	0xbf8c64aa	-1.096822
121	0xbf49e127	-0.7885918
122	0xbf4d12c1	-0.8010674
123	0x3e9c6d40	0.305521
124	0x3e51970e	0.20467779
125	0xbf89092b	-1.0705923
126	0xbfac4a1f	-1.346012
127	0xbf57681b	-0.8414323

bn2.running_var f4 [128]
0	0x3f8bd74c	1.0925078
1	0x3fb65316	1.4244106
2	0x40458482	3.0862126
3	0x3f7eec95	0.99579746
4	0x3fb42306	1.4073188
5	0x3f835f06	1.0263374
6	0x3fd5d445	1.6705405
7	0x3f991f2c	1.1962638
8	0x3fbda93e	1.4817274
9	0x3fba3dfe	1.4550169
10	0x4013ca50	2.3092232
11	0x4019e161	2.404381
12	0x3ffac09d	1.9590031
13	0x4007b82b	2.1206157
14	0x3f75b670	0.959815
15	0x3f89184b	1.0710539
16	0x3f98e8ae	1.1946008
17	0x3f9a8cb8	1.2074194
18	0x3f65cc2d	0.8976467
19	0x3fdc89cd	1.7229553
20	0x3fb0ab20	1.3802223
21	0x3f7d2e54	0.98898816
22	0x3f572efc	0.8405607
23	0x401da11e	2.4629588
24	0x3f9aff4b	1.2109159
25	0x3fc8d006	1.5688484
26	0x3fa987bb	1.3244547
27	0x3fc7a9a5	1.5598646
28	0x3f9595e2	1.1686366
29	0x4033be01	2.808472
30	0x401c85dc	2.4456701
31	0x4014d7af	2.3256643
32	0x4011211e	2.2676463
33	0x4010b4a6	2.261026
34	0x3fd67803	1.6755375
35	0x3fcf914b	1.6216215
36	0x3fc22689	1.516801
37	0x403944cc	2.894824
38	0x3fc9e010	1.5771503
39	0x3fa120c0	1.258812
40	0x401bb2d7	2.4327905
41	0x3fc34a32	1.5257018
42	0x3fc1ae80	1.5131378
43	0x3fab0d6d	1.3363472
44	0x40084057	2.128927
45	0x40403927	3.0034883
46	0x40027c40	2.0388336
47	0x3fe9f60f	1.8278216
48	0x3f79e124	0.9760916
49	0x3fd9324d	1.6968476
50	0x3f945e9a	1.159137
51	0x40146d2d	2.3191636
52	0x401595e2	2.3372731
53	0x3ff87021	1.9409219
54	0x3fbe55a2	1.4869883
55	0x3fb9a151	1.4502355
56	0x3f768845	0.9630168
57	0x3f94c89f	1.1623725
58	0x401f0433	2.4846313
59	0x3fefd5fa	1.8737175
60	0x3f662a7d	0.8990858
61	0x3f98b0cc	1.1928954
62	0x3fdf4a20	1.7444496
63	0x3fee53ac	1.8619285
64	0x3fffb7b4	1.9977937
65	0x3ff8d072	1.9438612
66	0x3f9715b9	1.1803504
67	0x3ff2537b	1.8931726
68	0x3f87a5f7	1.0597523
69	0x4036ee45	2.8582928
70	0x4015d3a1	2.3410418
71	0x405651f4	3.348752
72	0x3f911e98	1.1337461
73	0x3f94dfbc	1.1630778
74	0x3fe5e16e	1.7959421
75	0x40310262	2.7657704
76	0x3f8618b1	1.0476285
77	0x3f2d8e7f	0.67795557
78	0x3fe9f905	1.827912
79	0x40382372	2.8771634
80	0x3fa7c952	1.3108313
81	0x3ff5dbf6	1.9207752
82	0x40179c49	2.368914
83	0x3fcedb3d	1.6160656
84	0x4020d1be	2.5128016
85	0x3fd5b470	1.669569
86	0x3ff5ffc8	1.9218683
87	0x3ff91a47	1.9461144
88	0x3ff0f516	1.8824794
89	0x3ff449d6	1.9085033
90	0x401b759c	2.4290533
91	0x401d22cb	2.4552486
92	0x3fd6402a	1.6738331
93	0x3fd02a1a	1.6262848
94	0x3f7ddf73	0.9916908
95	0x3ffe9ecd	1.9892212
96	0x3fbae909	1.4602367
97	0x3f93c265	1.15437
98	0x3fb145e9	1.384946
99	0x3fb3c401	1.4044191
100	0x3fb6c73d	1.4279553
101	0x3fa86668	1.3156252
102	0x3f9b51bd	1.213432
103	0x3f756365	0.9585479
104	0x4004969d	2.0716927
105	0x401a9e06	2.415895
106	0x3f858e01	1.0433961
107	0x3fc321a7	1.5244645
108	0x3fc9e041	1.5771562
109	0x3f076275	0.5288461
110	0x4001658d	2.0218232
111	0x3fcfba1e	1.6228673
112	0x3fc9edba	1.5775673
113	0x3f923117	1.1421231
114	0x3f647c18	0.8925185
115	0x4048124f	3.1261175
116	0x400e24c7	2.2209947
117	0x401c1f4f	2.439411
118	0x3fc4b655	1.5368143
119	0x3f9c7488	1.2223063
120	0x403500cb	2.8281734
121	0x3fe76737	1.8078374
122	0x4036310e	2.846744
123	0x3fef7b43	1.8709491
124	0x3fb31b56	1.3992717
125	0x3fc515b4	1.5397248
126	0x400afbad	2.171611
127	0x40083787	2.1283891

conv3.weight f4 [256, 128, 3]
0	0x3d1093f1	0.035297338
1	0x3bca6fda	0.0061778845
2	0x3d05d4b5	0.032673556
3	0xbd4d3a6c	-0.050104544
4	0xbd259d5d	-0.040433276
5	0xbd51146c	-0.051044866
6	0xbd8096fa	-0.062787965
7	0xbd2fe827	-0.042946007
8	0xbbce8f3d	-0.0063036964
9	0x3c4d6a36	0.01253753
10	0xbbd76e8c	-0.0065744575
11	0xbae16c61	-0.0017198437
12	0xbd697c80	-0.057003498
13	0xbd8ce71f	-0.0688002
14	0xbd79508f	-0.060867842
15	0x3bb5b292	0.005544969
16	0x3b1cf634	0.002395046
17	0xbcd7d2e9	-0.026345687
18	0xbcfa378f	-0.03054407
19	0x3ba3415a	0.0049821557
20	0xbcc43131	-0.023949238
21	0x3c78b494	0.015179772
22	0x3d1858d7	0.0371941
23	0x3c0df76f	0.00866495
24	0x3c360abb	0.011110957
25	0x3d805edf	0.06268095
26	0x3d96282a	0.073318794
27	0xbd269cce	-0.040676884
28	0xba6babfb	-0.00089901657
29	0xbcf6b253	-0.030114328
30	0x3b9092a6	0.004412013
31	0xbcd6d163	-0.02622289
32	0xbd284005	-0.04107668
33	0xbcae0aa7	-0.021245314
34	0xbd0e9767	-0.034812357
35	0xbcbeb9a1	-0.023281874
36	0x3cf1f87a	0.029537428
37	0x3c7b15c7	0.015325016
38	0xbcaaf5dd	-0.02086919
39	0x3d67ab0c	0.056559607
40	0x3c86f136	0.01647244
41	0x3d440d3d	0.047864188
42	0x3d32ecf2	0.043683
43	0x3d16c4aa	0.036808647
44	0x3cc2e870	0.023792475
45	0xbd2826a6	-0.041052483
46	0xbc59aee6	-0.013286328
47	0xbcfaf038	-0.030632123
48	0xbbb204dc	-0.005432708
49	0x3d937952	0.072008744
50	0x3a3fb2a9	0.0007312694
51	0x3c486cb2	0.012232946
52	0xbbca349d	-0.006170823
53	0xbd50a5ab	-0.050939243
54	0x3d7c4218	0.06158647
55	0x3c62bdd9	0.0138392085
56	0x3d3fc559	0.046819065
57	0x3ca18816	0.019718211
58	0xbd58da2c	-0.05294244
59	0xbd4ff694	-0.050772265
60	0x3c218fe3	0.009860965
61	0xbc82f3c6	-0.01598538
62	0x3adc72a3	0.0016818832
63	0xba362482	-0.0006948189
64	0x3c40f090	0.011776105
65	0xbcd89430	-0.026437849
66	0x3d133c33	0.035946082
67	0x3d8e962f	0.06962239
68	0x3d8d6822	0.069046274
69	0xbc53296a	-0.012888292
70	0x3cf13d77	0.029448254
71	0x3c62d3e3	0.013844463
72	0x3c99a4ed	0.0187554
73	0x3bf4b9cc	0.007468438
74	0xbd1a205d	-0.03762852
75	0xbdb0bb81	-0.086295135
76	0xbdd1b86b	-0.10240253
77	0xbdd64221	-0.10461832
78	0x3decf77a	0.1157064
79	0x3d7d5f90	0.061858714
80	0x3d331235	0.043718535
81	0x3bce1683	0.0062893047
82	0xbaf521c4	-0.001870208
83	0xbd3d518c	-0.046220347
84	0x3d4d6cbc	0.050152525
85	0x3ce7b869	0.028286176
86	0x3d7f1ac7	0.062281396
87	0xbdce7b70	-0.100821376
88	0xbdf19a84	-0.1179705
89	0xbde0eaf4	-0.10982314
90	0xbc1abadc	-0.009443965
91	0xbd237ddf	-0.039914962
92	0xbc646e82	-0.013942363
93	0xbbe8fe23	-0.0071103736
94	0x3c8e197f	0.017346142
95	0xbb0daa88	-0.0021616537
96	0x3c82f714	0.015986957
97	0xbcbfecb1	-0.023428293
98	0xbcfc17a3	-0.03077299
99	0xbccad6a5	-0.024760554
100	0xbc922d34	-0.01784382
101	0xbd4bae89	-0.049726997
102	0xbd81a032	-0.06329383
103	0xbd5ad116	-0.053422056
104	0xbd5092d1	-0.050921265
105	0xbce1563d	-0.027506942
106	0xbd844300	-0.06458092
107	0xbdb54535	-0.08851091
108	0x3c713a1c	0.014723327
109	0xbb568b8f	-0.0032736992
110	0xbc4fd114	-0.012684125
111	0xbd2b781d	-0.041862596
112	0xbdb088a7	-0.08619814
113	0xbd49114c	-0.04908876
114	0xba5996eb	-0.00083003816
115	0x3d13846b	0.036014955
116	0x3d45916a	0.04823438
117	0x3c95e898	0.018299386
118	0x3bb775b3	0.0055987476
119	0x3ba13367	0.0049194577
120	0xbcd09cd3	-0.025465405
121	0xbb24a4b6	-0.002512259
122	0x3a9cacc7	0.0011953347
123	0xbd0179d1	-0.031610314
124	0x3c50071a	0.012697006
125	0x3c4d4b91	0.0125302235
126	0x3d2132ec	0.039355204
127	0x3cebf8bd	0.028805131
128	0xbc768fbf	-0.01504892
129	0x3d10242b	0.035190742
130	0xbae7f0ac	-0.0017695627
131	0xb9f99fed	-0.00047612135
132	0xbd2fedc6	-0.042951368
133	0xbbb58cd9	-0.005540472
134	0xbd22053c	-0.039555773
135	0xbda14bdc	-0.07875797
136	0xbd3cbf09	-0.046080623
137	0xbd936ac2	-0.07198097
138	0xbd841a0d	-0.06450281
139	0xbd7e9d19	-0.06216154
140	0xbd85723f	-0.06515931
141	0xbc8c8455	-0.017152945
142	0x3bfed61f	0.00777699
143	0xbd014a71	-0.031565133
144	0x3de5b2de	0.11215757
145	0x3d817579	0.06321234
146	0x3d905f6b	0.070494495
147	0xbd23e641	-0.04001451
148	0xbcaa891d	-0.020817334
149	0xbccbbeda	-0.024871279
150	0x3b1abd28	0.002361128
151	0xbb7febeb	-0.003905053
152	0x3b8a6e82	0.0042245993
153	0xbd5aa61a	-0.053381063
154	0xbcd7946f	-0.026315896
155	0xbc765d5b	-0.015036906
156	0xbd3979fc	-0.04528235
157	0xbda2c70d	-0.07948122
158	0xbd29d6e6	-0.04146471
159	0x3a5c2792	0.00083982304
160	0x3b22fa27	0.002486834
161	0x3c7874ca	0.015164563
162	0xbb5f9183	-0.0034113831
163	0xbbad8743	-0.0052956655
164	0x3c3ea544	0.011636082
165	0x3d9c939c	0.07645342
166	0x3dbe6c88	0.092980444
167	0x3d63e65c	0.05563961
168	0xbcb8638c	-0.022508405
169	0xbd5f22c3	-0.05447651
170	0xbd7c17a6	-0.06154599
171	0xbd34189b	-0.043968778
172	0xbd2b86a5	-0.041876454
173	0xbd8fc979	-0.0702085
174	0xbda4e138	-0.080507696
175	0xbc51a5cd	-0.012795878
176	0xbd0d6bfd	-0.034526814
177	0xbd267086	-0.040634654
178	0xbca7307c	-0.020408861
179	0xbc53b649	-0.012921878
180	0x3d00b27b	0.031420212
181	0x3d127531	0.035756294
182	0x3d15d132	0.036576457
183	0xbcadec71	-0.021230908
184	0xbbd5e9b4	-0.0065281037
185	0x3c3e8b4a	0.011629889
186	0x3bbd3585	0.0057742023
187	0x3d029d35	0.031888206
188	0xbcba1992	-0.022717271
189	0x3cef0a0e	0.0291796
190	0x3d10050c	0.035161063
191	0x3d240ab3	0.040049266
192	0x3c9baa64	0.019002147
193	0x3c47157c	0.012151118
194	0x3d02f7b7	0.03197452
195	0xbd037f72	-0.032103963
196	0xbd454824	-0.0481645
197	0xbd3498f9	-0.0440912
198	0x3d8071a4	0.06271675
199	0x3d723c7f	0.059139725
200	0x3dbe5095	0.092927136
201	0x3c8547fc	0.016269676
202	0x3c1fbe50	0.009749964
203	0x3c8774cf	0.01653519
204	0x39d13ee5	0.00039910447
205	0x3c923dde	0.017851766
206	0x3cc90b4f	0.024541525
207	0xbd49bbb4	-0.049251273
208	0xbd7c1b0b	-0.061549228
209	0xbd649007	-0.055801418
210	0xbcfa5ea2	-0.030562703
211	0xbc0d25dd	-0.008614984
212	0xbd49f101	-0.049302105
213	0xbdb74165	-0.0894802
214	0xbd6208a7	-0.055184033
215	0xbd3477a1	-0.0440594
216	0x3c2a6489	0.010399946
217	0x3b26f996	0.0025478355
218	0xbd3669f2	-0.04453463
219	0xbcee708c	-0.0291064
220	0xbd89fbbd	-0.067374684
221	0xbcf56154	-0.029953636
222	0x3b448735	0.0029987816
223	0x3d207ba8	0.039180428
224	0xbcd972c5	-0.026543984
225	0xbc230f30	-0.009952351
226	0x3c9d2e48	0.019187108
227	0x3c07295f	0.00824961
228	0x3d7d547f	0.06184816
229	0x3d110f41	0.035414938
230	0x3d99cd78	0.07509893
231	0x3cc1fd4c	0.023680352
232	0x3a7f1914	0.0009731215
233	0x3a5d1bd5	0.0008434628
234	0xbd1da31e	-0.03848564
235	0x3c7c506f	0.015400036
236	0x3cc4cace	0.024022486
237	0xbda6a525	-0.081369676
238	0xbd82fd62	-0.06395985
239	0xbdcde9a0	-0.10054326
240	0x3bfc2fe5	0.007696139
241	0x3b50491a	0.0031781853
242	0x3c29873c	0.010347184
243	0x3c40a3ef	0.011757835
244	0x3cc3d289	0.023904102
245	0x3bf95803	0.007609369
246	0x3cce996b	0.02521964
247	0xbca03bf8	-0.019559845
248	0xbd09a09e	-0.033600442
249	0xbc6c6b6c	-0.014429908
250	0xbca3cf9b	-0.019996455
251	0x3cdd2591	0.026995452
252	0x3c4a3684	0.012342099
253	0xbb60a142	-0.0034275805
254	0xbce8b79a	-0.02840786
255	0x3bb8f8e3	0.005644904
