bdm_CNN_augmented.pt (torch, 709421 bytes, 22 tensors)

conv1.weight f4 [64, 1, 7]
-0.3241871 -0.105515406 -0.2749317 -0.13377948 0.3922605 -0.11748075 0.178402 -0.31660277
0.21522051 0.062274896 -0.18619323 0.12793383 -0.11686633 -0.32488915 -0.28611046 -0.11281029
0.07032296 -0.10904223 0.09354491 -0.09537092 -0.26286155 -0.10031291 -0.42289737 0.331392
-0.074357934 -0.061471667 -0.33730075 -0.1524077 0.37946603 0.018806893 0.07688901 -0.34553733
-0.017137777 0.2544855 -0.07113012 0.12751114 -0.41861603 0.19337817 -0.02115949 0.011063479
-0.20924595 0.18045832 -0.31008998 -0.027043276 0.21177086 0.10408519 -0.0835657 -0.24128546
0.23053318 -0.238575 0.1774893 0.223197 0.14724626 0.1320664 -0.22506957 -0.30010816
0.131573 -0.13330953 -0.064030446 -0.17581296 -0.2566939 0.31043115 0.075466394 0.30160984
0.0025509829 0.03814852 0.0433869 -0.034189276 -0.0070938817 -0.31618676 0.29818976 -0.2339468
0.13662852 0.12082776 0.31915087 0.16186415 -0.2575814 -0.11443177 0.22608647 -0.075639665
0.024770238 -0.11360636 0.43459255 -0.18047419 -0.34602153 0.14316721 0.1581065 0.2086913
-0.21073811 0.17236467 0.26260987 -0.30749637 -0.27037334 0.14698827 -0.1300748 -0.13679264
0.049182065 0.4269847 0.17186329 -0.27735165 -0.35157365 0.024618369 0.23126768 0.25824806
0.07159337 -0.45752847 0.06760021 -0.07068079 -0.07421685 0.051061936 -0.0633246 0.105611235
-0.35511187 0.26297855 -0.15382412 0.043104906 -0.0013739064 0.23176517 0.42063922 0.083801486
-0.19096854 0.09798193 -0.030857071 -0.38602316 -0.23719779 0.29415914 -0.076515056 0.34581336
-0.3409833 0.24649051 0.04193101 0.07800265 0.10619631 -0.22437552 -0.2141866 0.018130211
-0.19662982 0.33340392 0.1891392 -0.3334959 0.07440268 0.014708351 -0.131024 -0.07550539
-0.19769599 0.33213073 0.09668685 -0.082025506 0.11955908 0.11586104 0.04929297 -0.13275097
0.02318008 -0.40139288 -0.4439312 -0.24836044 0.21702634 0.28028864 -0.10227158 0.35909128
-0.008805467 0.22548786 -0.06328236 -0.05461639 0.35907385 -0.2821151 0.29904747 -0.14199363
-0.44473425 -0.11923651 -0.19750728 0.06344253 0.19795543 0.14112331 0.26614064 -0.27206302
-0.3624447 -0.22670521 0.12346402 0.16702862 -0.050015926 0.008999372 -0.27025825 0.05755059
-0.22776641 0.07698017 0.24036883 0.042181298 -0.5761688 -0.05295411 -0.36156112 -0.24892142
0.008295236 -0.113736704 0.027858483 0.25866964 -0.10072045 -0.07027979 -0.18592438 -0.097217865
-0.06265776 0.31593937 -0.2120508 -0.021465205 -0.20266059 0.15189874 0.12248251 0.2152066
0.20668243 -0.3171851 0.20092028 -0.11506492 0.021204112 0.10699708 0.12427253 -0.08040214
-0.34603894 0.21121278 0.44995615 0.18510473 -0.16565858 -0.16973543 -0.09101109 0.23048596
0.004579938 0.37137142 0.2589877 -0.24623577 -0.072619334 -0.09028508 -0.38474047 0.3679453
0.0009134329 -0.001851519 0.029152457 -0.053529393 0.1543913 0.34161192 -0.29926026 -0.07867288
0.18470244 0.27003297 -0.043767475 0.078124434 0.32006776 -0.29072797 -0.12842 -0.28317907
-0.084995575 0.17428254 0.23227412 0.30437246 0.083951816 0.120645374 -0.37754372 0.035399165
00000000: dafb a5be 7618 d8bd d9c3 8cbe 7dfd 08be
00000010: 5ed6 c83e bf99 f0bd 04af 363e c219 a2be
00000020: c462 5c3e f613 7f3d 70a9 3ebe 1601 033e
00000030: 9d57 efbd df57 a6be 127d 92be 1509 e7bd
00000040: 7c05 903d 8851 dfbd 7994 bf3d d451 c3bd
00000050: ca95 86be db70 cdbd 0186 d8be 36ac a93e
00000060: f948 98bd b7c9 7bbd afb2 acbe c410 1cbe
00000070: 5f49 c23e ea10 9a3c fc77 9d3d 45ea b0be
00000080: 8664 8cbc ec4b 823e abac 91bd 4892 023e
00000090: d754 d6be ed04 463e ab56 adbc 9843 353c
000000a0: 9244 56be 11ca 383e 1dc4 9ebe dc89 ddbc
000000b0: 76da 583e 9e2a d53d 7e24 abbd 8913 77be
000000c0: e410 6c3e 014d 74be c1bf 353e c18d 643e
000000d0: b9c7 163e 6a3c 073e a378 66be c7a7 99be
000000e0: 13bb 063e 4b82 08be 6522 83bd 5008 34be
000000f0: 626d 83be d5f0 9e3e 208e 9a3d 9b6c 9a3e
00000100: 642e 273b 9f41 1c3d 76b6 313d 0e0a 0cbd
00000110: cb73 e8bb 3be3 a1be 54ac 983e c08f 6fbe
00000120: 59e8 0b3e 8b74 f73d be67 a33e b7bf 253e
00000130: b6e1 83be 345b eabd 3683 673e f8e8 9abd
00000140: f4ea ca3c 74aa e8bd ea82 de3e 3ace 38be
00000150: bc29 b1be 6d9a 123e ace6 213e 2cb3 553e
00000160: bbcb 57be 5d80 303e cd74 863e 2a70 9dbe
00000170: 606e 8abe 1884 163e 5432 05be 5f13 0cbe
00000180: 2273 493d bd9d da3e eefc 2f3e 0901 8ebe
00000190: 7601 b4be 76ac c93c 6fd1 6c3e 1739 843e
000001a0: 8b9f 923d 2c41 eabe fb71 8a3d 17c1 90bd
000001b0: 01ff 97bd 5226 513d 54b0 81bd b44a d83d
000001c0: 39d1 b5be 20a5 863e 1284 1dbe c58e 303d
000001d0: a614 b4ba d953 6d3e 065e d73e 1da0 ab3d
000001e0: 428d 43be c0aa c83d f8c7 fcbc d4a4 c5be
000001f0: fae3 72be 079c 963e edb3 9cbd 730e b13e
00000200: 5d95 aebe 0268 7c3e dabf 2b3d dabf 9f3d
00000210: 737d d93d b2c2 65be bb53 5bbe cf85 943c
00000220: 5459 49be ebb3 aa3e b5ad 413e f9bf aabe
00000230: 6f60 983d 4cfb 703c 282b 06be 92a2 9abd
00000240: d170 4abe 0a0d aa3e c103 c63d fdfc a7bd
00000250: 64db f43d 8e48 ed3d 6de7 493d dfef 07be
00000260: 27e4 bd3c 5e83 cdbe f34a e3be 3352 7ebe
00000270: 273c 5e3e fe81 8f3e c373 d1bd d0da b73e
00000280: ce44 10bc 4ae6 663e 2f9a 81bd 70b5 5fbd
00000290: 87d8 b73e 6471 90be c01c 993e c766 11be
000002a0: 35b4 e3be 4532 f4bd 593f 4abe 28ee 813d
000002b0: d4b4 4a3e a182 103e 9643 883e d84b 8bbe
000002c0: 5a92 b9be 6925 68be b4da fc3d 8d09 2b3e
000002d0: 80dd 4cbd 1a72 133c 4a5f 8abe 2bba 6b3d
000002e0: 993b 69be c8a7 9d3d 3f23 763e 4cc6 2c3d
000002f0: cc7f 13bf 69e6 58bd 8a1e b9be 42e5 7ebe
00000300: bee8 073c caee e8bd 7937 e43c 5970 843e
00000310: 8646 cebd daee 8fbd f662 3ebe 291a c7bd
00000320: b652 80bd cec2 a13e d823 59be ccd7 afbc
00000330: 4286 4fbe 588b 1b3e 1cd8 fa3d 1e5f 5c3e
00000340: 8fa4 533e 1666 a2be 0cbe 4d3e 28a7 ebbd
00000350: 3fb4 ad3c 4921 db3d 9982 fe3d e1a9 a4bd
00000360: 042c b1be 2a48 583e a760 e63e 188c 3d3e
00000370: 67a2 29be 20cf 2dbe 0664 babd 8304 6c3e
00000380: 4e13 963b 6524 be3e 099a 843e 3b25 7cbe
00000390: 72b9 94bd 62e7 b8bd b4fc c4be 5463 bc3e
000003a0: 7273 6f3a abae f2ba 22d1 ee3c a341 5bbd
000003b0: c118 1e3e c2e7 ae3e a438 99be 3f1f a1bd
000003c0: a322 3d3e c341 8a3e 8645 33bd b4ff 9f3d
000003d0: ecdf a33e 4cda 94be 8880 03be d9fc 90be
000003e0: 2912 aebd 1f77 323e 44d9 6d3e b5d6 9b3e
000003f0: eeee ab3d ec14 f73d 694d c1be b7fe 103d

conv1.bias f4 [64]
-2.6027305e-05 0.00063706824 -6.682964e-05 -2.0625796e-05 -1.7154578e-05 -6.0720675e-05 -0.00052899774 -3.258658e-05
0.00010724894 -0.00015410999 -1.1828988e-05 -0.0008765698 -2.928581e-06 8.147453e-05 1.7259898e-05 3.4879195e-05
-9.402735e-06 0.00010971468 -1.0481014e-06 -2.5889662e-05 -7.897819e-06 -2.3191198e-05 -3.1503398e-05 -3.3941644e-05
-4.1784173e-05 3.0840835e-07 2.2113196e-05 -0.0001548818 0.00029359089 -3.283616e-05 -6.256558e-05 1.2578367e-05
-6.9003916e-05 9.573869e-07 -1.0036474e-05 3.0861916e-05 4.827712e-05 -5.8093174e-05 -6.645283e-06 -1.8832905e-05
2.4327833e-06 2.9599634e-05 -9.641803e-05 -4.1564606e-05 -8.948344e-05 -1.4188361e-05 -0.00014391365 3.5239777e-06
-0.00036219123 5.574417e-05 2.4226712e-05 -2.5617825e-05 -2.6527014e-05 0.0002818963 -5.07615e-05 -4.871309e-05
-5.6470595e-05 -0.00017674295 4.6109704e-05 -2.9696223e-06 -0.00039832052 -5.2467776e-06 0.00017018046 -2.8729015e-05
00000000: 3655 dab7 ed00 273a e426 8cb8 8f05 adb7
00000010: 2de7 8fb7 54ae 7eb8 70ac 0aba 93ad 08b8
00000020: d6ea e038 9698 21b9 1e75 46b7 9ac9 65ba
00000030: a388 44b6 4edd aa38 59c9 9037 404b 1238
00000040: 70c0 1db7 9f16 e638 7dac 8cb5 a02d d9b7
00000050: e080 04b7 b88a c2b7 8422 04b8 905c 0eb8
00000060: 6a41 2fb8 5293 a534 ba7f b937 c467 22b9
00000070: 1aed 9939 8fb9 09b8 a435 83b8 ad07 5337
00000080: 32b6 90b8 907f 8035 5462 28b7 bb71 0138
00000090: 2a7d 4a38 12a9 73b8 8cfa deb6 5bfb 9db7
000000a0: e642 2336 bb4c f837 0934 cab8 a855 2eb8
000000b0: 0ea9 bbb8 8c0a 6eb7 87e7 16b9 7a7d 6c36
000000c0: 7ce4 bdb9 d9ce 6938 783a cb37 dce5 d6b7
000000d0: 5486 deb7 7bcb 9339 bfe8 54b8 4851 4cb8
000000e0: d7da 6cb8 1354 39b9 eb65 4138 b949 47b6
000000f0: add5 d0b9 7a0d b0b6 7872 3239 17ff f0b7

bn1.weight f4 [64]
0.85170645 1.0021063 0.9434008 0.8764327 0.9965263 0.9366772 1.1084806 0.9783894
0.9000343 1.1716692 0.8151817 0.87150216 0.9341763 1.003991 0.9133537 0.97326815
1.0219896 0.9705873 0.915344 0.9836714 0.97929364 0.9906865 0.96340126 0.9178814
0.95355475 0.9164379 0.97669625 0.8355513 0.97098416 0.76981586 0.98865503 0.94299424
1.0421605 0.96019083 0.8949854 0.9987902 0.9269916 0.92039585 0.8482994 0.7772649
0.93374157 0.91081685 1.0392374 0.8084781 0.9634003 0.8947208 1.115413 0.88565356
0.97164273 1.000916 1.0828056 0.8003374 0.9140996 1.0387732 0.79657316 1.0134438
1.0048623 0.9774114 0.903428 0.9570899 0.8659579 0.93537 0.80210316 0.9255627
00000000: 6f09 5a3f 0545 803f b782 713f e55d 603f
00000010: 591c 7f3f 14ca 6f3f b1e2 8d3f ba77 7a3f
00000020: a668 663f 42f9 953f bfaf 503f c41a 5f3f
00000030: 2e26 6f3f c782 803f 8cd1 693f 1a28 793f
00000040: 8ed0 823f 6978 783f fc53 6a3f e4d1 7b3f
00000050: fdb2 7a3f a19d 7d3f 77a1 763f 47fa 6a3f
00000060: 2a1c 743f ad9b 6a3f c408 7a3f b1e6 553f
00000070: 6b92 783f a712 453f 7f18 7d3f 1268 713f
00000080: 8465 853f 11cf 753f c31d 653f b7b0 7f3f
00000090: 524f 6d3f 109f 6b3f 262a 593f d5fa 463f
000000a0: b009 6f3f 4b2b 693f bb05 853f 6cf8 4e3f
000000b0: 67a1 763f 6c0c 653f dac5 8e3f 31ba 623f
000000c0: 94bd 783f 041e 803f 6099 8a3f e9e2 4c3f
000000d0: 6e02 6a3f 85f6 843f 38ec 4b3f 87b8 813f
000000e0: 549f 803f a237 7a3f 0f47 673f d803 753f
000000f0: 6baf 5d3f 6974 6f3f a256 4d3f adf1 6c3f

bn1.bias f4 [64]
-0.20467508 0.054475512 -0.031402458 -0.20997268 0.0118532535 0.16508313 0.11499412 -0.09110719
-0.07926691 0.12069656 -0.13916901 0.18825571 -0.11175229 0.2416239 -0.09447354 -0.19615231
-0.045065295 0.0023587565 -0.036994185 -0.07784991 -0.08348283 -0.013860094 -0.21353821 0.053057622
0.19326359 -0.040357653 -0.05403108 -0.19759868 -0.13694042 -0.05291392 -0.13871092 -0.19984384
0.061771974 -0.106982045 -0.26796848 -0.020439936 0.0023508545 -0.12365787 -0.27385303 -0.16636819
-0.12793186 -0.066551104 0.09145658 -0.16772339 0.12216711 -0.23304942 0.16380063 -0.2290701
0.18492259 -0.19066769 -0.05747623 -0.2522494 -0.07673838 0.16502604 -0.24277927 -0.05939659
0.016573856 0.20168719 -0.22552158 -0.07987268 -0.1921914 -0.20496607 0.037140355 -0.11824131
00000000: 5896 51be b721 5f3d dd9f 00bd 1403 57be
00000010: 2634 423c 8d0b 293e 0a82 eb3d 6896 babd
00000020: b156 a2bd c22f f73d 5282 0ebe 1bc6 403e
00000030: 62de e4bd 416c 773e 587b c1bd 27dc 48be
00000040: 6396 38bd 5e95 1a3b 3787 17bd c66f 9fbd
00000050: 0cf9 aabd 7315 63bc c3a9 5abe f352 593d
00000060: e4e6 453e 114e 25bd b24f 5dbd 4f57 4abe
00000070: 1c3a 0cbe 44bc 58bd 3c0a 0ebe dda3 4cbe
00000080: 9c04 7d3d 6719 dbbd 2a33 89be a771 a7bc
00000090: cb10 1a3b 5640 fdbd 7736 8cbe 6c5c 2abe
000000a0: 9200 03be f24b 88bd 964d bb3d aebf 2bbe
000000b0: c032 fa3d 82a4 6ebe 5abb 273e 5a91 6abe
000000c0: 595c 3d3e 643e 43be 326c 6bbd d526 81be
000000d0: 0329 9dbd 96fc 283e 219b 78be d749 73bd
000000e0: e5c5 873c 1687 4e3e 21ef 66be 4a94 a3bd
000000f0: d3cd 44be a0e2 51be 7c20 183d 8028 f2bd

bn1.running_mean f4 [64]
-0.0015308439 0.0027422663 0.0017393745 0.002328858 -0.0004689489 -0.0003627964 -0.0009656283 0.0026320668
-0.0013364113 0.0023367235 0.000580886 -0.00040415095 -0.0020607403 -0.00276744 -0.0019183098 -0.0006906909
-0.0036998317 -0.0002029652 -0.0009987191 0.0006526039 -0.0016638282 0.0026805724 -0.0013690958 0.00024259185
-0.002820372 -0.0003176877 0.003138226 -0.0017561147 3.5088313e-05 0.0007839912 0.002373536 -0.0007728206
0.0029752282 -0.0025861629 -0.0023497483 -0.0033750122 0.0010115406 -2.1701624e-05 -0.0007815622 -0.0016068856
-0.002016518 0.001058355 0.00014044112 0.0008442962 0.0026763945 0.0014167377 0.0014344912 -0.00076644606
0.0002897622 0.0031100186 0.0033192341 0.001440845 -9.91858e-05 -0.0019528611 -0.00388627 0.0022238155
0.0017279418 -0.00075742253 0.0009838449 -0.0024572748 0.0014045108 -0.003191569 -0.00018795191 -0.0015337345
00000000: 99a6 c8ba 98b7 333b b9fb e33a c19f 183b
00000010: 42dd f5b9 b535 beb9 3822 7dba c17e 2c3b
00000020: 862a afba b723 193b 9946 183a 39e4 d3b9
00000030: 7c0d 07bb f05d 35bb cc6f fbba 7b0f 35ba
00000040: e078 72bb 0ed3 54b9 74e7 82ba 8213 2b3a
00000050: cf14 daba 8bac 2f3b 3b73 b3ba 4160 7e39
00000060: fed5 38bb 528f a6b9 b2aa 4d3b 6e2d e6ba
00000070: ca2b 1338 c284 4d3a 538d 1b3b 1d97 4aba
00000080: 0cfc 423b 9d7c 29bb 3cfe 19bb 4f2f 5dbb
00000090: ac95 843a e20b b6b7 c0e1 4cba 229e d2ba
000000a0: 8f27 04bb 80b8 8a3a 6043 1339 c253 5d3a
000000b0: 7366 2f3b d4b1 b93a 8a05 bc3a 53eb 48ba
000000c0: 39eb 9739 74d1 4b3b 8287 593b bcda bc3a
000000d0: f901 d0b8 25f7 ffba cbb0 7ebb 6fbd 113b
000000e0: 1b7c e23a c48d 46ba 5bf4 803a 3b0a 21bb
000000f0: 9017 b83a a429 51bb f514 45b9 9707 c9ba

bn1.running_var f4 [64]
0.2975636 0.33969527 0.25346744 0.39094472 0.20654672 0.19090296 0.14579055 0.2155936
0.16032752 0.10978258 0.25950822 0.18567058 0.23417042 0.27757856 0.2180603 0.19318877
0.28493118 0.28420588 0.22274761 0.33344397 0.11120684 0.16239665 0.3722267 0.25196958
0.2378508 0.26344416 0.45184103 0.25518 0.16504501 0.17240165 0.113766894 0.32062975
0.3318757 0.3535781 0.2395282 0.22814761 0.23249502 0.1584573 0.21292032 0.19883801
0.39580417 0.22287211 0.2616365 0.25692195 0.32467213 0.23808362 0.2956765 0.17506437
0.16982286 0.2954251 0.21578795 0.29064423 0.33425912 0.2480399 0.48391977 0.23183386
0.42722768 0.19778769 0.3192678 0.18586516 0.13667294 0.37088218 0.19099373 0.14275174
00000000: 425a 983e 8aec ad3e 7cc6 813e e829 c83e
00000010: fc80 533e 117c 433e 1e4a 153e 92c4 5c3e
00000020: e62c 243e b0d5 e03d 43de 843e 6e20 3e3e
00000030: 5fca 6f3e c71e 8e3e 334b 5f3e 47d3 453e
00000040: 80e2 913e 6f83 913e f317 643e 2bb9 aa3e
00000050: 69c0 e33d 4f4b 263e 7f94 be3e 2802 813e
00000060: 298f 733e 27e2 863e b557 e73e f4a6 823e
00000070: 8f01 293e 0f8a 303e 9efe e83d 9529 a43e
00000080: 9deb a93e 3008 b53e e146 753e 879f 693e
00000090: 2d13 6e3e a142 223e c907 5a3e 319c 4b3e
000000a0: d8a6 ca3e 9638 643e 38f5 853e 468b 833e
000000b0: 6d3b a63e 31cc 733e e962 973e 1344 333e
000000c0: 0be6 2d3e f541 973e 84f7 5c3e 52cf 943e
000000d0: 0324 ab3e 2cfe 7d3e 55c4 f73e db65 6d3e
000000e0: 96bd da3e db88 4a3e 1277 a33e 7053 3e3e
000000f0: fef3 0b3e 45e4 bd3e dc93 433e 832d 123e

conv2.weight f4 [128, 64, 5]
0.018537335 0.021232804 0.047999643 0.030376911 0.0013057181 -0.029760316 0.0048931604 0.032468107
-0.060135778 0.03580904 0.010351864 0.000649699 0.06898346 0.022515804 -0.007189142 0.10737944
0.026897455 -0.022149432 -0.10450029 -0.007361101 -0.011124541 0.011225556 -0.027256778 -0.014844121
0.021995705 0.037641324 -0.011663483 0.09403227 -0.02951863 -0.018659072 0.047937192 -0.014563972
-0.017498864 -0.044690035 -0.1276555 -0.017791256 -0.03982361 0.012859504 -0.03270984 0.09281068
-0.08705835 0.01082988 0.024611363 0.02973288 -0.020356525 -0.1358902 -0.09453785 -0.08615612
-0.088512205 0.005615331 -0.017736994 0.003926187 0.021617489 0.054607812 0.01949666 -0.04804731
-0.029531403 -0.052092973 0.036741085 -0.035793994 -0.04431822 0.039020296 -0.06298815 0.013176117
0.016695915 0.11742175 0.107041 -0.0061376337 0.034834966 -0.028182777 -0.014455297 -0.035107672
0.088940896 0.08670099 -0.009715811 0.024628285 0.052129027 -0.0056153857 -0.009411463 -0.09228564
-0.059379607 0.030915977 0.033029385 -0.0011518351 -0.018157803 0.032050006 -0.06483631 -0.032246407
0.021591382 -0.10670075 -0.0616915 -0.01379431 0.04428985 -0.00627397 -0.0011261809 0.023819217
-0.0068189553 0.083639875 0.09477696 -0.001239795 -0.0007645572 -0.025759613 0.00601558 -0.063472115
-0.039317153 -0.09151651 0.028144693 -0.019040236 -0.006128733 0.036290757 0.007672303 0.02836541
-0.020893537 0.061234552 0.0720753 -0.07749274 -0.1099544 -0.073505655 0.057891343 -0.047839917
0.00050494005 0.061847556 -0.016187586 0.09421358 0.086442925 0.047647703 -0.030057482 0.02031099
-0.05220464 -0.06490504 -0.056623172 0.029808864 -0.022177693 0.030368201 0.065993555 0.061690014
-0.010176724 -0.02586434 -0.003328205 -0.07419869 0.018054293 0.020946046 -0.03503847 0.022987831
0.0037315472 -0.066482246 0.048691455 -0.05352356 0.12910533 0.10075262 0.013300562 -0.039282355
-0.09792258 -0.01743347 0.028110856 -0.008761614 -0.01943423 0.0032227954 -0.124757364 -0.0029833799
-0.15990119 -0.012531813 -0.021439536 -0.004125391 0.03421902 0.019831905 -0.026269283 0.034237176
-0.01835247 -0.01054142 -0.034652676 -0.06571494 -0.018233305 0.05934888 -0.051190477 0.005767163
0.084322825 0.00043197713 0.016539255 0.015833776 -0.09878794 0.012780163 0.02394705 0.010717447
0.04623584 -0.086305976 0.09102703 -0.12879509 0.033572037 -0.11594564 -0.11053216 0.023193745
-0.019663718 -0.1382102 -0.034679975 -0.01007129 0.049150933 0.03974081 0.0062686545 -0.015340841
-0.003350433 -0.021438936 -0.036803618 -0.004316256 -0.033686202 0.017533166 -0.004671651 -0.07392913
0.030147964 -0.0090726605 0.09065278 -0.04699992 0.026870688 0.04907643 0.07314127 -0.1356938
0.04179676 0.035378158 -0.03287565 0.040707637 0.007219421 0.005103536 -0.011638978 -0.03724348
0.04683602 -0.0237608 0.033532683 -0.02285507 -0.031485233 -0.020301789 0.11917192 -0.02626966
0.04425779 -0.08051423 0.0871391 -0.032801382 -0.029793935 -0.089573644 0.011941302 -0.03634315
0.04769048 -0.16992757 -0.0060087014 -0.05207874 -0.0064356197 -0.11950916 -0.11009763 -0.101635225
-0.04639556 -0.0011960891 -0.0129920235 0.00923064 -0.114662856 -0.0035674402 0.038787983 0.044370636
00000000: 9cdb 973c 6bf0 ad3c 469b 443d 00d9 f83c
00000010: a124 ab3a e8cb f3bc ce56 a03b 47fd 043d
00000020: ef50 76bd 80ac 123d dd9a 293c 9050 2a3a
00000030: 3347 8d3d 1073 b83c e592 ebbb c0e9 db3d
00000040: 0d58 dc3c ba72 b5bc 3f04 d6bd 6435 f1bb
00000050: b543 36bc 65eb 373c 9b49 dfbc c234 73bc
00000060: 5630 b43c ca2d 1a3d 3218 3fbc fe93 c03d
00000070: 0ed1 f1bc e9da 98bc ca59 443d ba9d 6ebc
00000080: c759 8fbc e60c 37bd 20b8 02be f8be 91bc
00000090: 151e 23bd abb0 523c c1fa 05bd 8713 be3d
000000a0: a64b b2bd cf6f 313c c59d c93c 5e92 f33c
000000b0: bac2 a6bc cd26 0bbe 0f9d c1bd 9f72 b0bd
000000c0: e345 b5bd d000 b83b 2c4d 91bc 3ea7 803b
000000d0: 2917 b13c 71ac 5f3d 76b7 9f3c 42cd 44bd
000000e0: d7eb f1bc 715f 55bd d27d 163d b99c 12bd
000000f0: 0687 35bd bfd3 1f3d eeff 80bd a4e0 573c
00000100: dfc5 883c d17a f03d 5038 db3d 341e c9bb
00000110: 1caf 0e3d 91df e6bc e9d5 6cbc 10cd 0fbd
00000120: a526 b63d 4a90 b13d 112f 1fbc 42c1 c93c
00000130: 3f85 553d 4501 b8bb 8932 1abc 4100 bdbd
00000140: 0838 73bd 8143 fd3c d249 073d 2cf9 96ba
00000150: acbf 94bc de46 033d e6c8 84bd cf14 04bd
00000160: 69e0 b03c ec85 dabd 3ab0 7cbd 8801 62bc
00000170: 4669 353d e095 cdbb 5c9c 93ba 8520 c33c
00000180: 8b71 dfbb 624b ab3d 6c1a c23d 9e80 a2ba
00000190: 916c 48ba d305 d3bc 581e c53b abfd 81bd
000001a0: 060b 21bd 026d bbbd b38f e63c 45fa 9bbc
000001b0: 8ad3 c8bb 9ea5 143d f167 fb3b 945e e83c
000001c0: ec28 abbc 15d1 7a3d 379c 933d 83b4 9ebd
000001d0: c62f e1bd 228a 96bd 791f 6d3d caf3 43bd
000001e0: f45d 043a dd53 7d3d d49b 84bc 0df3 c03d
000001f0: fd08 b13d 3d2a 433d 1c3b f6bc 3c63 a63c
00000200: 88d4 55bd efec 84bd b3ed 67bd b831 f43c
00000210: fead b5bc bcc6 f83c a127 873d abae 7c3d
00000220: 46bc 26bc 74e1 d3bc 041e 5abb 7cf5 97bd
00000230: 99e6 933c 0b97 ab3c 8084 0fbd fa50 bc3c
00000240: f98c 743b d827 88bd b170 473d 853b 5bbd
00000250: 3034 043e 6457 ce3d 9aea 593c 89e6 20bd
00000260: a28b c8bd a3d0 8ebc bd48 e63c df8c 0fbc
00000270: 8934 9fbc 8935 533b ca80 ffbd cf84 43bb
00000280: 23bd 23be 3c52 4dbc f7a1 afbc 4a2e 87bb
00000290: 3e29 0c3d 8576 a23c ae32 d7bc 483c 0c3d
000002a0: eb57 96bc ecb5 2cbc f7ef 0dbd 8e95 86bd
000002b0: 035e 95bc d017 733d 1bad 51bd 78fa bc3b
000002c0: 72b1 ac3d fd7a e239 557d 873c d6b5 813c
000002d0: 5551 cabd e463 513c 9b2c c43c 3b98 2f3c
000002e0: cb61 3d3d 30c1 b0bd 616c ba3d dce2 03be
000002f0: d582 093d e874 edbd af5e e2bd cf00 be3c
00000300: ce15 a1bc fa86 0dbe 970c 0ebd 0d02 25bc
00000310: 7d52 493d 42c7 223d 4969 cd3b 2758 7bbc
00000320: f092 5bbb b5a0 afbc 64bf 16bd 616f 8dbb
00000330: 8bfa 09bd b7a1 8f3c a614 99bb 2868 97bd
00000340: ddf8 f63c 7fa5 14bc 2aa8 b93d fd82 40bd
00000350: eb1f dc3c 5e04 493d 17cb 953d 51f3 0abe
00000360: 1433 2b3d b0e8 103d 9ea8 06bd 0dbd 263d
00000370: e590 ec3b 903b a73b 69b1 3ebc 9f8c 18bd
00000380: 20d7 3f3d 02a6 c2bc 9159 093d 8e3a bbbc
00000390: a9f6 00bd f04f a6bc 6810 f43d 7833 d7bc
000003a0: a847 353d a5e4 a4bd fc75 b23d be5a 06bd
000003b0: 6912 f4bc 6372 b7bd 73a5 433c 8edc 14bd
000003c0: 1857 433d 7e01 2ebe a4e4 c4bb 8450 55bd
000003d0: e4e1 d2bb 38c1 f4bd de7a e1bd 2126 d0bd
000003e0: 4509 3ebd 17c6 9cba 7fdc 54bc 1c3c 173c
000003f0: 5cd4 eabd b7cb 69bb 26e0 1e3d fcbd 353d

conv2.bias f4 [128]
3.0446467e-05 9.617099e-06 -1.631035e-05 1.9320649e-05 -2.446315e-05 -4.1696454e-05 -1.1107959e-05 4.7123645e-05
-2.966675e-05 0.00013994557 0.00018546906 -1.541528e-05 -7.44898e-07 3.634223e-05 -2.8710005e-05 6.5197646e-06
-1.4459738e-06 -0.00048135407 -1.6995538e-05 -2.9844488e-05 5.2754753e-05 -1.0861477e-05 6.823447e-05 -0.00010422187
-7.181375e-05 -1.3321197e-05 -1.7016439e-05 0.00010130223 -2.0003312e-05 3.5804878e-06 1.2202466e-05 -4.2856027e-07
-0.0002581883 -0.00017688768 0.00015184493 -5.6132878e-05 2.3014183e-05 -0.00022055543 -8.498482e-05 -3.6773246e-05
-0.00015956075 0.00016553164 2.5495956e-05 1.571696e-05 3.7210164e-05 -0.00013904985 6.9648144e-05 3.445086e-05
6.383194e-05 1.6580956e-05 -1.765685e-05 1.855331e-05 1.5855596e-05 0.00010114722 -7.544574e-05 -2.217253e-05
8.3934265e-06 3.9825572e-05 -2.882782e-05 -2.698535e-05 5.301772e-05 -6.354494e-06 1.4699002e-05 3.4223318e-05
-1.2218407e-05 3.0320693e-05 -4.1455452e-05 -0.00019213554 0.0001238781 0.000105919324 -7.9513484e-05 -9.712107e-05
1.1334618e-05 5.449313e-06 -2.1812837e-05 -3.521698e-05 -9.1737485e-05 -8.090976e-06 3.682708e-05 -2.6056932e-06
-5.2390296e-05 6.0660383e-05 -0.000101712016 -6.7360784e-06 8.509636e-06 -7.953275e-06 -0.00014629062 -6.235425e-05
9.159274e-06 0.00015663053 -0.00022120134 -0.00025810394 1.5073398e-05 -3.955254e-05 -0.0002130064 -5.4657594e-05
-6.7743194e-06 4.780144e-06 3.910065e-06 1.7914566e-05 -6.87572e-06 9.54416e-05 4.7260484e-05 -1.503312e-05
-0.00017908296 5.0471185e-06 6.1010243e-05 -1.6765136e-05 -0.00036934283 -2.0865542e-05 4.4349516e-05 8.822022e-05
-8.580904e-05 7.027083e-06 -7.769107e-05 -1.4506351e-05 3.9476272e-05 -1.1602784e-05 -3.4300705e-05 -6.477765e-05
2.1146025e-07 -2.9740382e-05 -1.5186392e-06 0.00045939977 2.074569e-05 -2.5945768e-05 -2.4621868e-06 1.8995248e-05
00000000: 4a67 ff37 2059 2137 36d2 88b7 c712 a237
00000010: 3736 cdb7 3ae3 2eb8 525c 3ab7 a1a6 4538
00000020: dcdc f8b7 5abe 1239 797a 4239 1050 81b7
00000030: 00f5 47b5 2c6e 1838 44d6 f0b7 5ac4 da36
00000040: 4813 c2b5 405e fcb9 a491 8eb7 8d5a fab7
00000050: fc44 5d38 b039 36b7 1a19 8f38 b191 dab8
00000060: b79a 96b8 1b7e 5fb7 86be 8eb7 3872 d438
00000070: c9cc a7b7 5048 7036 31b9 4c37 e014 e6b4
00000080: 725d 87b9 ed7a 39b9 9038 1f39 3870 6bb8
00000090: 950e c137 e644 67b9 e139 b2b8 f93c 1ab8
000000a0: c34f 27b9 9092 2d39 26e0 d537 ead7 8337
000000b0: 1c12 1c38 e9cd 11b9 1010 9238 547f 1038
000000c0: 83dd 8538 5517 8b37 cc1d 94b7 eea2 9b37
000000d0: a201 8537 001f d438 a038 9eb8 25ff b9b7
000000e0: 7ed1 0c37 620a 2738 46d3 f1b7 995e e2b7
000000f0: 585f 5e38 b038 d5b6 bc9b 7637 028b 0f38
00000100: a9fd 4cb7 3159 fe37 74e0 2db8 fe77 49b9
00000110: 46e5 0139 0121 de38 7ac0 a6b8 7aad cbb8
00000120: d029 3e37 3ed9 b636 b6fa b6b7 f2b5 13b8
00000130: 3063 c0b8 7abe 07b7 c776 1a38 78dd 2eb6
00000140: a7bd 5bb8 976d 7e38 394e d5b8 7906 e2b6
00000150: 9cc4 0e37 0e6f 05b7 9765 19b9 2fc4 82b8
00000160: c8aa 1937 303d 2439 48f2 67b9 2052 87b9
00000170: c0e3 7c37 37e5 25b8 785a 5fb9 2540 65b8
00000180: f64e e3b6 2065 a036 3433 8336 3d47 9637
00000190: fcb5 e6b6 d227 c838 8f39 4638 c236 7cb7
000001a0: 37c8 3bb9 6b5a a936 40e5 7f38 dba2 8cb7
000001b0: 5ba4 c1b9 6908 afb7 ee03 3a38 df02 b938
000001c0: 61f4 b3b8 2fca eb36 13ee a2b8 4e60 73b7
000001d0: 5393 2538 94a9 42b7 1ade 0fb8 3cd9 87b8
000001e0: c00d 6334 fc7a f9b7 0cd4 cbb5 98db f039
000001f0: 0807 ae37 1da6 d9b7 0c3c 25b6 fc57 9f37

bn2.weight f4 [128]
0.7141607 0.73217905 0.8078949 0.72545785 0.8672607 0.826247 0.65036744 1.0227664
0.8510374 0.80972457 1.0437324 0.7740385 0.9803129 0.8111062 0.73551255 0.7385849
0.6730994 0.92844534 0.86717933 0.7759165 0.85401857 0.7463316 0.7557941 0.6971431
0.96054655 0.86571574 0.92283183 0.880016 0.7971655 1.0218428 0.7817116 0.6846291
0.9566008 1.0293196 0.99718535 0.90610015 0.8490873 0.8892703 0.6303275 0.850663
0.8981701 1.0047491 1.0835907 0.85711116 0.7766877 0.9554271 0.89995396 0.6623012
0.8573399 0.69933575 0.8914843 0.8023726 0.98159343 0.947929 0.8618008 0.94468194
0.8716863 0.7637929 0.74165046 0.93795085 1.0058587 0.99281394 0.8341882 0.91625684
0.8663866 0.77910167 0.8803653 1.0356609 0.83878434 1.0165473 0.82301134 1.0487847
1.0063163 0.6387573 0.9237681 0.87184376 0.8527649 0.72768456 0.80272865 0.761741
0.88923913 0.73696935 0.9753742 0.70034415 0.7848298 0.770542 0.90343463 0.75261956
0.8341811 0.88843566 0.9384502 0.878082 0.83920234 0.8761226 0.918402 0.9386008
0.70276415 1.1577749 0.9434952 0.69327646 0.8463079 0.8730775 0.77307665 1.0486797
0.89761275 0.8757902 0.931445 0.8780662 0.9686532 0.9445158 0.83764386 0.86436623
0.99991244 0.7082132 0.92444766 0.9327215 0.829329 0.91015106 0.75289625 0.86705816
0.8148269 0.76220226 0.816958 1.059053 0.8913288 0.7818315 0.716222 0.78499514
00000000: 3cd3 363f 1670 3b3f 33d2 4e3f 9bb7 393f
00000010: cc04 5e3f ec84 533f 7b7e 263f 02ea 823f
00000020: 96dd 593f 1c4a 4f3f 0699 853f 6327 463f
00000030: c9f5 7a3f a8a4 4f3f 8d4a 3c3f e613 3d3f
00000040: 3e50 2c3f 98ae 6d3f 77ff 5d3f 77a2 463f
00000050: f6a0 5a3f 960f 3f3f b97b 413f f877 323f
00000060: 61e6 753f 8c9f 5d3f b53e 6c3f bb48 613f
00000070: 0a13 4c3f bfcb 823f 401e 483f da43 2f3f
00000080: cae3 743f bfc0 833f 8a47 7f3f 2ef6 673f
00000090: c95d 593f 38a7 633f 255d 213f 0dc5 593f
000000a0: 7aee 653f 9e9b 803f 1ab3 8a3f a36b 5b3f
000000b0: 01d5 463f df96 743f 6263 663f 928c 293f
000000c0: a17a 5b3f ab07 333f 5138 643f 4a68 4d3f
000000d0: b549 7b3f 7aab 723f fa9e 5c3f add6 713f
000000e0: d526 5f3f ee87 433f cedc 3d3f 8c1d 703f
000000f0: fabf 803f 0e29 7e3f 5c8d 553f cf8f 6a3f
00000100: 83cb 5d3f 3573 473f 9f5f 613f 8990 843f
00000110: 92ba 563f 391e 823f dfb0 523f 943e 863f
00000120: f9ce 803f 9985 233f 117c 6c3f 2731 5f3f
00000130: cd4e 5a3f 8949 3a3f a07f 4d3f 7501 433f
00000140: 2da5 633f 06aa 3c3f 20b2 793f c149 333f
00000150: 9bea 483f 3e42 453f 7e47 673f adab 403f
00000160: e48c 553f 8570 633f 463e 703f fbc9 603f
00000170: f7d5 563f 9249 603f 651c 6b3f 2448 703f
00000180: 5ae8 333f f831 943f e788 713f 917a 313f
00000190: a2a7 583f 0282 5f3f 5ae8 453f 233b 863f
000001a0: f3c9 653f c933 603f 2e73 6e3f f2c8 603f
000001b0: a8f9 773f cacb 713f d46f 563f 1b47 5d3f
000001c0: 43fa 7f3f 764d 353f 9aa8 6c3f d6c6 6e3f
000001d0: e84e 543f a9ff 683f cfbd 403f 86f7 5d3f
000001e0: 7f98 503f b01f 433f 2924 513f 0c8f 873f
000001f0: 202e 643f 1c26 483f 535a 373f 71f5 483f

bn2.bias f4 [128]
-0.22390734 -0.011345748 -0.19828445 -0.21019003 -0.31829083 -0.22834069 -0.12732479 -0.099894784
-0.27064106 -0.20841074 0.017752761 -0.08193649 -0.023341998 -0.21873413 -0.1435223 -0.098710515
-0.38024843 -0.13562056 -0.30404162 -0.19708672 -0.25167102 -0.14421496 -0.3117904 -0.23952064
-0.1531963 -0.3842463 -0.12935053 -0.14659017 -0.23457517 -0.12324082 -0.26776448 -0.38448805
-0.21102229 -0.06331871 -0.1481693 -0.24696451 -0.16476838 -0.20327473 -0.24843164 -0.19153163
-0.19132389 -0.08497189 -0.07523096 -0.23250109 -0.18549845 -0.0791426 -0.22029012 -0.079276256
-0.22805984 -0.20615172 -0.29318434 -0.14777988 -0.204549 -0.21864106 -0.17451285 -0.17698742
-0.13231798 -0.20102492 -0.27353165 -0.1836118 -0.17467175 -0.32884416 -0.27829185 -0.29742512
-0.24065605 -0.13203815 -0.24395213 -0.3219288 -0.1690506 -0.20815945 0.017489899 -0.13470554
-0.17441556 -0.19991165 -0.3124823 -0.058988955 -0.11943168 -0.17131576 0.034546603 -0.052948143
-0.17435998 -0.16683325 -0.110602796 -0.23688284 -0.2446344 -0.25818625 -0.2740102 -0.16653448
-0.33930135 -0.16583055 -0.2758819 -0.1510165 -0.09634547 -0.3291989 -0.28535253 -0.1772334
-0.14174707 -0.036632612 -0.14673737 -0.2180313 -0.2505077 -0.21631475 -0.30130652 -0.10753369
-0.17830221 -0.28455594 -0.18166575 -0.16889064 -0.03867527 -0.19378847 -0.12612893 -0.26531643
-0.13964643 -0.38367808 -0.2994761 -0.15134366 -0.24811417 -0.10187664 -0.12583762 -0.23825091
-0.1203199 -0.23909812 -0.26864386 -0.13077176 -0.32692814 -0.18783407 -0.18629229 -0.13649862
00000000: f747 65be 84e3 39bc 140b 4bbe 0e3c 57be
00000010: 04f7 a2be 24d2 69be 6e61 02be a395 ccbd
00000020: 7791 8abe a069 55be 3d6e 913c 52ce a7bd
00000030: b837 bfbc d7fb 5fbe 83f7 12be bd28 cabd
00000040: ecaf c2be 1ee0 0abe 58ab 9bbe 1ad1 49be
00000050: 06db 80be 16ad 13be fea2 9fbe e644 75be
00000060: 7edf 1cbe eebb c4be 7774 04be bc1b 16be
00000070: 7934 70be af65 fcbd 6d18 89be 9edb c4be
00000080: 3a16 58be 3dad 81bd b1b9 17be 44e4 7cbe
00000090: 0bb9 28be 4027 50be dd64 7ebe de20 44be
000000a0: 69ea 43be be05 aebd b112 9abd c414 6ebe
000000b0: 4ef3 3dbe 8415 a2bd bc93 61be 975b a2bd
000000c0: 8588 69be 7019 53be 421c 96be 9c53 17be
000000d0: 4b75 51be 71e3 5fbe 7fb3 32be 313c 35be
000000e0: 5d7e 07be 7ad9 4dbe 570c 8cbe bb04 3cbe
000000f0: 27dd 32be 435e a8be 457c 8ebe 1b48 98be
00000100: 8a6e 76be 0235 07be 96ce 79be dad3 a4be
00000110: 9a1b 2dbe c027 55be fa46 8f3c 40f0 09be
00000120: fe99 32be a4b5 4cbe aefd 9fbe 679e 71bd
00000130: 9998 f4bd 666d 2fbe bd80 0d3d 27e0 58bd
00000140: 6c8b 32be 56d6 2abe b883 e2bd 6a91 72be
00000150: 7181 7abe fd30 84be 114b 8cbe 0488 2abe
00000160: e8b8 adbe 7ccf 29be 6440 8dbe 12a4 1abe
00000170: c650 c5bd c28c a8be ba19 92be ac7c 35be
00000180: 2526 11be 140c 16bd 5242 16be 9943 5fbe
00000190: 8c42 80be 9d81 5dbe d944 9abe a03a dcbd
000001a0: db94 36be 51b1 91be 9606 3abe abf1 2cbe
000001b0: f669 1ebd 7c70 46be f127 01be 8ed7 87be
000001c0: 79ff 0ebe 7471 c4be ee54 99be d5f9 1abe
000001d0: a411 7ebe b3a4 d0bd 94db 00be 0cf8 73be
000001e0: 486a f6bd 23d6 74be b08b 89be 08e9 05be
000001f0: 2063 a7be 9357 40be 68c3 3ebe 4bc6 0bbe

bn2.running_mean f4 [128]
-0.6962708 -0.9671285 -0.038686976 -1.1641811 -0.07449944 -0.3998008 -0.73966074 -0.6186318
1.643215 -0.6625452 -1.1087253 -1.0726153 -0.36446023 -1.1405195 -1.1133618 -1.2773066
1.2766832 -1.2170846 -0.22181372 -1.0475194 -0.42681158 -0.74967617 -1.1393539 -1.1257879
-0.9442229 -0.47000918 0.34129474 -1.0401999 -0.9737815 -0.9380853 -0.27943388 1.0194625
-0.68562365 -1.2315367 0.02983151 -1.5371008 0.68663275 -0.16342966 -0.73637897 -1.1223612
-1.1172074 -0.7290472 -1.5222619 -1.2034873 -1.270844 -0.5777782 -0.41080162 -0.3859517
-1.1945657 -0.94912076 -1.0407106 -0.82089967 -1.5825502 -0.9902903 0.2967498 -0.6061005
0.12258476 0.68257844 -1.3450315 -1.0273917 -0.31591776 -0.46889532 -0.7429171 -0.34178054
-1.0758046 -0.83337146 -0.63070923 1.1636928 -1.4279296 -0.53277355 -1.9077927 -0.25677574
0.83397996 -1.0734041 0.27965263 -2.0994465 -1.257468 -1.1551535 -0.68951845 -1.5969015
0.24659128 -1.3130759 0.19264755 -0.7267517 2.9225047 0.77885574 1.0113727 -0.857028
0.066578425 0.4091154 -0.73346055 -1.7642727 -1.2761706 2.6582608 -0.2133247 -0.8686641
-1.1502008 -0.834869 -1.2938951 -0.70071995 0.2587454 -1.5136751 -0.67700124 -1.1741813
-1.1994665 -0.0883331 -0.87204456 -0.07410822 -0.78512734 -0.40204218 0.003182182 -0.520273
-0.35021782 1.3586518 0.78578186 -1.2136829 -0.47667086 -0.43762296 -1.0591173 -0.5736902
-0.69171906 -1.1595683 -0.18930428 -0.7353522 1.9364456 -0.06177937 -0.6889228 1.0674586
00000000: ce3e 32bf bc95 77bf 3c76 1ebd e303 95bf
00000010: 2a93 98bd b1b2 ccbe 685a 3dbf a75e 1ebf
00000020: de54 d23f 909c 29bf b6ea 8dbf 754b 89bf
00000030: 889a babe 8bfc 91bf a482 8ebf c87e a3bf
00000040: 5b6a a33f 6ec9 9bbf 2323 63be 1e15 86bf
00000050: 0c87 dabe c7ea 3fbf 59d6 91bf d119 90bf
00000060: 98b8 71bf 0ba5 f0be 2fbe ae3e 4525 85bf
00000070: bf49 79bf 5c26 70bf f511 8fbe bf7d 823f
00000080: 0885 2fbf ffa2 9dbf 3661 f43c b8bf c4bf
00000090: 2ac7 2f3f 1b5a 27be 5583 3cbf 88a9 8fbf
000000a0: a700 8fbf d6a2 3abf 7ad9 c2bf df0b 9abf
000000b0: 04ab a2bf 46e9 13bf 9754 d2be 769b c5be
000000c0: 87e7 98bf 94f9 72bf 0136 85bf 7b26 52bf
000000d0: 0191 cabf aa83 7dbf 97ef 973e 6729 1bbf
000000e0: b80d fb3d 76bd 2e3f fe29 acbf 9281 83bf
000000f0: f9bf a1be 0c13 f0be d12f 3ebf dcfd aebe
00000100: f7b3 89bf d557 55bf 2976 21bf e3f3 943f
00000110: 66c6 b6bf d963 08bf 8d32 f4bf 1c78 83be
00000120: b67f 553f 4e65 89bf a12e 8f3e 555d 06c0
00000130: b6f4 a0bf 12dc 93bf 4884 30bf 4567 ccbf
00000140: 6d82 7c3e df12 a8bf 6645 453e 660c 3abf
00000150: 510a 3b40 1763 473f a974 813f 3066 5bbf
00000160: 455a 883d 9377 d13e 12c4 3bbf b0d3 e1bf
00000170: 8f59 a3bf f220 2a40 ca71 5abe c560 5ebf
00000180: c839 93bf fab9 55bf 5b9e a5bf 6262 33bf
00000190: 477a 843e 1bc0 c1bf f44f 2dbf 934b 96bf
000001a0: 1e88 99bf fce7 b4bd 503e 5fbf 0dc6 97bd
000001b0: 1bfe 48bf 79d8 cdbe 288c 503b 9c30 05bf
000001c0: c04f b3be 4de8 ad3f 0029 493f f659 9bbf
000001d0: 340e f4be 1e10 e0be 2891 87bf 5cdd 12bf
000001e0: 8014 31bf bc6c 94bf fbd8 41be 0b40 3cbf
000001f0: 73dd f73f 5d0c 7dbd 3f5d 30bf 7ca2 883f

bn2.running_var f4 [128]
2.72703 3.1566825 1.1698283 2.273542 1.6743087 2.373446 2.1327455 0.8911643
1.3437657 2.0806222 2.4713755 2.847756 1.0961294 2.5959475 2.253893 2.6911495
1.1596938 2.051224 1.0997277 2.3283308 2.0945232 1.7652907 2.9623387 1.7861528
1.6922224 1.1634215 1.2582517 2.5013592 1.9736133 1.401099 1.1565048 0.94576323
1.685855 1.2706503 2.0734935 2.4178293 1.2484623 0.94785184 0.8647758 2.6807463
1.3488737 1.259746 2.457936 2.0890152 3.0336943 1.2714713 1.2824941 1.4738618
2.235986 2.0861733 1.447481 1.8398267 2.6743317 1.5175765 1.372357 1.2705983
1.2636548 1.7499881 2.1637976 1.915759 1.7795299 1.1347725 1.2276107 1.2199755
1.6025903 2.2884965 1.9122828 1.3808733 1.1343168 0.7837118 2.8900962 1.2448238
2.0765529 2.257988 1.2064465 1.9978584 1.9946156 1.6816758 2.621951 3.8699133
1.7166905 2.9593203 1.1142383 1.4275279 2.5124545 2.3383005 0.9615978 1.8207188
2.0340323 1.3582203 0.8828532 2.7317276 2.237954 2.2167268 0.85783947 1.2642883
2.607133 1.6336806 1.866273 2.0747123 0.67096674 2.4139585 1.9188392 1.7129961
2.1342142 2.3596332 1.4981201 1.2066344 1.8364446 2.0702329 0.74053526 1.1321964
0.8622717 1.3756589 0.85718644 1.6657269 1.2117493 0.81267077 2.3052232 1.5203192
2.6921396 1.4425822 3.0604236 1.268178 1.312192 1.2393249 2.543792 1.5054059
00000000: a987 2e40 1607 4a40 efbc 953f b681 1140
00000010: bf4f d63f 8ae6 1740 e77e 0840 5823 643f
00000020: 8400 ac3f ea28 0540 042b 1e40 a241 3640
00000030: f84d 8c3f 0124 2640 c83f 1040 cb3b 2c40
00000040: d970 943f 4147 0340 e1c3 8c3f 5f03 1540
00000050: ab0c 0640 0cf5 e13f f596 3d40 a8a0 e43f
00000060: be9a d83f ffea 943f 640e a13f 4516 2040
00000070: 5c9f fc3f 3657 b33f 5908 943f 8a1d 723f
00000080: 19ca d73f aba4 a23f 1eb4 0440 b7bd 1a40
00000090: 9dcd 9f3f 6ba6 723f f261 5d3f 5991 2b40
000000a0: e5a7 ac3f 5b3f a13f d34e 1d40 6db2 0540
000000b0: 0c28 4240 92bf a23f c428 a43f 81a7 bc3f
000000c0: 651a 0f40 dd83 0540 0f47 b93f 717f eb3f
000000d0: 4028 2b40 f23f c23f 65a9 af3f f7a2 a23f
000000e0: 71bf a13f 9cff df3f a97b 0a40 9737 f53f
000000f0: a3c7 e33f 3a40 913f 5922 9d3f 2828 9c3f
00000100: ae21 cd3f ba76 1240 afc5 f43f 75c0 b03f
00000110: 4b31 913f 56a1 483f 56f7 3840 6356 9f3f
00000120: 3ee6 0440 e082 1040 d76c 9a3f d3b9 ff3f
00000130: 904f ff3f 2741 d73f 0cce 2740 a9ac 7740
00000140: 84bc db3f 8165 3d40 5c9f 8e3f 3cb9 b63f
00000150: 0ecc 2040 b7a6 1540 462b 763f 500d e93f
00000160: 962d 0240 2ada ad3f ab02 623f a0d4 2e40
00000170: a33a 0f40 dade 0d40 5e9b 5b3f 33d4 a13f
00000180: 44db 2640 721c d13f 09e2 ee3f 16c8 0440
00000190: 7ac4 2b3f 4c7e 1a40 869c f53f 7543 db3f
000001a0: f796 0840 3b04 1740 66c2 bf3f ff72 9a3f
000001b0: 9e10 eb3f b27e 0440 b893 3d3f d0eb 903f
000001c0: d7bd 5c3f 9715 b03f 9270 5b3f 8a36 d53f
000001d0: 9a1a 9b3f 310b 503f c788 1340 d299 c23f
000001e0: 044c 2c40 89a6 b83f fbdd 4340 a853 a23f
000001f0: e8f5 a73f 33a2 9e3f 7dcd 2240 24b1 c03f

conv3.weight f4 [256, 128, 3]
0.011663155 -0.001235677 0.007475253 -0.025407795 -0.019222965 -0.015906138 0.009747237 0.029532852
0.015604104 0.016837955 0.016617352 -0.039270714 0.06576747 0.059211176 0.06786502 0.119093575
0.083298884 0.08842027 0.03047396 0.014991773 0.038510013 0.10331895 0.060428865 0.06889633
-0.0009330434 0.029803568 0.011189184 -0.008031417 0.02125136 -0.018001135 -0.113949016 -0.07218506
-0.10280727 -0.04480831 0.0014259857 -0.002144046 0.000496119 0.02036371 -0.014757144 -0.07429849
-0.044224337 -0.06880204 -0.029674195 -0.05548208 -0.056748327 0.011299699 0.0027167709 -0.011491279
0.061140202 0.029034682 0.045786705 -0.16849838 -0.14110146 -0.05857593 0.037929535 0.077769
0.0400727 -0.026944254 -0.0096555585 0.0030085435 0.06897541 0.015994564 0.05595818 -0.011691395
0.0026890978 0.04547903 -0.07870871 -0.04101459 -0.014223582 0.016891554 -0.031779695 -0.009029167
0.052976243 0.0388202 0.084402 -0.01271327 -0.023194758 0.002146671 -0.053723853 -0.073534705
-0.039809126 -0.04379374 -0.022741677 -0.062746674 -0.008730699 -0.019580876 -0.029985387 0.0030754548
0.026461342 0.01650378 -0.0024184335 -0.06019806 -0.07031775 0.035389565 0.0019256936 0.009473229
0.017951913 -0.0016949697 0.018480195 0.039383154 0.0056336573 0.040928014 0.06282224 0.05107533
0.064022034 -0.0028901515 -0.049041566 -0.058103498 0.026529783 0.025014626 0.037042018 0.06449115
0.02684007 0.0805713 0.10033424 0.097919665 0.06233881 -0.021414611 -0.055698607 -0.046118487
-0.018052936 0.012140424 -0.022089958 0.13372308 0.16027862 0.1718597 -0.11791509 -0.120047495
-0.08197174 0.012668194 -0.009897003 0.016715134 0.010309499 0.015308054 -0.018272176 0.0040466846
-0.028648607 -0.032402586 -0.025195742 -0.031131284 -0.05796085 0.014375606 0.025636612 0.04229433
0.01876763 0.017043266 0.04017569 -0.055904694 -0.037018783 -0.07591041 -0.061739173 -0.04564989
-0.06936093 -0.022536598 0.0003283807 0.028688746 -0.026226511 -0.036193486 0.0016897591 -0.028395424
-0.012240316 -0.044601485 0.028115397 0.029749857 0.053016227 -0.048282214 0.014799308 -0.022204649
-0.010087061 -0.031538572 0.024445854 0.009713816 -0.011687628 -0.015219325 0.02891029 0.005960252
-0.031183628 -0.00042325482 0.011875048 -0.042226613 0.1551963 0.096897766 0.103385895 0.10473222
0.11668025 0.1190949 0.054405075 0.021853844 0.053378347 -0.0010734727 0.058377683 0.044253092
0.038422935 0.057434548 0.04186991 -0.019522285 -0.031372648 0.015119707 -0.07733627 -0.045905538
0.046628512 -0.13123126 -0.114013165 -0.09415337 0.03453317 -0.0023308143 0.01632887 0.10070417
0.11085041 0.17808567 0.008674706 0.03825698 -0.013575727 0.11914054 0.075170636 0.034108635
-0.0650676 -0.043635305 -0.055886794 -0.0028781202 -0.008528844 -0.07828995 -0.011948181 -0.0029461249
-0.015547347 0.020263176 0.03584342 0.0009291576 0.039529346 0.01650297 0.036720533 -0.039925423
-0.018482741 -0.05898784 -0.024169713 -0.0059872875 -0.008203446 0.0054282555 0.03595898 -0.014945696
0.0118448045 0.06453651 -0.012115108 -0.07632934 -0.06290959 -0.06960804 -0.10557548 -0.084194824
-0.03613878 -0.03451644 -0.05580415 -0.0048980173 -0.007887689 0.015139381 0.002267501 0.006509235
00000000: d116 3f3c 71f6 a1ba f8f2 f43b 0224 d0bc
00000010: 7b79 9dbc 974d 82bc e0b2 1f3c e1ee f13c
00000020: 5ba8 7f3c c0ef 893c 1d21 883c 54da 20bd
00000030: 18b1 863d 6b87 723d d1fc 8a3d 55e7 f33d
00000040: 9b98 aa3d b015 b53d 87a4 f93c 0ea0 753c
00000050: adbc 1d3d e398 d33d 4284 773d 8519 8d3d
00000060: 7c97 74ba 9d26 f43c d752 373c 3496 03bc
00000070: 5517 ae3c 1e77 93bc 1a5e e9bd c3d5 93bd
00000080: 9e8c d2bd eb88 37bd 24e8 ba3a 1f83 0cbb
00000090: fc0d 023a ccd1 a63c f3c7 71bc cf29 98bd
000000a0: 9424 35bd 15e8 8cbd 4c17 f3bc 2d41 63bd
000000b0: ef70 68bd 5f22 393c da0b 323b eb45 3cbc
000000c0: 266e 7a3d 24da ed3c d78a 3b3d d78a 2cbe
000000d0: e77c 10be 50ed 6fbd 005c 1b3d 5a45 9f3d
000000e0: 4523 243d 32ba dcbc 5932 1ebc fc2a 453b
000000f0: fb42 8d3d 0807 833c 6834 653d 448d 3fbc
00000100: 933b 303b 3848 3a3d 0832 a1bd eafe 27bd
00000110: 070a 69bc 2860 8a3c 6d2b 02bd 12ef 13bc
00000120: 9efd 583d ee01 1f3d f5da ac3d 524b 50bc
00000130: ef02 bebc 2aaf 0c3b 8b0d 5cbd 5d99 96bd
00000140: e50e 23bd 1161 33bd c14c babc 5481 80bd
00000150: 350b 0fbc 1368 a0bc eaa3 f5bc 928d 493b
00000160: 75c5 d83c ef32 873c 957e 1ebb 3e92 76bd
00000170: c102 90bd a6f4 103d 8e67 fc3a 9a35 1b3c
00000180: e40f 933c bf29 deba c763 973c 3b50 213d
00000190: 8b9a b83b 22a4 273d f2a8 803d 5d34 513d
000001a0: fc1d 833d b268 3dbb cfdf 48bd effd 6dbd
000001b0: fd54 d93c 79eb cc3c 5fb9 173d f013 843d
000001c0: b5df db3c 9102 a53d 0a7c cd3d 1b8a c83d
000001d0: fb56 7f3d b26d afbc 3924 64bd bde6 3cbd
000001e0: c0e3 93bc a1e8 463c 00f6 b4bc b4ee 083e
000001f0: 1420 243e fdfb 2f3e 777d f1bd 76db f5bd
00000200: cde0 a7bd 428e 4f3c 0a27 22bc 2dee 883c
00000210: 2ce9 283c a2ce 7a3c 88af 95bc 0d9a 843b
00000220: 7cb0 eabc 93b8 04bd 4d67 cebc 0907 ffbc
00000230: 5b68 6dbd a987 6b3c df03 d23c d23c 2d3d
00000240: 93be 993c 529e 8b3c 448f 243d 52fc 64bd
00000250: 02a1 17bd eb76 9bbd 37e2 7cbd 61fb 3abd
00000260: 1a0d 8ebd ac9e b8bc 832a ac39 a904 eb3c
00000270: fbd8 d6bc 9f3f 14bd e87a dd3a 859d e8bc
00000280: 9b8b 48bc 0cb0 36bd 4352 e63c f9b5 f33c
00000290: 8b27 593d 92c3 45bd cc78 723c 86e6 b5bc
000002a0: 3344 25bc 972e 01bd ac42 c83c b326 1f3c
000002b0: 777d 3fbc 7a5a 79bc 46d5 ec3c 384e c33b
000002c0: cf74 ffbc 4de8 ddb9 908f 423c d0f5 2cbd
000002d0: c7eb 1e3e 5672 c63d fcbb d33d d97d d63d
000002e0: 0ef6 ee3d 07e8 f33d dbd7 5e3d d506 b33c
000002f0: 41a3 5a3d c4b3 8cba 701d 6f3d bb42 353d
00000300: 5e61 1d3d 7d40 6b3d c87f 2b3d 33ed 9fbc
00000310: 9b80 00bd a6b8 773c 7a62 9ebd 7207 3cbd
00000320: 8afd 3e3d 7d61 06be bc7f e9bd 7bd3 c0bd
00000330: a772 0d3d 93c0 18bb 1fc4 853c fd3d ce3d
00000340: 8a05 e33d 175c 363e 5b20 0e3c 5ab3 1c3d
00000350: ba6c 5ebc f5ff f33d 10f3 993d 7fb5 0b3d
00000360: 2942 85bd efba 32bd 8de9 64bd d89e 3cbb
00000370: 91bc 0bbc 7b56 a0bd 4ec2 43bc c613 41bb
00000380: 4dba 7ebc f6fe a53c 8dd0 123d b692 733a
00000390: 86e9 213d 3d31 873c 4568 163d d788 23bd
000003a0: 1e69 97bc 3c9d 71bd 90ff c5bc 0231 c4bb
000003b0: bf67 06bc 82df b13b b949 133d cbde 74bc
000003c0: b610 423c b82b 843d 727e 46bc 8f52 9cbd
000003d0: bed6 80bd a98e 8ebd f537 d8bd 566e acbd
000003e0: 4206 14bd 1c61 0dbd e492 64bd 8c7f a0bb
000003f0: 5e3b 01bc 2b0b 783c 5b9a 143b 6c4b d53b

conv3.bias f4 [256]
-2.3505832e-05 -1.059132e-05 -1.3517329e-05 1.1907468e-05 6.208076e-05 -4.2053365e-05 1.4247846e-05 -3.2243997e-06
-6.893236e-05 6.3817526e-05 -1.6588889e-05 -1.1381089e-06 6.13512e-06 3.2777248e-06 4.288939e-05 -3.0942756e-06
6.357925e-06 1.043437e-05 0.00010440867 5.5558223e-05 -1.3250849e-05 -2.959721e-05 -6.288604e-06 -1.6837304e-05
-1.1497879e-05 1.9350595e-05 2.3962362e-05 8.176859e-06 -1.3081022e-05 -1.9114395e-06 1.2398565e-05 -1.5136804e-05
-1.666245e-05 -5.1061666e-05 2.0349886e-05 2.9656514e-05 4.271459e-06 1.08038475e-05 3.7563303e-05 -5.1609954e-06
-4.711615e-06 -1.3712418e-05 -2.0607717e-05 -1.5695361e-05 -2.735905e-05 1.1660071e-05 1.2284556e-05 1.1788707e-05
-1.1752565e-05 -6.055106e-05 -1.8064807e-06 -2.169278e-05 4.3002383e-05 4.132782e-05 4.6483196e-06 -0.0001052112
-3.2311433e-05 -5.4000475e-06 5.5946657e-08 1.0023035e-05 -2.0863383e-05 2.9526511e-06 1.4174559e-05 -2.2180258e-05
3.570914e-05 1.5393938e-05 -1.5809888e-05 -9.835527e-06 -2.9355383e-06 2.5526144e-06 -1.4041144e-05 5.1148287e-05
-5.4036245e-05 -8.286458e-06 1.1784096e-05 -1.4445461e-06 -7.006309e-06 9.371233e-06 -1.0042667e-05 6.015748e-05
1.3423069e-05 3.8004393e-05 6.911529e-06 2.7747087e-06 9.2818686e-07 -7.0714063e-06 5.5668825e-05 -2.3882425e-05
-2.9916603e-06 -1.1562243e-05 -2.3598974e-05 -6.598602e-05 5.1076073e-05 -1.8904397e-05 3.6771984e-05 2.0660245e-05
6.540703e-06 -1.6625272e-06 -2.3636285e-06 6.0986473e-05 7.2766525e-06 1.0535886e-05 0.000107298125 3.4200662e-06
-1.6002468e-06 2.803762e-05 7.1986986e-05 -1.1138078e-05 3.7448335e-05 -3.4782609e-06 -3.336013e-05 3.6235315e-06
8.447438e-06 1.8559294e-05 -1.7128987e-05 -8.978022e-06 7.519211e-06 -1.6533511e-05 -4.077551e-05 5.355088e-05
-1.65665e-06 -2.4500446e-07 5.2221876e-06 -9.307856e-06 -5.8837477e-06 -1.3970335e-05 3.2729786e-06 -3.5786987e-05
-2.4247487e-05 6.3475977e-06 4.7204962e-06 -3.6646943e-05 -2.1125288e-05 -3.1067517e-05 8.768484e-07 -1.0535466e-05
-1.1131243e-05 2.7563812e-05 2.98709e-05 -2.464276e-07 4.2033234e-06 -2.5941696e-05 1.6520517e-06 1.9308949e-05
1.258965e-05 -1.5036254e-05 7.5359585e-06 -4.5882913e-05 1.0719497e-05 -1.5276028e-05 -2.5706697e-05 1.3558904e-05
-5.0799405e-05 1.7683215e-05 -1.1221841e-05 -3.915854e-06 1.3580692e-05 3.0762385e-07 -1.2055476e-05 -8.7741255e-06
-1.0596312e-05 -3.3456505e-05 -9.624076e-06 -4.3366406e-05 -3.9772913e-06 2.4015892e-05 -6.0734183e-06 1.8316065e-05
3.260836e-05 9.106905e-06 5.715144e-05 8.868776e-06 2.3899993e-06 1.6000631e-05 7.6781025e-06 -2.0918407e-05
-1.475215e-05 2.254194e-05 -1.9902513e-05 1.3648861e-05 3.188704e-05 -9.848789e-06 2.2761094e-05 -3.9587485e-05
2.281964e-06 5.8162554e-05 1.4872582e-05 0.00014561061 2.405954e-05 -3.711818e-05 8.401879e-06 -2.4146007e-05
1.5371013e-05 -4.5865195e-06 1.7468948e-05 -3.714064e-06 9.824307e-06 -4.730276e-06 4.557157e-05 2.4280236e-05
-6.462145e-05 1.14508985e-05 -1.5152291e-05 8.955763e-06 -2.0205678e-05 -5.034995e-05 1.0323555e-05 -3.4030847e-05
1.1613795e-06 1.6674607e-05 1.2861173e-05 -0.00014610587 1.425662e-05 1.8454139e-05 3.3866967e-05 4.6640644e-06
-4.2428772e-05 -2.1831744e-05 5.8923138e-06 -1.9784446e-05 2.8555407e-05 -8.785835e-06 6.3013144e-06 -1.617276e-05
2.9256053e-05 1.7208733e-06 1.86036e-05 1.1266551e-05 1.9647061e-05 -1.5001995e-05 1.3393748e-05 9.415939e-06
-8.686511e-05 2.9773859e-05 8.857237e-05 1.4014095e-05 -3.0354493e-05 -3.343024e-05 -1.5521391e-05 -1.9369185e-05
1.0522094e-05 4.0871796e-06 1.1581803e-05 2.75204e-05 -1.4355795e-05 2.1704764e-05 -1.9627754e-05 5.213506e-06
-3.6582125e-05 -6.196441e-05 -6.6049793e-06 1.1413943e-05 2.2901563e-06 -5.7819845e-05 8.076132e-06 -2.4730083e-05
00000000: 642e c5b7 5fb1 31b7 7cc8 62b7 30c6 4737
00000010: 5b31 8238 7562 30b8 080a 6f37 c462 58b6
00000020: c78f 90b8 c6d5 8538 5e28 8bb7 20c1 98b5
00000030: 48dc cd36 e2f6 5b36 22e4 3338 40a7 4fb6
00000040: 2956 d536 470f 2f37 faf5 da38 3007 6938
00000050: f74f 5eb7 8647 f8b7 b202 d3b6 d63d 8db7
00000060: 04e7 40b7 1653 a237 c802 c937 582f 0937
00000070: 9076 5bb7 4846 00b6 6e03 5037 14f4 7db7
00000080: 57c6 8bb7 0c2b 56b8 0cb5 aa37 e1c6 f837
00000090: 8e53 8f36 2c42 3537 4a8d 1d38 9d2c adb6
000000a0: 7718 9eb6 630e 66b7 bcde acb7 88a9 83b7
000000b0: 1d81 e5b7 a09f 4337 c419 4e37 1cc8 4537
000000c0: e22c 45b7 35f8 7db8 3476 f2b5 e4f8 b5b7
000000d0: 755d 3438 6957 2d38 c3f8 9b36 d5a4 dcb8
000000e0: 2386 07b8 0e32 b5b6 004a 7033 9c28 2837
000000f0: c603 afb7 2926 4636 44cf 6d37 be0f bab7
00000100: 66c6 1538 3b22 8137 7a9f 84b7 4403 25b7
00000110: 2a00 45b6 954d 2b36 4192 6bb7 0e88 5638
00000120: faa4 62b8 1106 0bb7 4fb4 4537 3ae2 c1b5
00000130: bc17 ebb6 2439 1d37 ed7c 28b7 9a51 7c38
00000140: a433 6137 e866 1f38 95e9 e736 2235 3a36
00000150: 8428 7935 eb46 edb6 f27d 6938 1e57 c8b7
00000160: 55c4 48b6 75fb 41b7 69f6 c5b7 fa61 8ab8
00000170: 843a 5638 e294 9eb7 9e3b 1a38 8a4f ad37
00000180: 3678 db36 0024 dfb5 d49e 1eb6 bacb 7f38
00000190: f829 f436 49c3 3037 3e05 e138 4a84 6536
000001a0: 10c8 d6b5 5532 eb37 b8f7 9638 aedd 3ab7
000001b0: d811 1d38 116c 69b6 2bec 0bb8 cc2b 7336
000001c0: 78b9 0d37 c8af 9b37 38b0 8fb7 50a0 16b7
000001d0: 884d fc36 72b1 8ab7 5f06 2bb8 d29b 6038
000001e0: 105a deb5 2889 83b4 403a af36 f028 1cb7
000001f0: 026d c5b6 2262 6ab7 58a5 5b36 fc19 16b8
00000200: 1567 cbb7 73fd d436 c164 9e36 5bb5 19b8
00000210: 3636 b1b7 7e4e 02b8 9060 6b35 7bc1 30b7
00000220: 53c0 3ab7 d638 e737 4593 fa37 c04c 84b4
00000230: 460a 8d36 5e9d d9b7 10bc dd35 a7f9 a137
00000240: 2338 5337 3844 7cb7 64dd fc36 6772 40b8
00000250: e4d7 3337 0525 80b7 b6a4 d7b7 0d7b 6337
00000260: 7211 55b8 6a56 9437 7145 3cb7 ee64 83b6
00000270: a1d8 6337 8027 a534 e041 4ab7 9534 13b7
00000280: d0c6 31b7 a653 0cb8 1777 21b7 53e4 35b8
00000290: ac74 85b6 bc75 c937 44ca cbb6 73a5 9937
000002a0: f6c4 0838 dcc9 1837 e4b5 6f38 1acb 1437
000002b0: e063 2036 1839 8637 33d1 0037 f079 afb7
000002c0: 0080 77b7 7318 bd37 52f4 a6b7 69fd 6437
000002d0: 73be 0538 3a3c 25b7 14ef be37 bd0a 26b8
000002e0: d823 1936 91f3 7338 4185 7937 0daf 1839
000002f0: 78d3 c937 58af 1bb8 ccf5 0c37 288d cab7
00000300: 00f1 8037 e7e5 99b6 488a 9237 223f 79b6
00000310: 14d3 2437 c3b8 9eb6 1a24 3f38 69ad cb37
00000320: 6085 87b8 3c1d 4037 9836 7eb7 b640 1637
00000330: 5d7f a9b7 d92e 53b8 5533 2d37 58bc 0eb8
00000340: b2e0 9b35 72e0 8b37 51c6 5737 ff33 19b9
00000350: b72f 6f37 f6cd 9a37 610c 0e38 0280 9c36
00000360: 8cf5 31b8 5023 b7b7 97b6 c536 c6f6 a5b7
00000370: 458a ef37 e066 13b7 e16f d336 bdaa 87b7
00000380: e56a f537 c2f8 e635 ed0e 9c37 7805 3d37
00000390: becf a437 14b1 7bb7 b6b5 6037 26f9 1d37
000003a0: 5a2b b6b8 e0c2 f937 eebf b938 141e 6b37
000003b0: c7a1 feb7 7237 0cb8 ef33 82b7 027b a2b7
000003c0: 0d88 3037 9b24 8936 774f 4237 9cdb e637
000003d0: acd9 70b7 a012 b637 48a6 a4b7 adef ae36
000003e0: c26f 19b8 e4f2 81b8 57a0 ddb6 837e 3f37
000003f0: 96b0 1936 9683 72b8 b97e 0737 7373 cfb7
