button_detection_model_top_left_bottom_right.pt (torch, 16286 bytes, 5 tensors)

net.0.weight f4 [16, 1, 5]
000000 74 10 a8 be 12 0f 0e be 58 63 15 3e 1b 71 2a bd
       -0.32825053 -0.13872936 0.14588678 -0.041611772
000010 fb 0e eb bd 27 58 5d be d5 aa 21 3e b9 bc 38 bd
       -0.11477467 -0.21615659 0.15787823 -0.045101855
000020 d3 d8 0e bc 43 69 b5 bb f7 92 2b bf 24 f4 92 be
       -0.008718687 -0.00553623 -0.67021126 -0.2870189
000030 5f 0e e9 bd 61 b3 0f 3f bf df 01 3f 75 6f c2 3e
       -0.11379694 0.56133085 0.50732034 0.3797566
000040 e8 41 83 3e 49 55 3c 3d 4c 7f db bd b5 05 04 bf
       0.2563622 0.04597977 -0.10717639 -0.5157121
000050 13 3f 01 bf ad 37 f7 be 2d 23 9d 3e 59 96 50 3d
       -0.5048687 -0.48284665 0.306909 0.050924633
000060 0d 57 20 3f 95 9f ad be 87 5f 04 bf 57 41 07 bf
       0.6263283 -0.33910814 -0.51708263 -0.52834076
000070 1a 47 2b bf 7b 4c 11 bf e0 8e 47 3f 99 ae 8d 3e
       -0.6690537 -0.56757325 0.77952385 0.2767227
000080 ba 6e 29 be 59 c2 e5 be be 25 21 bf ea 99 31 bc
       -0.16546145 -0.44874838 -0.62948215 -0.010839919
000090 b6 cd 19 bc 97 c2 12 bc bf 18 0b bc 89 64 04 bc
       -0.009387424 -0.008957527 -0.008489787 -0.00808061
0000a0 b8 12 5e be 19 d4 39 3e fd 90 8f 3e c2 31 9e be
       -0.21686828 0.18147315 0.28040305 -0.30897337
0000b0 c8 f9 01 3f b8 34 04 3f 41 9e dd 3d ff 5e 88 3e
       0.5077176 0.5164294 0.108212 0.26634976
0000c0 39 61 b9 bd 8c dd e8 be 90 bf 62 bb 86 7a 2c bb
       -0.09051747 -0.45481527 -0.0034599043 -0.0026318147
0000d0 70 35 2c bb b6 5d 2b bb 5f 8b 2a bb dd a5 69 3e
       -0.0026276968 -0.0026148385 -0.0026023013 0.22817178
0000e0 aa 3c 5e be 43 dd 11 3f 59 6f 00 3f 2b 44 e7 3d
       -0.21702829 0.56978244 0.50169903 0.11292299
0000f0 36 67 13 3d 15 9d 30 3d 1c ec 9f 3e a2 a3 5c 3e
       0.0359871 0.043118555 0.31234825 0.21546796
000100 aa 17 b0 3e cf e0 b9 ba 57 2e 09 bf 68 0a 28 bf
       0.34393054 -0.0014181378 -0.53586334 -0.6564088
000110 87 ec 55 be bf 98 fd be 85 30 3f 3f 9a 27 81 3e
       -0.2089101 -0.495306 0.7468341 0.25225526
000120 53 5f ab be 93 37 5e 3d ba 94 2a bf 49 23 db bd
       -0.33471164 0.05425222 -0.6663319 -0.107000895
000130 80 07 8b 3e f8 fd 9f 3e 17 d6 e8 3d a4 6e de 3e
       0.2715416 0.3124845 0.113689594 0.43443787

net.0.bias f4 [16]
000000 15 f0 e3 3b e0 9c 9d 3e 0b 6e 8b 3c 5f 92 81 be
       0.0069561102 0.3078375 0.017020246 -0.25306985
000010 a3 88 6e 3c b1 1f 71 bf eb f8 e9 3a fd 8e 34 bd
       0.014558944 -0.9418898 0.0017850673 -0.044081677
000020 7a d6 92 bf d4 e3 31 3e e9 40 09 bd 97 82 21 3f
       -1.1471703 0.17372066 -0.03350917 0.6308989
000030 27 b7 91 bf 53 76 46 bf eb 1b f4 3c c7 52 21 bf
       -1.1384019 -0.775243 0.029798469 -0.63016933

net.3.weight f4 [32, 16, 5]
000000 cc b4 13 3e ac 6d fa ba 9e 22 d3 bd 90 d1 36 3d
       0.14424437 -0.0019106171 -0.10309337 0.044633448
000010 09 6b 34 3e 6e e6 0c 3d 34 c7 7b bb ed 09 a4 3d
       0.17618956 0.034399442 -0.0038418295 0.08009706
000020 cd 57 50 3e 6c 35 8c 3e a4 62 de 3e e1 0a 16 3f
       0.20345993 0.27384508 0.43434632 0.5861035
000030 ab bb 1d 3e 25 76 cf 3d 02 8b 62 3d 46 11 20 80
       0.15403621 0.10129956 0.05530835 -2.944932e-39
000040 fa b8 09 b8 af 07 6e b9 1c 46 6e b9 a0 a4 b0 b9
       -3.283562e-05 -0.00022700311 -0.00022723567 -0.0003369199
000050 a5 5f a6 3e c9 33 f0 3e a3 f7 2e 3c 73 87 4c bc
       0.32494846 0.4691451 0.010679158 -0.0124834655
000060 27 4a 09 bc 39 6c da 3e ff f9 b0 bd a3 00 25 bf
       -0.008379496 0.42660692 -0.08641433 -0.64454097
000070 b7 75 99 be bd 8d 26 be 8b a1 f3 be f4 14 17 bf
       -0.29972622 -0.16265006 -0.47584185 -0.59016347
000080 95 3d 1b bf a6 d2 77 be 0d a5 ce bd a9 81 5a bb
       -0.6064084 -0.2420145 -0.10090075 -0.0033341444
000090 82 c2 63 bb bc d6 6b bb d5 e8 a0 bb 2b 05 87 bb
       -0.0034753387 -0.0035986146 -0.0049105682 -0.004120489
0000a0 8b 7b 51 bd d5 a4 bd bb 35 dc 36 bc e6 c6 54 bc
       -0.05114321 -0.005787472 -0.0111609 -0.012986874
0000b0 0f 9d 52 bc c5 0d dd be 73 bc c4 be 9c 2d 85 be
       -0.0128548285 -0.43174568 -0.38425025 -0.2601136
0000c0 83 57 95 bd 48 ec fb bd 12 ab 51 bb 69 83 50 bb
       -0.07292082 -0.123009264 -0.0031992835 -0.0031816608
0000d0 08 3d 4f bb 3a fd d6 bb 52 73 a5 bb 4c a3 98 be
       -0.003162207 -0.0065609487 -0.0050491476 -0.29812086
0000e0 84 c5 99 bd 40 32 4c 3e 64 0b 0b 3e 52 ee 9a 3d
       -0.07508376 0.19941044 0.13578564 0.07564987
0000f0 37 fa d6 bd 9d e8 06 be 5f a2 05 be f9 5f 0a be
       -0.104969434 -0.13174672 -0.13050221 -0.13513173
000100 7f c6 0c be a6 ba f3 3e 58 1e 66 3d d3 8e c2 be
       -0.13747595 0.4760334 0.05618128 -0.3799959
000110 4a 03 cb bd d6 65 6b be 3d 8a 08 bf 72 23 17 bf
       -0.09912737 -0.22988066 -0.53335935 -0.5903846
000120 01 82 1b bf 7b cb 9a be 25 61 6e be 58 0f 37 bd
       -0.60745245 -0.30233368 -0.23279245 -0.044692367
000130 00 dc d0 bd 2e af ee bd b8 7f 10 be 23 e3 20 be
       -0.10198212 -0.116545066 -0.14111221 -0.15711646
000140 5a c2 8e 3e 92 e4 77 3e c3 38 6d 3e f9 ba 80 3d
       0.27882653 0.24208286 0.23166184 0.06285662
000150 72 ba 1d 3d da 8c 98 3d 17 96 f6 3c 04 c1 e1 3d
       0.038507886 0.0744874 0.030100865 0.11023143
000160 fe 2e 95 bd e1 77 1b be 20 35 e8 3d 4a 11 1e 3e
       -0.07284354 -0.15182449 0.11338258 0.15436283
000170 2d 11 1a 3e d5 ba 0f 3e f3 60 52 3e 01 73 23 00
       0.15045615 0.14036115 0.20544796 3.255498e-39
000180 c2 0f 1c 00 97 ff fb bb 80 3a 08 00 b8 73 8b 3c
       2.577047e-39 -0.007690381 7.5567e-40 0.017022952
000190 ba a1 4d 3d 15 65 a4 3d 91 12 7c 3d fa 3c aa 3d
       0.050203063 0.08027092 0.061541144 0.083124116
0001a0 aa ab 21 3e 9c 9f bc be 11 70 10 bf f9 43 4e bf
       0.15788141 -0.36840522 -0.56421 -0.8057247
0001b0 1e 7b 57 bf 25 41 69 bf 4a 56 82 bc 06 3f 1e bd
       -0.84172237 -0.9111503 -0.015910286 -0.038634323
0001c0 85 6f c8 bd 22 c9 cf bc 26 93 1b 3d 9f 18 9d bb
       -0.09786896 -0.025364462 0.03798213 -0.004794195
0001d0 3c c5 b5 bb e2 5f bd bb 20 a7 c4 bb e0 9b c6 bb
       -0.005547194 -0.0057792524 -0.006001368 -0.006061062
0001e0 f4 fb 05 80 d3 db 11 00 63 47 24 00 73 4f 20 00
       -5.49561e-40 1.640062e-39 3.331687e-39 2.967237e-39
0001f0 31 8a 11 00 86 0b 84 bd 95 f9 12 3d 0a 7a 87 3c
       1.610777e-39 -0.064475104 0.03588255 0.016537685
000200 99 f6 99 bd f8 1d 20 bd 13 37 f4 3a 95 fe 09 3b
       -0.07517738 -0.03909108 0.0018632136 0.0021056284
000210 75 58 0c 3b 51 b1 80 3a 6e 62 80 3a 51 55 ac 3c
       0.002141503 0.0009818469 0.0009794959 0.021036776
000220 58 c9 b4 3d bd 15 e7 3d 61 f4 a7 bc 0a d2 b7 3d
       0.08827466 0.11283443 -0.020502271 0.08975609
000230 e7 f0 05 80 8f a0 0b 80 99 73 35 80 2e e7 11 00
       -5.45597e-40 -1.067788e-39 -4.90875e-39 1.644135e-39
000240 d4 bb 1d 00 c4 5a 75 3e bd fe 21 3e 75 29 8c 3d
       2.73061e-39 0.23960406 0.15819831 0.06843845
000250 31 d3 47 bc 73 3a 8f bc 6d e2 a9 bd af 7b e5 bd
       -0.012196348 -0.017483925 -0.082951404 -0.112052314
000260 d2 28 1c be 83 e7 b9 bd 53 a7 89 3c be 6d d1 be
       -0.15249947 -0.090773605 0.01680342 -0.4090404
000270 db 73 0b bf 9a 89 1f bf 43 9b 09 bf 3d 2d fe be
       -0.54473656 -0.6231934 -0.53752536 -0.4964389
000280 fa c3 04 3e f1 bd 23 3e 00 36 3d 3e f1 23 07 bd
       0.12965384 0.15990426 0.1847763 -0.03299326
000290 39 c2 1e bd a5 c8 06 3e 81 93 44 3d 04 4b 43 3d
       -0.038759444 0.13162477 0.047992233 0.047678962
0002a0 72 f9 95 be e4 d6 6d be c1 77 00 3e b1 87 90 bd
       -0.29291874 -0.23226506 0.12545682 -0.07057131
0002b0 86 7a 94 3d 31 46 0f be 09 c2 50 be 29 3f 1a be
       0.07249932 -0.1399162 -0.20386519 -0.15063156
0002c0 e8 b7 dc bc d2 0f ed ba 78 8f 02 bd 8b fb 83 3e
       -0.026943162 -0.001808638 -0.031875104 0.2577785
0002d0 d0 f9 c5 3d b9 9e 99 bd 21 53 3e 3e e0 c3 e2 bd
       0.096667886 -0.07500977 0.18586399 -0.110725164
0002e0 07 9f 27 be 16 ee a8 3e 34 6d e6 3e f0 99 0d 3f
       -0.16369258 0.32994145 0.4500519 0.55313015
0002f0 59 8a bb 3d 3a ca 76 3d 10 56 e5 3d c2 b6 06 3e
       0.09157247 0.060251452 0.11198056 0.13155654
000300 22 0d 02 3e ed c5 60 be c5 4c 19 be 33 2f 70 3c
       0.12700322 -0.21950503 -0.14970692 0.014659691
000310 7b 04 76 3c f4 ac 7d 3c ce 3c 80 3c 68 c1 82 3c
       0.015015717 0.01548313 0.015653994 0.015961364
000320 99 fe b7 3f 76 2f b6 3f 7d b2 b5 3f e6 a5 b8 3f
       1.4374572 1.4233234 1.4195095 1.4425628
000330 32 f6 b8 3f 11 c2 0a be d9 34 76 bd fb 21 73 bd
       1.4450133 -0.13550593 -0.060108993 -0.05935858
000340 d4 9f af bd 6b 81 fe 3d a2 70 9b 3a fb bb 9c 3a
       -0.08575407 0.12427028 0.0011859129 0.0011957878
000350 3b b2 9f 3a 3a 44 5b bb 03 b5 5a bb 60 24 5d be
       0.0012183854 -0.0033457414 -0.0033372052 -0.21595907
000360 bd 76 6e be a0 68 b6 bd 38 5e 18 3b 40 ac cf bd
       -0.23287483 -0.089066744 0.0023249518 -0.10140276
000370 f7 e3 90 3e 4f 82 5c 3e 98 06 bb 3e e4 3f 98 3e
       0.28298923 0.21534084 0.36528468 0.29736245
000380 ca b3 ae 3e 3e 05 81 3e 29 0e 9f 3e 4e 91 bc 3e
       0.34121543 0.25199312 0.3106549 0.3682961
000390 6d 5c e6 3d 9c 5a 99 3d 41 10 0c be 52 b0 02 3d
       0.112480976 0.074879855 -0.13678075 0.031906433
0003a0 24 57 d3 3d 58 a1 a7 bd f5 57 95 3e c9 3d 85 3d
       0.10319355 -0.08185071 0.29168668 0.06505925
0003b0 3e 87 a7 bb 46 cb 38 3e a8 dd 97 3d e2 b0 6e 3e
       -0.0051125577 0.18046293 0.074153244 0.23309663
0003c0 25 b4 01 80 cc 3f 00 00 9d 6d 02 00 dd ca 07 00
       -1.56459e-40 2.2886e-41 2.22993e-40 7.15622e-40
0003d0 3a 46 08 00 78 4f 13 80 68 f7 15 80 44 f9 16 80
       7.59877e-40 -1.773382e-39 -2.017298e-39 -2.1098e-39
0003e0 28 6d 14 80 6c 77 15 80 4d 9e 14 80 ca 9e 18 80
       -1.875868e-39 -1.971386e-39 -1.893498e-39 -2.261015e-39
0003f0 24 92 0f 80 10 4a 03 00 4d 98 17 00 c4 70 01 00
       -1.429958e-39 3.02075e-40 2.166852e-39 1.32288e-40

net.3.bias f4 [32]
000000 a8 80 2d 3e 63 77 fb 3d 72 c7 1c bf c0 f7 17 a8
       0.1694361 0.122786306 -0.6124183 -8.435906e-15
000010 ee 98 08 3e 0b 0a 96 bb 6a 95 66 be a8 f8 a8 3c
       0.13339588 -0.004578834 -0.22517934 0.020626381
000020 b8 dc 11 be 19 d8 7d 3e f8 f1 b5 be 2f fb c3 3c
       -0.14244354 0.24789466 -0.3553617 0.023923485
000030 e7 43 37 3d e2 e9 d7 af fd 4b a0 bb 21 3d 9a be
       0.04474249 -3.9274456e-10 -0.004891871 -0.30124763
000040 37 86 5b 3d 10 34 7b 3e a0 a2 19 bb 40 0c 1b bc
       0.053594794 0.24531579 -0.002344288 -0.00946337
000050 5b 71 17 3d 86 76 f2 bd 76 b2 48 3e b3 e5 93 3d
       0.03697334 -0.11839013 0.19599327 0.07221546
000060 b0 da 5b bb e8 72 30 be 0a a9 03 be fa dc 6a 3e
       -0.0033547096 -0.17231333 -0.12857452 0.22935858
000070 b0 7c 57 3e 6c b1 1d b9 03 26 82 be ad 78 8a 3d
       0.21043658 -0.00015038782 -0.25419626 0.06761298

net.8.weight f4 [1, 640]
000000 94 58 35 bd 77 eb c7 3e e1 71 17 3f fd 72 eb 3e
       -0.044273928 0.39046833 0.5915814 0.45986167
000010 b6 08 b1 3e 05 17 9a 3e df 2a 89 3e da 62 55 3e
       0.34576958 0.30095688 0.2679052 0.2083849
000020 b8 f4 5c 3e 62 42 98 3e 55 ac 75 3e 8a 03 15 3b
       0.21577728 0.29738146 0.2399152 0.0022737705
000030 fc ea 3f bb cc 5f 6f bc 92 13 18 be ab 6e 0c be
       -0.0029284349 -0.014610242 -0.14851215 -0.13714091
000040 b6 f9 66 be 07 9f e6 be ae be 3e bf fd 10 b6 bf
       -0.22556195 -0.45043203 -0.74509704 -1.4223934
000050 67 52 03 bf 66 dd f5 be 41 e7 d2 be f9 aa f0 be
       -0.5129761 -0.48020476 -0.41192058 -0.47005442
000060 e5 53 e6 be b9 21 d4 be 4d 1c da be 6e b0 dc be
       -0.4498588 -0.41431978 -0.42599717 -0.43103355
000070 b0 b4 87 be 03 88 52 be 74 49 1a be c6 85 43 be
       -0.2650504 -0.20559697 -0.15067083 -0.19094
000080 87 db 4e be 8c 54 6b be 56 b4 73 be d4 61 5d be
       -0.2020093 -0.22981471 -0.23799261 -0.2161935
000090 35 2b aa be 9a d7 fa be 4e 1f 3e bf 2d 14 de be
       -0.3323609 -0.48992616 -0.7426652 -0.43374768
0000a0 01 a9 a0 bd f5 09 39 bc a8 db 13 3f 77 5e 2c 3f
       -0.07844735 -0.011293878 0.57757044 0.6733164
0000b0 41 b7 26 3f 28 6d 46 3f f6 6d 4d 3f b8 32 50 3f
       0.65123373 0.7751031 0.8024591 0.8132739
0000c0 77 80 4a 3f bb c4 44 3f e7 70 3d 3f d3 ca 1a 3f
       0.7910227 0.76862687 0.740004 0.60465735
0000d0 51 7b 03 3f 40 b7 04 3f 51 70 e8 3e 59 bd c7 3e
       0.5136004 0.5184212 0.4539819 0.39011648
0000e0 7d 97 6b 3e 1f 4e 3c 3e 31 f8 fb bd 12 7e e2 3e
       0.23007007 0.18389176 -0.12303198 0.4423681
0000f0 fd 63 15 80 b3 32 20 00 bb b3 0b 00 02 6f 18 00
       -1.964414e-39 2.956923e-39 1.074666e-39 2.243874e-39
000100 fa 37 0a 00 dc c1 05 00 5f 70 0e 00 16 63 15 00
       9.38436e-40 5.28721e-40 1.326008e-39 1.964091e-39
000110 fa e9 13 00 1d b2 03 80 ac e6 15 00 dc af 07 80
       1.82881e-39 -3.39401e-40 2.011295e-39 -7.05935e-40
000120 43 f0 17 00 f9 df 17 00 ad 95 0f 00 69 b5 14 00
       2.198406e-39 2.192563e-39 1.431226e-39 1.901788e-39
000130 2f bb 11 00 f8 d1 49 00 26 bb 11 00 8e 2a 27 80
       1.628352e-39 6.779314e-39 1.62834e-39 -3.59685e-39
000140 07 dc cf bd 73 83 f2 3e e1 62 c2 3e 13 a8 af 3e
       -0.10149389 0.47365913 0.37966064 0.34307918
000150 10 f4 76 3e 9d 82 10 3e 8b 52 5a 3e a6 60 f6 3d
       0.2411654 0.14112325 0.2132055 0.12030153
000160 c7 f8 79 3e ba 21 9e 3e e1 ef 74 3e cd b2 5c bc
       0.24411307 0.30885106 0.23919632 -0.013470364
000170 a0 7b ff bc 3e b4 18 bd c8 72 a6 bd e9 0d f2 bd
       -0.031186879 -0.037281267 -0.081273615 -0.118190594
000180 c2 13 51 be 11 dc ba be a5 bb 2e bf e3 05 79 bf
       -0.20417693 -0.36496022 -0.6825507 -0.9727461
000190 dc 14 81 9d 38 44 9b 1b 1c 68 3c 1d bc 15 92 1d
       -3.4167584e-21 2.5686684e-22 2.4935416e-21 3.866835e-21
0001a0 d2 5c d4 1c d1 f2 83 9d a8 02 0b 9c 74 0e a7 1d
       1.4052977e-21 -3.4926478e-21 -4.5994675e-22 4.4219476e-21
0001b0 43 1f 81 9d f9 31 e7 9c 7d b9 9e 1b ae cc 6b 1d
       -3.417834e-21 -1.5299215e-21 2.6258776e-22 3.1207808e-21
0001c0 3a c3 5c 9c 33 6d c7 9d 08 70 da 9b 9a a5 83 9d
       -7.304422e-22 -5.278777e-21 -3.6137473e-22 -3.484664e-21
0001d0 09 47 9b 1d 26 26 12 9d 9e 2f 2f 1d cc ee d3 1d
       4.1101607e-21 -1.9342661e-21 2.3185675e-21 5.6098145e-21
0001e0 5e 3f 11 3f d3 47 7e 3e dc 6f ef 3c 71 9d 01 be
       0.56737316 0.24832086 0.029228143 -0.12657715
0001f0 f9 fa 38 be 95 87 2a be 2e 0f 81 be ba 64 3c be
       -0.18064488 -0.16653283 -0.25206894 -0.18397799
000200 e7 4c 30 be db 6a 38 be 30 6a 2b be f7 d7 0b be
       -0.17216836 -0.18009512 -0.16739726 -0.13656603
000210 05 6a 83 bd 0e 88 8a bd 67 60 ae bc 5a 23 6a 3d
       -0.06416706 -0.067642316 -0.021286203 0.05716262
000220 54 20 eb 3c 65 3b a3 3d cb 8a 62 3e 8e bb 07 3f
       0.028701939 0.07970313 0.22123258 0.5302056
000230 43 e8 4f 3e 9b 1e fb bc 54 4c 5e bf 8b 60 0b bf
       0.20303445 -0.030654242 -0.8683522 -0.5444419
000240 47 9d eb be ce 4d 98 be 2c 7c 85 be b0 0d 8c be
       -0.4601843 -0.2974686 -0.26071298 -0.27354193
000250 c6 26 58 be e7 76 ff bd e1 05 d3 3d 3d e4 b2 3e
       -0.21108541 -0.12473851 0.10303856 0.34939757
000260 cd e5 7f 3e 0a d1 1e 3e e1 14 06 3e e6 61 a9 3d
       0.24990006 0.1550943 0.13093902 0.08270626
000270 fc 8e 4d 3e 24 de ce 3e 53 73 65 3f 0e f7 9d 3f
       0.20074075 0.40403855 0.89629096 1.234102
000280 49 ec 2f 3f f3 d6 ab 3e a0 18 96 3d 9d 8e 4c bd
       0.6871992 0.3356243 0.073289156 -0.049940694
000290 4b f8 3d be 39 8d 17 be fc 9f 18 be cf d6 40 be
       -0.18551748 -0.14799966 -0.14904779 -0.18831943
0002a0 e0 3d 24 be 46 ae 32 be 6b 0e 37 be d3 5c 2b be
       -0.16039228 -0.17449293 -0.17876594 -0.16734628
0002b0 8f 5d ce bc 76 11 33 bd 60 1a 7a bd 6f c7 04 bd
       -0.025191097 -0.043717824 -0.06106031 -0.032416757
0002c0 4b a6 b4 3a 05 0f 7b 3d e7 f7 4e 3d 6a 2d d5 3e
       0.0013782469 0.06129362 0.050529387 0.4163621
0002d0 83 a0 cb bd ec 10 bc 3e 70 40 aa 3e 63 bd f3 3e
       -0.099427246 0.3673166 0.33252287 0.47605428
0002e0 5a 1e 0d 3f 9a 48 1f 3f 91 47 21 3f 97 fb 14 3f
       0.5512444 0.62220156 0.62999827 0.58196396
0002f0 90 42 e8 3e ea c7 bd 3e 34 0a bd 3e d6 8b 90 3e
       0.45363283 0.37066585 0.36921847 0.28231686
000300 45 43 94 3e 62 42 a9 3e ed ea 9c 3e 97 78 83 3e
       0.28957573 0.3305846 0.30647984 0.2567794
000310 2e c3 43 3e eb 7e 8c 3d 56 d4 1f be 02 3e f1 be
       0.19117424 0.06860145 -0.15608343 -0.4711762
000320 5c 91 95 bd bc 8c 7b bd bf 10 25 3e 00 5f 5e 3e
       -0.07303116 -0.06141351 0.1611967 0.21715927
000330 42 05 19 3e 06 7f db 3d 97 14 49 3e e6 77 1f 3e
       0.14943412 0.10717587 0.1963676 0.15573081
000340 ef 68 39 3e 0e d7 33 3e 64 36 02 3e f4 36 a5 3d
       0.18106435 0.17562506 0.12716061 0.08067122
000350 ae 48 44 bd 18 7e 40 3c a0 19 23 3c 3a 3d 05 be
       -0.047920875 0.011748813 0.00995484 -0.13011637
000360 60 8f 51 be 13 52 9e be eb b5 af be d9 da b8 be
       -0.2046485 -0.30921993 -0.3431848 -0.36104468
000370 69 d5 e2 3f be 25 84 3f 59 6e 1a 3f 7f 6a 97 3e
       1.7721378 1.0324018 0.6032463 0.29573438
000380 70 b6 28 bb 37 36 3a be 5b ba 9f be 14 ce 4c be
       -0.0025743507 -0.18184744 -0.31196865 -0.20000488
000390 44 e1 f4 bd 94 a6 e0 bd 86 b0 bf be 62 d6 d2 be
       -0.119570285 -0.10969272 -0.37439364 -0.41179186
0003a0 d4 cc 92 be a8 b1 31 be 47 fd 43 be c7 04 41 be
       -0.28671896 -0.17352927 -0.19139586 -0.18849479
0003b0 83 45 83 be 8a 78 d9 be b8 59 36 bf 9c 87 17 3d
       -0.2563897 -0.42474777 -0.7123065 0.03699456
0003c0 21 f6 fb bc fd fb 04 bd 18 8d 8e 3f 26 17 14 3f
       -0.030757012 -0.032466877 1.1136808 0.5784782
0003d0 6b 00 d9 3e 60 5b 91 3e 32 01 ce 3d bc 1e 3f 3e
       0.4238313 0.28390026 0.10058822 0.18664068
0003e0 1f 52 95 3e 75 02 ed 3e 4a 77 e5 3e 96 f3 be bb
       0.29164216 0.46290937 0.44817573 -0.0058273776
0003f0 29 a8 80 bd e6 c6 90 bd b9 0a 45 be 40 c6 92 be
       -0.06282074 -0.07069187 -0.19242372 -0.28666878
