button_detection_model_all.pt (torch, 568180 bytes, 8 tensors)

conv1.weight f4 [64, 1, 7]
000000 ba f0 55 3e 2a 5c 77 be 6a ee e1 3d 3f 6b fb bd
       0.20892611 -0.24156252 0.11031802 -0.12276315
000010 49 b6 82 be 08 d4 a1 3e 0c 41 80 3e ac ef 37 be
       -0.25529698 0.3160708 0.25049627 -0.17962521
000020 38 9e 0e be 15 56 96 3e 35 2f af bd 03 a2 be 3e
       -0.13927543 0.2936255 -0.08553926 0.3723298
000030 e2 ad ec 3d d1 4a 1c bf a5 67 b4 3e 02 e0 dc 3e
       0.11556603 -0.6105166 0.35235325 0.43139654
000040 8a 5e ad 3e c1 e2 c2 3e 89 aa 0e 3e c2 32 84 3d
       0.3386119 0.38063625 0.13932241 0.06454994
000050 ea 4c f1 3e fe 9f d4 3e 90 ff 4d be 29 68 8a 3e
       0.47128993 0.41528314 -0.2011702 0.27032593
000060 24 6b cd 3e dc 78 78 3e f2 77 22 3e c4 2a d5 bd
       0.40120804 0.24264854 0.15866068 -0.104085475
000070 9a d9 ae be 67 a1 a0 bd 4c c2 d2 3b 31 c3 92 be
       -0.34150392 -0.07843285 0.0064318534 -0.28664544
000080 ad 99 ac be fb f1 99 be 82 40 53 3e ae 33 a4 be
       -0.33710995 -0.3006743 0.20630077 -0.32070678
000090 d2 49 81 3d 53 31 05 3c 98 8b 59 bc aa 05 9f 3e
       0.06312908 0.008129436 -0.013277911 0.3105901
0000a0 52 8c 95 3e e2 54 47 3e 81 13 b2 be 6f 1e aa be
       0.29208618 0.19465974 -0.34780505 -0.33226344
0000b0 36 89 59 be 09 f5 7d 3e f9 95 3e be c7 5a 10 bd
       -0.21243748 0.24800505 -0.18611898 -0.035242822
0000c0 18 fe cc 3e cd 9f bf 3e 37 55 ba be 14 0e 8e 3e
       0.40037608 0.37426606 -0.3639314 0.27745116
0000d0 66 f4 d2 3e 38 6e d2 bd 69 df 80 be 82 5d 56 be
       0.41202086 -0.10274929 -0.25170448 -0.20934108
0000e0 37 ac e1 be 0c 26 8c 3d 20 55 91 bd 7e 05 21 3d
       -0.44076702 0.06843194 -0.070963144 0.03931188
0000f0 f3 08 61 3e 82 3e e9 3d 66 b3 ac bc 2d 5e c3 be
       0.2197607 0.113888755 -0.021081638 -0.38157788
000100 10 9b 12 be b0 55 88 3e 77 4e 29 3d 9b 9b cd 3e
       -0.14316964 0.26627874 0.041334596 0.4015778
000110 66 6e 95 3e 85 79 b5 3e 77 4f 03 bf e0 74 0a 3d
       0.2918579 0.35444275 -0.5129313 0.033802867
000120 3a 20 63 bd 19 fa 65 3e 3a 19 2e bc 10 bc 0d bd
       -0.055450656 0.22458686 -0.010626132 -0.03460318
000130 1c fb 95 be 0a 4f cd be 96 b5 b1 3e 44 aa b3 3e
       -0.29293144 -0.40099365 0.34708852 0.3509084
000140 c0 b4 e3 bd 58 26 12 3d e9 52 01 3f 63 37 ec bd
       -0.1111846 0.0356811 0.50517136 -0.11534002
000150 a6 de 24 3e f5 9a 90 be b2 c7 1c 3d b1 2c 01 be
       0.16100559 -0.28243223 0.03827638 -0.12614705
000160 d8 b6 ce 3d 9f eb c9 3e bf 68 6c 3d e3 3b 43 3f
       0.100934684 0.39437577 0.05771708 0.76263255
000170 68 91 ec bc b0 46 fe 3d 66 4f a9 3d 38 81 69 3e
       -0.028877929 0.12415826 0.08267097 0.228032
000180 37 b9 70 3e 3c 20 be be 3c c0 a2 3e c2 ea 78 3e
       0.23508154 -0.37133968 0.31787288 0.24308303
000190 9b a0 b5 be 36 3d 20 bd 4e 8a e9 3e dc 2f 12 3f
       -0.35474095 -0.039120875 0.4561333 0.5710428
0001a0 45 43 91 3e 51 39 a8 3e 7d d1 7a 3e e7 6c bf bd
       0.28371635 0.3285623 0.24493976 -0.09346943
0001b0 f9 20 51 3e cd de 9a 3c 96 81 fe be 6c d5 16 3f
       0.20422734 0.018905068 -0.4970824 0.58919406
0001c0 25 5a 6e 3e 84 26 79 be 23 66 ad 3e 0a 37 e2 3e
       0.23276575 -0.24331099 0.33866987 0.44182616
0001d0 73 b7 05 3e 95 8d 0d bf 13 ff 2f 3f 43 a5 5d 3e
       0.13058262 -0.5529416 0.6874859 0.21645074
0001e0 9f 89 d5 3e 93 6e 27 3e 21 75 be be d2 01 f3 bd
       0.4170656 0.16350774 -0.37198737 -0.118655816
0001f0 c8 60 7e be c5 03 84 3e 46 2d ce bd 88 e3 82 bd
       -0.24841607 0.25784126 -0.10067229 -0.063910544
000200 8b a1 12 3f 37 6a b8 be 64 b6 d8 3d cb c3 00 bf
       0.57277745 -0.36018535 0.10581663 -0.50298756
000210 a0 94 8a 3e 52 75 dd 3e 2d 79 e5 3d cd 6f c7 3e
       0.27066517 0.4325357 0.11204753 0.38952485
000220 5c 4d d4 3e 07 7e a9 3e 25 c0 42 bd 2e 42 a3 3e
       0.4146527 0.33103964 -0.047546525 0.3188643
000230 a7 9c 19 3e 10 db 85 3d ee af 0c 3f df 88 42 3d
       0.15001164 0.065359235 0.5495595 0.04749381
000240 bb a4 84 3d 77 52 1c bf aa 4b d6 bb 66 83 8a be
       0.06476732 -0.6106333 -0.0065397816 -0.27053374
000250 f1 1b 16 3e d8 60 c6 3e 94 1f ba be 63 5f e4 3e
       0.14659096 0.3874576 -0.36352217 0.44604024
000260 9a 95 0b 3f 3c c4 03 bf 17 25 2e 3e cd d8 c8 3e
       0.5452515 -0.51471305 0.17006336 0.39227906
000270 1e 48 d3 be 54 66 b8 bc ed 34 d3 be 5b 79 d4 3e
       -0.4126596 -0.022509731 -0.41251317 0.41498837
000280 68 0e ea be 6e c6 63 bf a5 70 ab 3d 77 8a fd 3e
       -0.45714116 -0.88974655 0.083710946 0.49519703
000290 33 ca 8b 3e 6e 84 3b bf cc 8c bf be 24 c3 24 bf
       0.27302703 -0.73248947 -0.37412107 -0.6436026
0002a0 3a 2b 97 3d 6a 4b 8d 3e ba 3b ac bd 84 be b1 3e
       0.07381292 0.275966 -0.084098294 0.34715664
0002b0 57 e4 6c be a4 af a4 3e fa 93 c3 be fd af b9 3e
       -0.2313398 0.32165253 -0.38198835 0.3626708
0002c0 4d 29 be be 3c 4c c9 3d 33 60 17 bf 4f 10 94 3e
       -0.37140885 0.09828994 -0.59131163 0.28918692
0002d0 6b 6b 37 3e a9 bf a9 3e a6 32 a8 3d 4d f5 16 3e
       0.1791207 0.33154038 0.082127854 0.14742012
0002e0 e0 4c 00 3d a7 74 49 3e 0f 95 0b 3e c4 76 82 3e
       0.031323314 0.19673406 0.1363108 0.25481236
0002f0 61 41 6f 3e 4c 1c 1a 3d ce 6d 92 3e fb 7c 96 be
       0.23364784 0.037624642 0.285994 -0.29392228
000300 2c cd 56 3e a7 c6 8a 3d 59 e6 0e bf 9a 4c 2f 3d
       0.20976704 0.06776171 -0.5582023 0.042797662
000310 cf 0c e9 3e de 07 db 3e 27 47 16 3f ce dd c7 3e
       0.45517585 0.4277944 0.5870232 0.3903641
000320 ae 09 d5 3e d9 cc b0 3e 5c b6 ae 3e b4 75 2f be
       0.41608948 0.34531286 0.34123504 -0.17134744
000330 b0 15 b2 3d f0 b2 85 3c b9 65 22 3e 48 9b aa 3e
       0.08695543 0.016320676 0.15859117 0.33321595
000340 d3 60 25 3e 8f c1 95 3e 05 b1 1e bf 6d dd e2 bd
       0.16150217 0.29249236 -0.6198886 -0.1107739
000350 91 13 a0 3e d1 21 2e 3e 76 ef 29 3e a8 cf 0d 3e
       0.31264928 0.17005087 0.16595253 0.13848746
000360 d8 61 c1 3c 6a 88 16 3e 33 97 ee bd 61 cd 58 be
       0.023606226 0.14700475 -0.11649933 -0.21172096
000370 69 ce 2a be 78 ee 90 be d8 24 d4 be 5f cf b9 3e
       -0.16680302 -0.28306937 -0.4143436 0.36291024
000380 14 33 1d bd 5e c6 94 be 92 8f bc 3e be 08 c1 3e
       -0.03837879 -0.29057592 0.36828285 0.37701982
000390 f6 98 3f 3d 23 97 e8 bc c0 ec 18 3f f2 d7 3b 3e
       0.046776734 -0.02839238 0.5973625 0.18344095
0003a0 3b d8 bd 3d 02 94 43 3e 08 5e 9c 3d 2d 45 8e 3d
       0.09269758 0.19099429 0.076351225 0.06946788
0003b0 26 1e ac be 49 b7 f1 3e a9 14 bf be e8 71 13 be
       -0.3361675 0.47210148 -0.3732045 -0.1439892
0003c0 6a 55 d9 3d a0 ce 52 bd fd 27 d6 3d b5 bc 86 3e
       0.106119946 -0.051466584 0.10456846 0.26315847
0003d0 e0 9f 69 be 8b 36 5b 3f 1a bc d5 be 10 c1 4a 3d
       -0.22814894 0.856301 -0.41745073 0.049500525
0003e0 2f 3d 6b be 7c 84 32 3e a8 b8 79 3e bf c5 a4 be
       -0.22972558 0.17433351 0.24386847 -0.32182118
0003f0 23 22 99 be ce 28 4e be e3 8a 41 be d5 36 e0 3e
       -0.29908857 -0.20132753 -0.18900637 0.43791834

conv1.bias f4 [64]
000000 b3 65 07 bf ed 26 bd be 87 58 0c 3d fd 81 2f 3e
       -0.52889556 -0.3694376 0.034264114 0.1713943
000010 c5 3f c2 be 97 07 7c be bc f2 05 bf e1 03 11 bf
       -0.37939277 -0.2461227 -0.5232351 -0.56646544
000020 2e 0a d4 be 64 b5 08 be 99 1a c9 be 9e 3f 5a be
       -0.41414016 -0.13350445 -0.39278105 -0.2131333
000030 93 e8 34 3e 66 47 f1 bc 59 38 36 be 18 ce 39 bc
       0.17666845 -0.02945299 -0.17794932 -0.0113406405
000040 a2 a7 e0 bc 52 ed 92 be 84 29 8d be db 15 78 3e
       -0.027423684 -0.28696686 -0.27570736 0.24227087
000050 ef 35 0c bd 98 9e ba be 0c 28 f9 be 7b 6b f4 be
       -0.034231123 -0.36449122 -0.48663366 -0.4773825
000060 1e a8 0e be f8 7f 5c be 08 ab 84 3e f7 20 be be
       -0.13931319 -0.21533191 0.25911736 -0.37134525
000070 42 c5 da be 0c 30 13 3e af 45 ba bc dd 69 bb 3e
       -0.4272862 0.14373797 -0.022738306 0.36604205
000080 02 b3 3f 3d c5 06 3d bd 19 e1 28 3e 40 df c1 be
       0.046801575 -0.046149034 0.16492118 -0.3786564
000090 ec 40 00 bf 79 10 10 bf 8a 07 f2 be 76 a4 be be
       -0.5009906 -0.56275135 -0.47271377 -0.3723485
0000a0 44 97 34 be a8 8a a9 be fd e4 14 bf 54 7a aa be
       -0.17635828 -0.331136 -0.5816191 -0.33296454
0000b0 73 b9 03 3e 24 62 f2 be ef f5 c8 be 7f 5a d2 bd
       0.12863712 -0.473405 -0.39250132 -0.10271167
0000c0 0d 48 ce bd 34 13 93 be 33 a3 11 3e 59 42 66 bd
       -0.10072336 -0.28725588 0.14222412 -0.056215618
0000d0 df f9 c4 be 69 37 0c bf 37 c3 58 bd a7 c9 be bd
       -0.38471887 -0.5477205 -0.052920546 -0.09315806
0000e0 e5 45 45 3e d4 63 c5 be 9c b4 dc be 55 98 a5 3d
       0.19264944 -0.38552725 -0.43106544 0.08085696
0000f0 9b fa 14 bf 14 4e 3f bc c3 a9 69 bc c1 a9 ac be
       -0.58194894 -0.01167633 -0.014261666 -0.33723262

conv2.weight f4 [128, 64, 5]
000000 f0 1b 9d bd 45 e3 bd bd f5 15 d0 bd 54 d3 e3 bd
       -0.07671344 -0.09271864 -0.10160438 -0.11124292
000010 a2 0d 02 bd a1 bf 8d bd 02 96 f6 bd 1b 7c 75 bd
       -0.031751283 -0.06921316 -0.120403305 -0.05993281
000020 52 af 94 bd d8 a7 78 bd 63 95 48 bd b8 14 af bd
       -0.07260002 -0.060706943 -0.04897059 -0.08548874
000030 ef 9a d4 bd 8d b0 af bd 62 24 02 be fd d8 cf bc
       -0.10381114 -0.08578596 -0.12709191 -0.025372023
000040 ba db 95 bc 6b 4e 7f bd 27 61 a4 bd 43 a6 ee bd
       -0.01829325 -0.062330645 -0.08026343 -0.11652806
000050 30 88 65 bd 16 f8 59 bd 8f e8 86 bd 91 7c ca bc
       -0.05603808 -0.05321511 -0.06587326 -0.024717601
000060 67 5b aa bd 7e 5f ce bd 06 a6 d0 bd df ea dd bd
       -0.08318215 -0.100768074 -0.101879165 -0.10835814
000070 b8 78 84 bd 01 76 7a bd a4 31 b3 bd a1 23 90 bd
       -0.06468338 -0.061147694 -0.087497026 -0.07038046
000080 8e 15 a8 bd 16 cf bb bb 96 14 5f bd ca 06 6c bd
       -0.08207236 -0.0057314737 -0.05446299 -0.057623662
000090 ad fe 0c bd 67 99 3d bc f4 45 9a bc b7 37 44 bd
       -0.034422565 -0.0115722185 -0.018832184 -0.047904696
0000a0 27 91 fc bd 62 db 94 bd 94 02 e7 bd 6a b0 ba bd
       -0.12332373 -0.072684065 -0.112797886 -0.091156796
0000b0 70 a0 92 bc 46 ee 69 bd 0e d3 7f bd 4f 0b cb bd
       -0.017898768 -0.057112 -0.062457137 -0.09914266
0000c0 57 36 c0 bd 86 5b c6 bd 00 8a cd bd 49 12 14 bc
       -0.093853645 -0.096854255 -0.10036087 -0.009037563
0000d0 9c 44 41 bc bd 51 64 bb 3a 44 39 bd 66 c2 a0 bd
       -0.011796143 -0.003483876 -0.04523108 -0.078495786
0000e0 39 50 d3 bc 76 44 cc bd 62 3c 02 be ba fb ee bd
       -0.02579509 -0.099739954 -0.12718347 -0.11669107
0000f0 8a e5 44 bd 93 34 ee bd 67 b0 3a bc 5d 5d b3 bd
       -0.048070468 -0.116311215 -0.011394597 -0.08758042
000100 00 45 ae bd f4 1e ea bd d5 aa a3 bd 5c 28 d0 bd
       -0.085092545 -0.11431685 -0.07991568 -0.10163948
000110 c2 89 c9 bd 46 0d 36 bd 78 00 05 bd 92 64 0e be
       -0.09840728 -0.044446252 -0.03247115 -0.13905552
000120 82 29 fd bc e0 e5 da bd 60 67 f2 bd 52 8c f3 bd
       -0.030903582 -0.106883764 -0.118361235 -0.11891998
000130 8d 61 e6 bd a7 37 ac bd 4f 37 da bc 60 84 b6 bd
       -0.11249075 -0.08409052 -0.026637701 -0.08911967
000140 0c f0 dc bc 1b 13 af bd 9c e5 0f bd 31 33 04 bd
       -0.026969932 -0.08548566 -0.035131082 -0.032275382
000150 ff 23 31 bd 1c fb f9 bc f6 a9 b3 bd 68 45 8c bd
       -0.04324722 -0.030515246 -0.08772652 -0.06849176
000160 9e 6c 85 bd 17 29 15 bd 78 1c ec bd ff 85 e3 bd
       -0.06514858 -0.03641614 -0.115288675 -0.11109542
000170 5b d7 df bc 19 54 97 bd 99 82 d0 bd ad e6 7b bd
       -0.02732437 -0.07389087 -0.101811595 -0.061499286
000180 4e 3a 91 bd b9 5d 82 bd 0b 80 e1 bd ca 9f de bd
       -0.07091199 -0.063655324 -0.110107504 -0.10870321
000190 11 fe 68 bd 56 59 6f bd 7b 14 3a bd d9 a8 19 bd
       -0.05688292 -0.058434807 -0.045429688 -0.03751454
0001a0 0b 20 5f bc b2 36 7a bd d9 bc c2 bd 90 6f 84 bd
       -0.0136184795 -0.061087318 -0.09508676 -0.06466591
0001b0 55 72 ba bd 83 45 01 bd 0d 8b 45 bb b0 d7 81 3a
       -0.09103838 -0.031560432 -0.0030142695 0.0009906199
0001c0 d5 24 33 bd 3d ba f6 bd 9b f7 8d bc a8 c9 4f bd
       -0.043736298 -0.12047241 -0.017329982 -0.050729424
0001d0 06 a7 8f bd ff 3f a1 bd f3 98 b5 bd 32 ce 1d bd
       -0.07014279 -0.078735344 -0.088670634 -0.03852672
0001e0 c5 c2 7c bc 16 ac b8 bd 1a b9 30 3b 3e 81 99 bb
       -0.015427296 -0.09017198 0.0026965798 -0.0046845963
0001f0 17 9b 16 bd cc f5 03 bd b2 ee db bd 4b 37 95 bd
       -0.036769 -0.032216832 -0.10738887 -0.07285937
000200 b7 8b 1c bd 4d 2d 74 bd 4a 0e 3a bd e9 e8 fd bd
       -0.03821918 -0.059613515 -0.045423783 -0.1239794
000210 26 8d 1a bd 62 84 ec bd 28 75 a8 bd 89 ef e9 bd
       -0.037732266 -0.115486875 -0.08225471 -0.11422641
000220 87 2a 73 bd f3 91 94 bc 67 fb ce bd d2 85 89 bd
       -0.05936673 -0.018136 -0.10106545 -0.06714977
000230 50 a0 08 be e6 cc d2 bd a7 d1 5b bd 20 cf b1 bd
       -0.13342404 -0.102929875 -0.053666737 -0.08682084
000240 d8 4d d2 bd 7a 72 1f bd 66 42 1e bd fc f5 82 bc
       -0.10268754 -0.038927533 -0.03863754 -0.015986435
000250 5f 99 ca bd 57 f0 cf bd cc 47 85 bd 34 1f ca bd
       -0.098925345 -0.10153263 -0.06507835 -0.09869233
000260 0c 6c bc bd 2d 6e 90 bd 53 b3 9f bd 46 1d 61 bd
       -0.09200296 -0.07052264 -0.07797875 -0.054959558
000270 bf 12 df bc 57 f6 b1 3b 5c 8b 56 bd 00 3f 7e bd
       -0.027230619 0.0054309773 -0.052378997 -0.0620718
000280 83 68 40 bd b2 4e 10 bd 38 75 e1 bd 69 d8 71 bd
       -0.04697467 -0.0352313 -0.11008686 -0.059044275
000290 52 2c 01 bd d2 b8 da bc dc 76 93 bd c7 dd cf bd
       -0.031536408 -0.026699457 -0.07200405 -0.101497225
0002a0 e6 fb 91 bd 79 e2 0b bd b1 b0 04 bd 75 60 17 3c
       -0.07128124 -0.034151528 -0.03239507 0.009239306
0002b0 e4 11 e5 3b 26 61 17 bd 46 71 13 bd fc df a0 bd
       0.006990658 -0.036957882 -0.035996698 -0.07855222
0002c0 7d 2c 6d bc 35 97 8f bd e3 3e cb bd a9 4b 89 bd
       -0.014475939 -0.07011262 -0.09924104 -0.06703884
0002d0 e9 b3 ad bd 64 a0 9d bd 81 91 8c bd 8d 1c 0d bd
       -0.08481581 -0.07696608 -0.0686369 -0.034451056
0002e0 79 6f 10 3c 83 c3 c2 bd 97 66 dd bd 87 95 c2 bd
       0.00881564 -0.09509947 -0.10810583 -0.09501176
0002f0 ef 46 67 bd 3d fa 3e bd f8 c3 f7 bd 0e 48 5f bd
       -0.056464132 -0.046625365 -0.12097925 -0.054512076
000300 f7 9d f2 bd 18 da f1 bc 40 d3 71 bc c5 f5 f5 bd
       -0.11846536 -0.02952294 -0.014759839 -0.120097674
000310 56 c6 b6 bd cc 4f 4f bc 41 70 ac bd 1e e8 a2 bd
       -0.08924548 -0.012653302 -0.08419848 -0.07954429
000320 ce 4a cb bd 8b 3f 9d bd 8a 99 c3 bc b2 89 ac bd
       -0.09926377 -0.076781355 -0.023876924 -0.08424701
000330 6c d3 a3 bc b1 2b 98 bd 8e f5 38 bd 8a 9c fa bc
       -0.019998275 -0.074302085 -0.045156054 -0.030592222
000340 ce ae 45 bd 8b 57 0a bd 86 34 9a bd f9 49 02 bd
       -0.04826241 -0.033774894 -0.07529549 -0.031808827
000350 7b 11 84 bd 5c 92 33 bd b7 49 1b 3b 78 47 de bd
       -0.06448647 -0.04384075 0.002369506 -0.10853475
000360 6a 9a 65 bb d9 e7 28 3c 66 12 31 bc 2c 03 7c bc
       -0.0035034665 0.010309183 -0.010807609 -0.015381616
000370 92 ed 8e bd 8b 6b d2 bd 8a 74 89 bd 93 1a f1 bd
       -0.06978907 -0.102744184 -0.06711681 -0.11772647
000380 b1 24 c4 bc ec cc d5 bc ef fa 8a bd 45 e0 b9 bb
       -0.023943277 -0.02609869 -0.06786143 -0.005672487
000390 12 6c 27 bd da 9f bd bd e9 4c 8d bd 68 d7 02 bd
       -0.04087455 -0.09259005 -0.06899435 -0.03194371
0003a0 af 51 92 bc 1b 9a 42 bc 22 92 0e bd 52 89 35 bd
       -0.017861215 -0.011877562 -0.03480733 -0.044320412
0003b0 b1 e1 7a bd de db a2 bd 1e 6e f6 bd d1 b0 eb bd
       -0.061250392 -0.079520926 -0.12032722 -0.115083344
0003c0 df f0 15 bd ec c9 c5 bd d1 13 0b bd 39 e6 ea bd
       -0.036606666 -0.09657654 -0.033954445 -0.11469693
0003d0 c7 3a 40 bd 62 58 aa bd 9f 2c c9 bd d8 a8 90 3b
       -0.046931054 -0.08317639 -0.09822964 0.004414659
0003e0 53 50 a3 bc 26 69 b0 3b fb de 53 bd f9 1f a5 bc
       -0.019935763 0.0053836284 -0.051726323 -0.020156847
0003f0 a3 99 eb bc 7c f2 a0 bd d1 bb d3 bd e0 b5 ec bc
       -0.028759783 -0.0785875 -0.103385575 -0.028895319

conv2.bias f4 [128]
000000 d5 7a 8f bc cb c0 bc bd bb 57 51 bd b0 bc 6f bd
       -0.017514626 -0.0921646 -0.051109057 -0.058529556
000010 ff a6 83 bd c3 19 4d bd 1e 2c 48 bc 77 3e c4 bd
       -0.06428336 -0.050073396 -0.01221755 -0.09582227
000020 43 49 71 bd 2a a9 78 bd ee 78 b2 bc ab ed 14 bd
       -0.05890776 -0.060708202 -0.02178618 -0.03635947
000030 40 65 a5 bc d5 91 03 bd 7a f5 97 bc e0 f0 ac bd
       -0.020189881 -0.0321215 -0.01854967 -0.08444381
000040 67 ca 40 bd ae e0 b8 bd c0 cb aa bd bf 66 85 bb
       -0.047068026 -0.09027229 -0.083396435 -0.004071086
000050 d7 4b f4 bc 26 19 ac bd cd 36 3a bd 33 3b 9b bd
       -0.02982132 -0.08403234 -0.04546242 -0.07579651
000060 45 d6 38 bd 67 25 ae bd 37 5d f3 bc 42 7c 12 bd
       -0.04512622 -0.08503228 -0.029707534 -0.035763033
000070 bf f1 e7 bc 77 0e 41 bd 09 b1 cf 3b c6 a9 29 bd
       -0.028313516 -0.047132935 0.006338243 -0.041421674
000080 59 cc 3a bb 9c 88 c1 bd d0 b6 99 bc 72 17 8a bd
       -0.0028503148 -0.09449884 -0.01876393 -0.06742753
000090 0c 64 e2 bd 42 0d 7a bb 2d 2e d4 bd 80 48 91 3b
       -0.11054239 -0.0038154875 -0.1036037 0.0044336915
0000a0 44 e1 4b bd eb 5e 72 bd c9 35 ac bd 5d e0 eb bd
       -0.049775377 -0.059172552 -0.08408696 -0.11517403
0000b0 12 92 a6 bd 23 de 24 bd 01 d2 09 bd 8a 97 e0 bc
       -0.081333295 -0.04025091 -0.03364754 -0.02741601
0000c0 a0 24 11 bd 60 d2 45 bc c8 6c 80 bc 2f 3f 7e bd
       -0.03543532 -0.012074083 -0.015676871 -0.062071975
0000d0 80 d9 a9 bd a7 16 90 bd cb 8a 28 b9 f5 11 97 bd
       -0.08293438 -0.070355706 -0.00016073433 -0.07376472
0000e0 64 e0 24 bd c3 76 e0 bc 2e 55 df 3b 40 56 b4 bd
       -0.040253058 -0.02740038 0.006815574 -0.088055134
0000f0 2c 86 ac bd 36 81 9c bd 1a fd be bb 68 2b 22 bd
       -0.08424029 -0.076418325 -0.005828512 -0.039592177
000100 aa ff 14 bd b9 f3 6e bd 52 a1 28 bd f1 e0 c2 bb
       -0.036376633 -0.0583379 -0.041169472 -0.0059472253
000110 11 3e 7e bd 44 b9 99 bd b3 b5 5e bd 6d 9b d2 bd
       -0.06207091 -0.0750604 -0.0543725 -0.10283551
000120 c1 bb b7 bd 7d dc 8c bd e9 e2 36 bd 51 b0 3e bd
       -0.08971358 -0.06877992 -0.044649992 -0.046554867
000130 e3 f9 9f bd 19 7c a9 bd 47 7f 8d bd 2c d5 d5 bc
       -0.07811334 -0.08275623 -0.06909042 -0.026102625
000140 2a d5 5c bd 28 57 b4 bd 8a d7 32 ba 11 b8 91 bd
       -0.053914227 -0.08805686 -0.0006822279 -0.07115186
000150 65 ce 8c bd 8a 52 05 bd 7f 1e 0b be 1c 42 d5 bd
       -0.06875304 -0.03254942 -0.13585852 -0.10413
000160 9d 2a 36 bd 46 9e 3a bd c1 49 3c bd 24 43 1d bd
       -0.044474233 -0.045561098 -0.045968775 -0.03839411
000170 f5 17 04 3c d6 e0 ba bd b9 75 23 bd b1 51 85 bc
       0.008062352 -0.09124915 -0.03990719 -0.016274305
000180 31 82 ce bd 3f e6 cc bd 02 de 4f bd 09 ef 6c bd
       -0.10083426 -0.100048535 -0.050748833 -0.05784515
000190 2b cc af bc de cb 2b bd 19 cc 9e bd 92 63 96 bd
       -0.02145966 -0.04194247 -0.07753772 -0.0734321
0001a0 c4 2d e8 ba d6 50 86 bd 70 9b ac bd 5e 7a f2 bd
       -0.0017713835 -0.06558387 -0.08428085 -0.11839746
0001b0 97 cc 07 bd 01 04 86 bd 49 6b 35 bd fb 36 9f bc
       -0.033154096 -0.065437324 -0.04429177 -0.019435396
0001c0 be 42 7b bd 02 cb b2 3b f6 f6 38 bd 6b 82 8e bd
       -0.061342947 0.0054563293 -0.045157395 -0.06958469
0001d0 ca 90 80 3e 8b d4 65 bd 3c ba ac bd f3 94 d1 bd
       0.25110465 -0.0561109 -0.08433959 -0.10233488
0001e0 b2 be c6 bd ba 5e aa bc 70 77 0f be 50 b4 a2 bd
       -0.09704341 -0.020797122 -0.14010406 -0.07944548
0001f0 98 0f 8d 3b 22 5f 0d bd 28 d1 ae bd 11 3f 4c bd
       0.0043048374 -0.034514554 -0.08535987 -0.049864832

conv3.weight f4 [256, 128, 3]
000000 8c 81 16 bc 48 93 d1 bd d8 80 5f bd 3c de 8b bd
       -0.00918616 -0.1023317 -0.054566234 -0.06829497
000010 25 3d d9 bd 9a 45 e1 bd 94 0d 60 bd db 0d bb bd
       -0.106073655 -0.109996036 -0.05470045 -0.09133502
000020 a5 83 d1 bd 4a 52 b4 bc d1 0b 94 bd f8 64 d6 bd
       -0.10230187 -0.022011895 -0.07228816 -0.10468477
000030 13 00 2f bd 63 ab 83 bd 3a e4 bc bd dc 20 ae bc
       -0.04272468 -0.06429174 -0.09223218 -0.021255903
000040 b8 94 d8 bd 59 08 7f bd 25 89 ac bd 2c 61 81 3d
       -0.10575241 -0.06226382 -0.08424596 0.06317362
000050 08 c1 24 bd 3f 13 a1 bc 2a 8b 69 3d 56 f3 d0 bc
       -0.04022315 -0.019662498 0.057017483 -0.025506657
000060 36 34 b2 bd 8f 12 cc bd 0a 0f 1f bd 5c 42 9d bd
       -0.08701365 -0.09964477 -0.0388327 -0.07678673
000070 1b 28 5d bd 32 b0 bb bc 45 2b ca bd 0f 43 49 bd
       -0.053993326 -0.022911165 -0.09871534 -0.049136218
000080 20 6b ad bd 9a f9 46 bd 6d 6e e9 bc 63 52 d6 bd
       -0.08467698 -0.048577882 -0.028495038 -0.10464933
000090 2d 57 17 bd 9a 85 52 bd 77 da be bc 2a 5c 9b bd
       -0.03694837 -0.051396944 -0.023297532 -0.07585938
0000a0 c1 24 56 bd 67 4c b2 bd ee 20 8f bc 2d f4 24 bc
       -0.052281145 -0.08705979 -0.017471757 -0.010067982
0000b0 06 7d 83 bc 5e 33 e3 bd 2e d3 94 bd 3a 54 cc 3d
       -0.016050827 -0.11093782 -0.07266842 0.099770024
0000c0 7f d7 d0 bd 1f 07 01 bd c4 3b a3 bd 07 af 41 bd
       -0.101973526 -0.03150093 -0.07970384 -0.04728606
0000d0 67 12 78 bd a2 1c 6f 3d 62 f9 2a bd b9 c3 bf bc
       -0.060564425 0.058376916 -0.041741736 -0.023408758
0000e0 22 cf ce bd 3b 54 1a bd 73 f3 a5 bd 9a 73 a3 bd
       -0.10098101 -0.037677985 -0.08103075 -0.079810336
0000f0 73 48 89 bd e5 17 d5 3d c3 50 02 bd a9 86 53 bd
       -0.06703272 0.10404948 -0.0318153 -0.051642094
000100 f7 2d 92 bd dd 5f 0f bd e9 e5 07 bd f8 cb 94 bd
       -0.07137673 -0.03500353 -0.033178244 -0.072654665
000110 c2 ea f7 bc ec 9d d0 bc 1f 84 c2 bd 26 b9 a9 bd
       -0.030263308 -0.025465928 -0.09497856 -0.082872674
000120 27 36 83 bd 43 64 df bd f9 35 b7 bd 6e 01 d5 bc
       -0.06406813 -0.10907795 -0.08945841 -0.026001658
000130 cc 86 43 bd 8a e3 ad bd 8d 13 1b bc b7 18 8c bd
       -0.047735974 -0.08490665 -0.0094651105 -0.068406515
000140 35 d1 cc 3d eb aa 9d bd 5c 6d f1 bc 7d ca 96 bc
       0.100008406 -0.07698616 -0.029471092 -0.0184071
000150 85 95 40 bd 01 fa 0c bd da 0d 17 bd f0 a7 1f bd
       -0.047017593 -0.03441811 -0.036878444 -0.038978517
000160 27 bf 28 3c 70 da 35 bc d8 73 53 bc dd 46 9b bd
       0.0102994805 -0.011099443 -0.012906037 -0.075818755
000170 3d 24 98 bd c6 2a 1c bd d7 75 83 3d 23 7a 99 bc
       -0.07428787 -0.03812673 0.064189605 -0.018734997
000180 ca 74 d1 bc 55 8a 4f bc 96 25 68 bc ec 14 9c bd
       -0.025568385 -0.012667258 -0.014169117 -0.07621178
000190 e0 96 90 bd dc a2 5a bd 10 9e b6 bc 40 d8 54 3d
       -0.07060027 -0.05337797 -0.022292167 0.051964045
0001a0 b6 a4 82 bc 8d 47 cb bc 85 07 7f bd 78 a1 65 bd
       -0.01594768 -0.024814392 -0.06226303 -0.05606219
0001b0 bd aa 70 bd ec da a1 bd 89 9b a3 bd 38 02 b6 bc
       -0.05875658 -0.07903084 -0.0798865 -0.022217855
0001c0 50 b5 85 bd 23 b5 e0 bd 8a 50 dd bd c7 25 8d bd
       -0.06528723 -0.10972049 -0.10806377 -0.06891971
0001d0 5a e0 bb bc f1 21 e1 bd 1c 97 c2 bd 0c 7e b9 bd
       -0.022934128 -0.10992802 -0.09501478 -0.09057245
0001e0 20 91 a3 bd e3 79 db bd cb 31 c4 bd af 08 76 3e
       -0.07986665 -0.107166074 -0.0957981 0.2402675
0001f0 39 42 a1 3e 6e 29 5d 3e f0 84 72 bd ec 63 6e bd
       0.31495836 0.21597835 -0.05920881 -0.05820076
000200 13 4d 71 bd 44 15 1a 3d 8e f3 d1 3d 26 c2 a0 bd
       -0.058911394 0.037617937 0.102515325 -0.07849531
000210 b6 7d 80 bd 0a 24 8b bc 09 2a 1f bd ab 61 c2 bd
       -0.062739775 -0.016984958 -0.038858447 -0.09491285
000220 22 cb 00 bd 86 fc 12 bd bd d8 ba bd a0 61 da bd
       -0.031443723 -0.035885356 -0.09123371 -0.10663152
000230 e1 83 4d bc 12 81 c2 bd 74 b5 74 3d ad 45 58 bc
       -0.012543649 -0.094972745 0.05974336 -0.013200206
000240 82 68 93 bd 6d 92 aa bc b8 0e 9d bc 18 7c 9d bd
       -0.07197668 -0.020821774 -0.019172058 -0.07689685
000250 6a 82 56 bd e9 03 e1 bd 77 06 49 bd 0b 3a 28 bd
       -0.052370466 -0.10987074 -0.04907843 -0.04107098
000260 fa 08 8f bd 11 8d 25 bd 2b eb 77 bd 7f f0 1a 3c
       -0.06984134 -0.040417735 -0.060527008 0.009456753
000270 a3 f1 9a bd f0 6a 3c bd a9 b7 9f bc be 51 b2 bd
       -0.0756562 -0.04600042 -0.019496756 -0.08706997
000280 84 fa aa bd 0d 48 5a bc 8e e1 39 bd 00 d1 1a bd
       -0.08348563 -0.013322842 -0.04538112 -0.037796974
000290 fc 3b d0 bd ed 69 c7 bd 74 14 cc bc 40 33 b2 bd
       -0.10167691 -0.097370006 -0.024912097 -0.087011814
0002a0 f4 37 80 bd 19 ac ba bc 98 1b 2a bd 0e 52 bd bd
       -0.06260672 -0.02278714 -0.04153022 -0.09244166
0002b0 97 3f e1 bd d0 dc 7d bd 69 fc c1 bd fd fd 15 bc
       -0.10998457 -0.06197816 -0.094719715 -0.009154794
0002c0 a9 0d c5 bc 96 c0 b8 bd 7b 6f 43 bd ce eb b6 bd
       -0.024054365 -0.09021108 -0.047713738 -0.08931695
0002d0 26 06 67 bc cf 0b df 3c 72 87 67 bd f7 f6 d3 bc
       -0.014100587 0.02722731 -0.056525655 -0.025874598
0002e0 4c 7e 10 bd 52 c4 51 bd 24 b4 c8 bd ca b2 c5 bc
       -0.035276696 -0.051212616 -0.09799984 -0.024133105
0002f0 b1 13 d4 bd 17 b0 97 bd f7 02 c8 bd b9 8b 6b bc
       -0.10355318 -0.07406633 -0.097661905 -0.014376574
000300 af 12 30 bd 79 60 5e bc f2 3e 66 bd ac 08 7a bd
       -0.042986568 -0.013572806 -0.056212373 -0.061043426
000310 15 53 ba bd 02 c3 0b bd 20 dc 94 bd 55 bd 58 bd
       -0.09097878 -0.03412152 -0.07268548 -0.052914936
000320 ba 27 33 bc 7c 49 c0 bd d6 17 c6 bd 4d 0f 86 bd
       -0.0109347645 -0.09389016 -0.09672515 -0.06545887
000330 3d fa d5 bd 7a dd d3 bd ed 04 7c bd 3b a9 29 bd
       -0.1044812 -0.10344978 -0.061528135 -0.041421156
000340 ea 43 d6 bd c5 32 db bd aa a0 22 bd 7a 4c c6 bd
       -0.10462172 -0.10703043 -0.039704002 -0.096825555
000350 12 b6 e1 bc ae 65 f5 bc 84 91 bd bd 06 b0 87 bc
       -0.027552638 -0.029955711 -0.092562705 -0.016563427
000360 00 91 88 bc 9e 59 88 bd b3 d5 83 bc 1b a1 64 bd
       -0.016670704 -0.06657718 -0.01609311 -0.055817705
000370 35 55 f3 bc 31 c3 b9 bc 34 02 9e 3c bb b7 b4 bc
       -0.029703716 -0.022676082 0.01928816 -0.022060266
000380 74 e8 a8 bc 00 93 ba bd 78 0a e2 bd 2a a8 97 bd
       -0.020618655 -0.09110069 -0.11037153 -0.074051216
000390 5c 82 86 bc f0 64 87 3d c0 d0 c0 bd 85 30 88 bd
       -0.016419582 0.06611049 -0.09414816 -0.06649879
0003a0 64 22 4d bd d8 2e 0f 3d a8 d9 5e bd d4 f5 c1 bc
       -0.050081626 0.034956783 -0.054406792 -0.02367679
0003b0 b1 ac de 3d a8 bc 27 bd 97 4c b0 bd d7 73 d0 bd
       0.10872782 -0.0409514 -0.08608358 -0.10178345
0003c0 00 f7 9f bd 97 f8 d2 bd 49 9e 08 bd 01 c6 a0 bd
       -0.078107834 -0.10301321 -0.033354077 -0.07850266
0003d0 d1 c8 cb 3d e5 67 9b 3d bf 92 b6 bd e1 c1 9a bd
       0.09950412 0.07588176 -0.08914708 -0.07556511
0003e0 c0 08 e2 bd f2 17 4a bd 05 d0 b1 bd 39 07 c9 bc
       -0.11036825 -0.049339242 -0.08682255 -0.024539577
0003f0 d1 57 50 bd 0f 07 91 bc 07 ce 49 bd ed 8e d1 bd
       -0.050865 -0.017703561 -0.04926875 -0.10232339

conv3.bias f4 [256]
000000 5c 73 87 bd 31 df 99 bd 12 c9 e2 bd fc 2f f2 bd
       -0.066138 -0.075132735 -0.11073507 -0.118255585
000010 71 e9 1c be 8d 0b a8 bd 9d 87 0d bd 3b 8c 14 bd
       -0.15323426 -0.08205328 -0.03455316 -0.036266547
000020 49 41 00 3f 4b 98 c8 bd b6 1d 5c 3d c3 13 86 be
       0.5009962 -0.097946726 0.053739272 -0.26186952
000030 81 f5 e1 3e f8 cb 91 bd 7d 7d ef 3e bc 04 06 be
       0.44132617 -0.07118982 0.46775427 -0.13087744
000040 8f b3 26 be 7d 31 ca bd 4f 69 0d bd 0d 04 aa bd
       -0.16279434 -0.098727204 -0.03452426 -0.08301554
000050 76 a5 66 bd 92 6e a8 bc b2 4c c0 bc 2b 96 e3 bc
       -0.05631014 -0.020560537 -0.023474071 -0.027781567
000060 25 69 94 bd cc 0b 45 3e 68 42 90 bd 50 4d 83 bd
       -0.07246617 0.19242781 -0.07043916 -0.064112306
000070 4c 2c 0d be 35 7d b2 bd e6 ae 18 be 8c c4 10 be
       -0.13786429 -0.087152876 -0.14910468 -0.14137477
000080 6c 40 da bd 21 70 9c bd 8f 79 66 bc 53 ef 4e 3e
       -0.10656819 -0.076385744 -0.014067068 0.20208482
000090 82 05 b6 3e 7c 17 ad bd e2 01 e0 bd fa 4a f4 bd
       0.35551077 -0.08451745 -0.10937859 -0.11928363
0000a0 60 4f 02 be 16 ec 94 bd 2c 2a 16 be c1 0e 0e be
       -0.12725592 -0.07271592 -0.14664525 -0.13872816
0000b0 90 65 bf bd 65 85 ab bd 8d 69 93 bd 47 7e 0e be
       -0.093455434 -0.08375052 -0.071978666 -0.13915358
0000c0 a3 84 0e bd a4 17 eb bd 0d d6 e4 bc de 34 d2 bc
       -0.03479446 -0.114791185 -0.027934099 -0.025659975
0000d0 2b 57 91 bc 6b ce d8 bc ef 61 03 be ec c2 ed bc
       -0.01774176 -0.026465615 -0.12830327 -0.02902361
0000e0 e9 a2 a8 bc bc bd fb bd 90 1f 25 be 27 0a e8 bd
       -0.020585494 -0.12292048 -0.16125321 -0.113300614
0000f0 e4 e1 cd bd 95 e6 44 bd b0 d0 cb bd 65 72 76 bd
       -0.10052851 -0.048071463 -0.09951913 -0.06016769
000100 01 f0 08 be 0b ab 4c bd fb bc 46 bd 14 f4 06 be
       -0.13372804 -0.049967807 -0.04852007 -0.13179046
000110 6a e8 60 bd 84 77 68 bc d1 78 0d be e6 8e 90 3e
       -0.054909147 -0.014188651 -0.13815619 0.28234023
000120 c9 d3 b0 bd 79 b4 ad bd b6 65 53 bd 1b ef 1a bc
       -0.08634145 -0.08481688 -0.05161067 -0.009456421
000130 9d 15 02 be ae ba c0 bd e7 df ef bb db f4 50 bd
       -0.12703557 -0.09410606 -0.0073203924 -0.051014762
000140 e5 e3 64 bd fc 89 72 3e ff b2 62 bd 63 19 da bc
       -0.0558814 0.2368545 -0.055346485 -0.026623433
000150 31 3e c1 bd 23 56 47 bd 80 49 54 bd 78 cb 91 bd
       -0.0943569 -0.04866613 -0.051827908 -0.07118887
000160 f0 c5 24 3e 1d df e3 bd 4e 82 25 be b5 5a 7d bd
       0.16091132 -0.1112654 -0.16162989 -0.061854083
000170 fa c8 bf bd 7d 46 f5 bd 9c ea e8 bd 38 06 93 bd
       -0.09364505 -0.11976335 -0.11372873 -0.071789205
000180 4d 68 f1 bd fc 95 36 bc 10 eb 3c be 02 ee 51 bd
       -0.11787472 -0.0111441575 -0.18449044 -0.051252373
000190 62 33 94 bd 45 e3 1e bd c8 f0 ef bd 7f d4 0a be
       -0.07236363 -0.03879096 -0.11715847 -0.13557623
0001a0 34 fa 3b be 7d 79 30 bc 28 a5 9c bd 11 02 68 bd
       -0.18357164 -0.010771153 -0.076486886 -0.056642596
0001b0 17 af 6d bd 6f b1 05 bd 33 c7 97 bc 02 70 8c bd
       -0.058028307 -0.032639917 -0.018527603 -0.06857301
0001c0 9c a6 a8 bc 53 ec c3 3e d3 86 a8 bc 1c 56 3e bd
       -0.020587258 0.3826624 -0.020572102 -0.04646884
0001d0 8c 84 d2 bb d0 ce 85 3e 84 d6 f9 bd 57 63 8e bc
       -0.006424492 0.26134348 -0.12199119 -0.017381353
0001e0 ce fa a2 bb 06 15 4f bd 00 cb ed bc fe 93 1d bc
       -0.004973746 -0.05055716 -0.029027462 -0.009617804
0001f0 d0 ba f2 bd 70 6a b6 bd b2 61 ff bd 53 a1 98 bc
       -0.11852038 -0.0890702 -0.12469806 -0.018631613
000200 bb 80 d1 bd 55 56 0a be 06 60 8a bd 89 57 03 bd
       -0.102296315 -0.13509496 -0.06756596 -0.032065902
000210 a6 1f e6 bd f6 d5 c0 bd ed 13 56 bd 40 72 b2 bd
       -0.11236505 -0.0941581 -0.052265096 -0.08713198
000220 90 b4 97 bd 00 54 5d be a7 32 07 bd 8d bc 92 bd
       -0.074074864 -0.21614075 -0.03300729 -0.071648695
000230 f2 6f e1 bd 30 36 3b bd 51 8a 8d bd 9c 3b f7 bd
       -0.1100768 -0.045705974 -0.069111474 -0.120719165
000240 b9 44 ca bd 52 1e e5 bd 7b 7b 08 be 3c 88 7c bc
       -0.09876389 -0.11187424 -0.13328354 -0.01541334
000250 fd 03 87 bd db 6b 22 be 35 1c 83 bd 64 41 80 bd
       -0.065925576 -0.15861456 -0.064018644 -0.06262472
000260 a7 f1 94 bd 58 26 57 bd 30 d0 59 bd 7c b9 72 bc
       -0.07272654 -0.0525268 -0.05317706 -0.014814731
000270 a6 75 df bd 29 1b 26 bd 24 c2 11 be e1 0a 0f bd
       -0.109111115 -0.040553246 -0.14234215 -0.034922484
000280 41 67 d8 3e f1 bf 2b be 09 ac 21 be 4c c9 0b be
       0.42266276 -0.16772439 -0.15788282 -0.13651007
000290 30 35 02 be cd f8 a4 bd a3 fd 66 bd fa f3 6a bd
       -0.12715602 -0.080552675 -0.05639423 -0.05736158
0002a0 e0 f0 72 bd cd 23 86 bd ea dc 33 bd 2c d3 e7 bd
       -0.059311748 -0.06549797 -0.043911852 -0.11319575
0002b0 9a 95 db bd 1f b4 1e bd cc 31 08 bd 88 35 62 bd
       -0.107218936 -0.038745996 -0.033250615 -0.055226833
0002c0 7c 29 10 be 19 52 90 bd 0f f6 82 bd 23 97 fe bd
       -0.14078325 -0.07046909 -0.06394588 -0.12431171
0002d0 9a c4 40 bc 8f ce 1d bd e6 85 a6 bc 53 6a d8 bd
       -0.011765623 -0.038527068 -0.02032752 -0.10567155
0002e0 70 96 14 be 39 24 7b bc ec 06 b4 bd 85 a7 6d bd
       -0.14510512 -0.01532846 -0.08790383 -0.058021087
0002f0 7d 08 82 bc a1 ee 4d bc 4a 2e de 3e 88 1c 27 bd
       -0.015873188 -0.012569101 0.4339469 -0.040798694
000300 6d bb bd bd f0 3a dc bd f8 22 bd bd 47 58 db bc
       -0.09264264 -0.10753429 -0.092351854 -0.026775492
000310 88 19 2f be bd 66 43 be 88 e3 7d bd b6 2d 0f be
       -0.17099583 -0.1908216 -0.06198457 -0.13982281
000320 bc 28 9a bd bf 12 0d bd db d9 51 bc 78 a4 3f bc
       -0.07527301 -0.034441706 -0.012808288 -0.011696927
000330 23 98 89 bd 79 30 0d bd c9 82 72 bd f5 c2 32 bd
       -0.06718471 -0.034470055 -0.059206758 -0.043642957
000340 90 69 07 be ff a9 1d bd 50 39 e4 bc d4 a5 c9 bd
       -0.13223863 -0.0384922 -0.02785936 -0.09846082
000350 ac 4d bb bd cc 47 32 be 41 b6 80 bd 53 ed 9c bd
       -0.09145674 -0.17410201 -0.06284762 -0.076624535
000360 fb 0f 1a be 0d 3a b3 bd 4a c3 1b be cd 3c 5c 3e
       -0.15045159 -0.08751307 -0.15211216 0.21507569
000370 ec c3 ca bd f0 18 b2 bc 28 30 30 be f9 50 c3 bd
       -0.099006504 -0.021740407 -0.1720587 -0.09536929
000380 d5 77 0c bd 54 5b 06 be 91 a0 7f bd f4 1e 83 bd
       -0.03429397 -0.13120776 -0.062408987 -0.06402388
000390 6c 1a 13 be 02 87 73 bc 9b 4d 98 bd c6 32 ac bd
       -0.14365548 -0.014863731 -0.07436677 -0.08408122
0003a0 9a 6d 08 be ee b2 c7 bc a1 d1 dd bc bc 14 7b 3e
       -0.1332306 -0.024377313 -0.027077498 0.24519628
0003b0 9b 05 a7 bc 57 70 22 be 97 25 df bd 95 3d 92 bd
       -0.020388415 -0.15863167 -0.108958416 -0.07140652
0003c0 ca 31 dc bd 30 c7 f6 bc 61 c5 e4 bd 7f 31 b1 bd
       -0.10751684 -0.030124277 -0.111704595 -0.08652019
0003d0 43 2e db bd bd c3 d0 bd 5c 0c 1a be 80 6f d9 bd
       -0.10702183 -0.10193584 -0.15043777 -0.1061697
0003e0 15 19 ea bd 06 08 ac bd 17 e2 c7 bc 00 08 41 be
       -0.11430565 -0.08399968 -0.0243998 -0.18850708
0003f0 5a 50 de be 11 45 43 bd 6f 16 3c 3d a3 9e ea bd
       -0.43420678 -0.04767329 0.04591983 -0.11456039

fc.weight f4 [4, 256]
000000 5c c8 03 3e ef ab 98 bc 96 4e 27 3d f9 a2 ca 3c
       0.128694 -0.018636672 0.04084643 0.024735915
000010 59 cc ca 3c d3 d4 f0 bc b6 0d b1 3d 03 b8 d4 3d
       0.024755644 -0.029398357 0.08645193 0.1038666
000020 01 1f 04 be 2f 25 ea bd 1f fc 9c bd 36 89 21 be
       -0.12902452 -0.114328735 -0.07665276 -0.15774998
000030 36 24 23 be da b4 15 3d 36 c5 50 be fc 40 27 3c
       -0.15931782 0.036549427 -0.2038773 0.010208365
000040 8a a0 9d 3d 85 e1 07 3d 82 c2 ad 3d 6c 58 2f 3c
       0.07696636 0.033174057 0.08484365 0.010702234
000050 47 7d fa 3c f4 c7 9f 3d ab 52 b3 3d 98 a6 a2 3d
       0.030577315 0.0780181 0.08756002 0.079419315
000060 60 25 6b bc a6 b0 c3 bc aa 56 23 3d b2 56 93 3d
       -0.014352173 -0.023887943 0.03987757 0.0719427
000070 a5 bb 0a 3d e4 64 d7 3d b1 13 c0 3c 3b 3e 0f bd
       0.033870358 0.1051729 0.02344689 -0.034971457
000080 67 3b 27 bd 30 44 1a 3b c3 24 1b 3e 27 c6 84 bd
       -0.040828135 0.0023539178 0.15150742 -0.06483107
000090 11 d7 8c bd f6 a4 13 3d e7 86 90 bd 9b 9b 40 3c
       -0.06876958 0.03604599 -0.070569806 0.011755849
0000a0 3a d8 2d 3a 92 2e fe bb 05 a0 b7 3c 98 4a 2a 3d
       0.00066316465 -0.0077570165 0.02241517 0.041575044
0000b0 66 a9 10 3d ae cb 40 3d 84 13 6f 3d b8 38 2c 3d
       0.0353178 0.047069244 0.05836822 0.04204628
0000c0 02 ef ec 3c d0 25 06 3d 4b f1 bd 3d b5 c0 72 3c
       0.028922562 0.032750905 0.092745386 0.014816453
0000d0 03 48 0d 3e f2 58 51 3d 04 71 1e 3d 3f bd 49 3d
       0.13797002 0.051110215 0.038682 0.049252745
0000e0 50 9a d2 3d b4 92 b6 3d b9 91 60 3c 52 e7 74 3d
       0.10283339 0.089147 0.013706618 0.059790917
0000f0 15 dd ca 3c 10 6d 8d bd 7d 8c b2 3d 75 d9 a7 3d
       0.024763623 -0.06905568 0.08718202 0.081957735
000100 fc 93 6b 3b 9a 73 9c bd 33 d6 71 3d 5a 13 71 3b
       0.003594636 -0.07639237 0.059042167 0.0036785216
000110 4f 0a 1e 3e dd 07 cd 3d 18 0f d0 ba e4 89 f1 bd
       0.1543362 0.100112654 -0.0015873639 -0.11793879
000120 40 38 36 3c 7c 23 08 3d 68 f1 23 bd be 2a c3 3d
       0.0111218095 0.033236966 -0.040025145 0.09529637
000130 ba 15 a1 3c 4a f6 d3 bd c6 db 0e 3e e6 20 8c bd
       0.01966368 -0.1034971 0.13951024 -0.068422124
000140 a6 0d d2 bd 75 62 94 bd 63 51 12 3e c3 0d d0 3d
       -0.102565095 -0.07245342 0.14288859 0.10158875
000150 3d e0 60 bc d2 de 64 bd 8b d5 d7 3d c6 18 8c bd
       -0.013725338 -0.05587656 0.10538777 -0.06840663
000160 eb 73 c1 bd ac fb 03 3e bd 9c 59 3d fb 2b 93 bd
       -0.09445938 0.12888974 0.053127993 -0.07186123
000170 eb e2 90 3c 61 5b d8 3c 20 75 49 3d 9d ab 02 3d
       0.017686328 0.02641076 0.049183965 0.031901944
000180 20 32 03 bc 17 8e 68 bd d9 8d d6 3c e9 f5 59 3d
       -0.008007556 -0.056776132 0.026190685 0.053213034
000190 c7 10 78 3d b8 d7 a1 bd 12 2b 00 3d 98 9a 13 3c
       0.060562875 -0.07902473 0.031291075 0.009009026
0001a0 60 c5 de 3b 19 54 6a bc 7c 93 41 bd 79 f7 71 3a
       0.0067984313 -0.014302277 -0.047259793 0.0009230297
0001b0 cc 3c 34 3c e0 97 d3 3d a2 34 7a 3d ad c3 34 3e
       0.011000823 0.10331702 0.06108535 0.1765277
0001c0 10 f8 e0 3d 11 85 44 be 42 26 7b bc 65 43 86 3f
       0.10984814 -0.19191386 -0.015328946 1.0489317
0001d0 d8 c7 87 3d 3e 97 1f be d1 18 56 3d 2e 41 8d 3c
       0.06629914 -0.15585038 0.05226976 0.017242994
0001e0 3a 80 aa 3d 73 7e 45 bd 9e 1c e5 3d 24 ae e4 3d
       0.083252385 -0.048216294 0.11187099 0.11166027
0001f0 60 84 b0 3d 61 b4 ef bc 8a 58 b9 3e 68 15 9a 3d
       0.086189985 -0.029260816 0.36200362 0.07523614
000200 ed 51 64 3c 92 25 0a 3d e6 22 d2 bd 91 5d ae 3c
       0.013935548 0.033727236 -0.102605626 0.02128485
000210 ad 84 69 3d f7 50 b0 bd ee 09 24 3c 35 7d 26 3d
       0.057011295 -0.08609193 0.010012133 0.04064675
000220 61 49 18 3c c7 bf 16 be 7e e2 dc bd b0 4f 94 3d
       0.009294839 -0.14721595 -0.107853875 0.07241762
000230 0a 38 c8 3c 15 91 97 3c 5a ca 43 3d e1 fd 6e 3b
       0.024440784 0.018501798 0.0478004 0.0036467242
000240 dd 6e 34 3d cf 48 c5 3c 30 ce 3b 3e 81 c1 df 3d
       0.04405104 0.02408257 0.18340373 0.1092558
000250 37 ea 82 3d 96 3f 32 3f 75 c1 e7 bc 0c 88 79 3c
       0.06392329 0.69628274 -0.02829049 0.01523019
000260 6f 42 c0 bd b0 70 92 bd e8 22 8e 3d 8f c4 ce bb
       -0.09387671 -0.071504 0.069402516 -0.0063100527
000270 2a b1 f0 bb 31 fd 54 3c 34 2f 90 bc ff 98 b1 bd
       -0.0073453384 0.012999819 -0.017600633 -0.0867176
000280 4d 58 ca bd 63 df 0e bd 3a 57 c4 3c 7d 37 be 3c
       -0.09880123 -0.034881007 0.023967374 0.023219818
000290 07 28 3e bc 0c 8e 43 3d ed c3 ac 3d a6 78 92 3d
       -0.011606223 0.04774289 0.084358074 0.07151918
0002a0 d5 c4 a8 bc a9 99 3e 3d be 75 2e 3c 02 48 8b 3c
       -0.02060167 0.04653326 0.010648189 0.01700211
0002b0 96 cf 55 3c 90 a2 b0 3d ef 63 47 3a e0 90 01 3e
       0.013049981 0.08624756 0.0007606139 0.12652922
0002c0 14 a1 ab 3c fb ec 9b 3d b9 ab 5c bb 85 74 56 3d
       0.020950831 0.0761356 -0.003367169 0.052357215
0002d0 d8 56 91 3d 05 a5 97 3d bd e4 17 3b 99 52 29 3d
       0.07096642 0.07404522 0.002317711 0.041338537
0002e0 78 da b9 3c 3c ca 04 bd a5 b7 11 bd 2f 26 a9 3d
       0.022687182 -0.03241943 -0.035575528 0.08259236
0002f0 4b d5 6a 3c aa 2c d9 3d a0 49 49 be 8d 02 97 bd
       0.01433308 0.10604222 -0.19656992 -0.073735334
000300 a8 93 b2 bd 7c 50 86 bc 9a 75 80 bd 09 6c 84 bb
       -0.087195694 -0.0163958 -0.06272431 -0.004041199
000310 90 36 91 ba 52 37 ec 3c 7b 1d 88 3d 99 86 c9 3c
       -0.0011078883 0.028834973 0.06646248 0.024600314
000320 f5 f5 62 bd 40 47 96 3c 39 b7 af bd 7e 51 94 3d
       -0.055410344 0.018344522 -0.08579869 0.07242106
000330 a0 a7 a2 bc 84 62 e4 3d 33 ce d8 3c a8 9f 51 3d
       -0.01985532 0.11151603 0.026465511 0.05117765
000340 61 3c 8d 3d 21 78 97 3d f3 c8 08 3e 84 aa 41 3c
       0.06896282 0.0739596 0.13357906 0.011820439
000350 98 71 1a ba c7 e3 66 3f 80 57 a5 bd a2 ca a4 3b
       -0.00058915606 0.9019131 -0.0807333 0.0050290385
000360 29 27 72 3d 36 b9 5e 3d 01 1a a2 3c e0 c4 34 be
       0.059119377 0.05437585 0.01978779 -0.17653227
000370 1a 16 db bd e6 12 84 3c 1d ba 48 3d b4 0c 20 bd
       -0.10697575 0.016122293 0.049005616 -0.039074615
000380 38 57 18 bd ff 2b 80 3d 2d 23 11 3d 08 2d 78 bd
       -0.037192553 0.062583916 0.035433937 -0.06058982
000390 7d 4f a8 3c 73 6f f4 3d 87 a8 17 3d 1f 4c a6 3d
       0.020545715 0.1193532 0.037025955 0.08119988
0003a0 f1 9e ae 3c c1 b3 00 bd be a8 80 3d 44 d5 48 be
       0.021316024 -0.031421427 0.06282185 -0.19612604
0003b0 b8 09 17 3e 30 47 80 bd ad b8 9b 3c c8 77 cb 3d
       0.14749801 -0.06263578 0.019008959 0.09934956
0003c0 56 51 e2 3c bb 0c 06 3e e7 c9 b5 3c 88 70 c5 3c
       0.027626675 0.13090794 0.022191001 0.02410151
0003d0 25 72 3a 3d 26 64 72 3d 24 2a 9a 3c 6b f0 6b 3d
       0.045519013 0.05917754 0.018818922 0.057602327
0003e0 88 82 c7 3c c1 59 9d 3c d7 6a 06 3d 0d a4 24 bd
       0.024354234 0.019207837 0.032816734 -0.040195514
0003f0 70 50 81 3e 9d 1b 01 bd 8a 5c 01 be b7 42 4a 3d
       0.2525668 -0.031520475 -0.12632957 0.04938003

fc.bias f4 [4]
000000 8c eb 14 bd 74 a7 b0 be ec e3 d2 3e 19 d5 fb 3d
       -0.036357448 -0.34502757 0.41189516 0.122965045
