button_detection_model.pt (torch, 709630 bytes, 22 tensors)

conv1.weight f4 [64, 1, 7]
000000 8a 9c bd bd ab aa 1a bd 07 a1 b2 be 40 d9 f6 3d
       -0.09258373 -0.037760418 -0.3488848 0.12053156
000010 b2 9e 17 3e af cf 59 3e 3e e7 70 3d d1 86 33 3c
       0.14806631 0.21270631 0.05881428 0.010957436
000020 8f 95 a9 3d 4e aa 88 be 27 88 dd 3b a8 29 f1 3d
       0.08280479 -0.26692432 0.0067606154 0.117755234
000030 4b 09 c4 be 31 26 a7 bd d4 ad ee 3d 47 c7 f6 bc
       -0.3828834 -0.08161581 0.11654249 -0.03012432
000040 43 c0 51 be bd 6c 31 3e 5b cb c0 bd e0 d1 42 3e
       -0.20483498 0.17326637 -0.09413787 0.19025373
000050 fc e8 69 be 69 b6 bc bd 8a 9f 0e 3e 05 ab 45 3e
       -0.22842783 -0.092144795 0.13928047 0.1930352
000060 5c e6 1d be fb cc 94 be ba 63 e5 bd 70 39 92 3e
       -0.15419906 -0.29062638 -0.11200662 0.28559446
000070 de 57 a2 3d 8d cf bd 3d 3c 69 5c bc ca 63 43 bb
       0.079269156 0.09268103 -0.013452824 -0.0029814118
000080 14 a9 9b 3e 6d a8 c4 3e 43 ba 88 3e bb ee 82 3e
       0.30402434 0.3840975 0.26704606 0.25572762
000090 01 51 09 3c f1 cd 39 bc 68 83 92 be 08 74 5d 3d
       0.008381129 -0.011340604 -0.2861588 0.054065734
0000a0 49 4e 2e bb ae fd 79 3e fe 66 eb 3d b6 51 73 3e
       -0.0026596955 0.24413177 0.114942536 0.23761639
0000b0 ec 93 9f 3d f0 d4 b4 be bc ab 9e be d1 64 36 3e
       0.07791886 -0.35318708 -0.30990398 0.17811896
0000c0 be 1b 73 3e f6 d9 75 be f5 75 99 3d df 93 d1 3d
       0.23741052 -0.24008927 0.07493202 0.10233282
0000d0 cb a0 36 3d 89 8b 92 3d cb 5f 03 be bf f0 4f 3e
       0.044586938 0.071555205 -0.12829511 0.20306681
0000e0 d3 db 80 be 05 90 74 be f5 85 8c 3e 81 5c 63 be
       -0.25167713 -0.23883064 0.2744595 -0.22203256
0000f0 4b 97 bd 3e 1c ba 93 3e 41 9d 85 3d 4f 9d 0e 3e
       0.3702949 0.28852928 0.065241344 0.13927196
000100 13 de 8e 3e 7a ee 19 be 39 57 a8 be 79 e5 af bd
       0.27903804 -0.15032378 -0.32879046 -0.0858869
000110 74 99 82 bd 6b aa 8f 3e de 1f c4 be 87 c1 a7 3e
       -0.06376925 0.28059706 -0.38305563 0.32764837
000120 c9 17 04 be 92 03 39 3e 0e 32 fd bd b5 58 68 be
       -0.12899698 0.18067768 -0.12363063 -0.22690089
000130 27 8f 6c bd 57 f4 e5 be c9 1b 51 be 32 b2 1c 3e
       -0.05775371 -0.4491298 -0.20420755 0.15302351
000140 72 87 92 3e 14 c9 ac 3d a3 4c 6b 3d 61 2f 4a bc
       0.28618962 0.0843679 0.057446133 -0.012340398
000150 d9 05 b4 be 7c 35 56 3e da 45 cc 3d e2 c6 0e be
       -0.3516071 0.2091884 0.09974261 -0.13943055
000160 e5 1d 0d be 85 88 2e 3e 50 90 a1 bd 13 84 8c be
       -0.13780935 0.17044266 -0.078888535 -0.27444515
000170 25 3c 14 3e 30 b5 0a bd 15 b1 25 3e 40 f4 a9 be
       0.14476068 -0.0338642 0.16180833 -0.3319416
000180 8a c9 2c be 0b d5 ae 3e 19 c1 8a 3e 0c ca 12 be
       -0.16873756 0.34146914 0.27100447 -0.14334887
000190 43 a2 b4 be c9 8e a4 3e 5f e4 c7 3d ad 46 09 be
       -0.35280046 0.32140186 0.09760355 -0.13405867
0001a0 e0 a7 cc bd 7f 63 87 bd 43 c3 b3 be 49 cd b2 be
       -0.09992957 -0.06610774 -0.3510991 -0.34922245
0001b0 d1 14 a4 be 11 e1 1d 3e 39 d1 d4 be c0 95 40 3e
       -0.32047132 0.15417887 -0.41565874 0.18807125
0001c0 11 c1 ec 3d c9 33 fb bd 83 8b b6 be ea 62 69 be
       0.11560262 -0.122657366 -0.35653314 -0.22791639
0001d0 f2 64 ad 3e 6c de bd be 36 d8 8c 3e 26 55 58 be
       0.33866078 -0.37083757 0.27508706 -0.21126232
0001e0 6b c1 83 3d 79 b7 b7 3d e5 e5 85 3e ee aa 97 be
       0.06433376 0.089705415 0.26151958 -0.29622597
0001f0 e0 b0 9c be 71 18 71 3e 12 de 2b 3e 92 ca cf be
       -0.30603695 0.2354448 0.16783932 -0.40584236
000200 08 4c 97 3e a8 e5 a4 3e ea f9 45 bc 30 07 8b be
       0.29550195 0.32206464 -0.01208351 -0.2715392
000210 b5 19 a5 be b0 55 76 3e 22 b9 9f be 8a 63 2c 3e
       -0.32246175 0.24056125 -0.31195933 0.16834846
000220 45 2a 9e be 25 25 88 be 89 27 b7 bd 68 c9 a0 bd
       -0.30891624 -0.2659084 -0.089430876 -0.07850915
000230 a1 b0 a1 3e 66 01 be bc 5f 25 53 be 4c f3 a2 3e
       0.3158007 -0.023194026 -0.20619725 0.31826246
000240 f8 34 69 3e f8 d4 20 3d e9 57 20 be f6 bc a6 3e
       0.22774112 0.039265603 -0.15658535 0.3256604
000250 45 5d 9d be 68 91 7b be 00 1d dc be ba 23 22 3d
       -0.30735222 -0.24567187 -0.42990875 0.039584853
000260 0f fc a5 be 57 46 b4 3d 4a a9 3f be 52 6b c8 bd
       -0.32418868 0.08802479 -0.18716922 -0.09786095
000270 8d 2c 8f bd e0 28 bc be a4 69 8a bd 92 e1 6f 3e
       -0.06990919 -0.36749935 -0.067584306 0.23425892
000280 c9 37 c1 3e 4d 39 7d 3e c3 e0 bd be 88 a8 75 3e
       0.37737873 0.2472889 -0.37085542 0.23990071
000290 29 53 a7 be 22 d9 91 3e 23 90 cd bc 35 a8 55 be
       -0.32680634 0.28485972 -0.025093144 -0.20864947
0002a0 1f d9 b8 3e 0a 36 03 3e eb b9 38 3d 96 ef 93 3e
       0.3610315 0.12813583 0.04509918 0.28893727
0002b0 ae 89 8e be d3 66 ae be 52 44 9d be 46 03 23 3e
       -0.27839416 -0.34062824 -0.30716187 0.15919217
0002c0 1b 7e d8 3d 6f 58 94 be c7 8e 4b be e2 1a 61 bd
       0.10570928 -0.2897372 -0.19878684 -0.054957278
0002d0 19 e3 a5 3e 7b 3f 7c be b8 83 c3 be dc b0 f3 bd
       0.32399824 -0.24633591 -0.3818643 -0.118989676
0002e0 a6 5b 33 be 89 c0 b6 3e 81 9c a5 be ca 75 60 be
       -0.1751543 0.35693768 -0.32345966 -0.21919933
0002f0 15 77 87 3e 96 8b ca bd ef 9a b4 bd b8 7b 8c 3e
       0.2645804 -0.09889905 -0.08818614 0.2743814
000300 fb 22 ff bd a7 88 10 3e 59 86 26 3e ae a6 8c be
       -0.12457844 0.14114629 0.16262187 -0.27470917
000310 ca 59 4a be 9f 4f 5e 3d 0a 2d af be cd c2 6d be
       -0.19760814 0.05427515 -0.3421405 -0.23218842
000320 33 13 d9 bd b6 8b 80 3e 0d b4 d3 3e 73 18 dd bc
       -0.10599365 0.2510659 0.41348305 -0.026989197
000330 65 1f b4 3e bc ac 47 3e 37 43 33 3d d3 9c 77 3e
       0.35180202 0.19499487 0.043765273 0.24180917
000340 68 24 15 3d 03 b4 bd bd 76 a7 34 3e 0e f2 bc bc
       0.036411673 -0.0926285 0.17642006 -0.02306464
000350 a5 3f b8 3c 14 80 2e 3e 1c 20 86 b9 e7 de a4 bd
       0.022491286 0.17041045 -0.00025582395 -0.08050328
000360 72 5b bf be a5 99 8c 3b 33 a6 a5 be 4d f7 80 be
       -0.37374455 0.004290777 -0.32353362 -0.25188676
000370 86 3b b1 be 5f 2a f6 3c ba 68 e0 bc bc e4 9c 3e
       -0.34615725 0.030049501 -0.027393688 0.3064326
000380 00 e7 a8 be b8 ef 15 be c5 e8 c8 be 43 92 76 3e
       -0.3298874 -0.14642227 -0.3924009 0.24079232
000390 ed b2 98 be cc 3e 50 bd 56 9c 90 be 7e 40 5f bc
       -0.2982401 -0.050841138 -0.28244275 -0.013626216
0003a0 9c 97 e0 bb 87 d0 c9 3e e0 b8 0b 3e c1 69 7b be
       -0.0068540107 0.39416906 0.13644743 -0.2455206
0003b0 9d 4d f2 bd 3c a2 86 be ed 56 9b be ea 37 65 3e
       -0.1183121 -0.2629565 -0.30339757 0.22384611
0003c0 87 5f 21 3e b6 90 9a be 2e b0 ed 3c fd d7 11 bd
       0.15759097 -0.3018853 0.029014673 -0.035606373
0003d0 bf e3 99 be c6 5a 9b be 13 06 b1 be 1c 8a a6 3e
       -0.3005657 -0.30342692 -0.34574947 0.32527244
0003e0 ee a4 5a be a0 bc e8 bd 31 76 3f 3e 4b 13 69 3e
       -0.21351978 -0.11364102 0.1869743 0.22761266
0003f0 b1 34 06 be 86 57 87 3e 58 fc e9 3d bc a4 df bd
       -0.13106038 0.26433963 0.11425084 -0.109200925

conv1.bias f4 [64]
000000 15 1e 81 bb e6 64 85 3b 1d 1a 0e ba f4 df 71 b8
       -0.0039403536 0.004070866 -0.00054207613 -5.766745e-05
000010 a3 7b 1b b7 f8 5c 4a bb 7d 12 a7 3b 72 ee 5a b7
       -9.267506e-06 -0.0030878168 0.0050986395 -1.304933e-05
000020 1b 6a 29 b7 6a 4d 19 b7 81 ce 0d b9 ab 34 83 3c
       -1.009789e-05 -9.137535e-06 -0.00013523737 0.016016325
000030 ea b7 13 38 1e 05 04 39 15 10 5c bb b0 9f 90 b6
       3.5218814e-05 0.00012590407 -0.0033578922 -4.3101245e-06
000040 e9 96 8f 37 80 af 91 bb 96 fe 2b b7 81 14 17 39
       1.7117201e-05 -0.00444597 -1.025167e-05 0.0001440812
000050 90 ca ca 38 d5 9d 75 b8 d1 b4 b7 b7 f1 1f a8 37
       9.669841e-05 -5.8559544e-05 -2.18995e-05 2.0042035e-05
000060 1b a7 ea 3a ee 5e 98 b8 ba c0 80 b9 00 6d b7 b6
       0.0017902585 -7.265607e-05 -0.00024557655 -5.4665143e-06
000070 13 99 8f b8 1f 2d 12 38 b2 97 80 3c 14 91 d8 bb
       -6.847284e-05 3.4851135e-05 0.015697334 -0.0066090915
000080 d0 62 17 b7 9a 2b 82 ba 32 c7 be b8 24 33 46 bc
       -9.023308e-06 -0.0009931207 -9.097009e-05 -0.012097154
000090 80 34 89 34 02 d3 b4 b8 d1 87 87 39 24 47 b8 38
       2.5556437e-07 -8.622372e-05 0.00025850398 8.787055e-05
0000a0 b2 c4 a2 39 71 6b 8c b8 79 c6 fe 39 ad 3c 01 b8
       0.00031045597 -6.695733e-05 0.0004859453 -3.0812505e-05
0000b0 a2 e4 f7 38 e5 b6 42 b8 da 13 fe 38 13 13 9f 36
       0.00011820464 -4.6423538e-05 0.000121153615 4.74079e-06
0000c0 27 69 ca 38 99 9b bc ba aa 6a 45 37 b4 3a 5e ba
       9.651697e-05 -0.0014389633 1.176695e-05 -0.00084773754
0000d0 07 75 9d b7 ec 99 26 3c f9 82 ba b9 66 24 b0 b6
       -1.8770354e-05 0.010168534 -0.00035574267 -5.249446e-06
0000e0 fe 47 ad 37 54 72 26 38 9f 78 f6 38 4b 04 a1 b6
       2.0656731e-05 3.968396e-05 0.000117526615 -4.7986737e-06
0000f0 9a 90 c8 36 a9 47 0a 39 a5 95 01 b8 60 48 8e 3b
       5.9772983e-06 0.00013187401 -3.0895364e-05 0.004342124

bn1.weight f4 [64]
000000 3d c4 7e 3f c9 5b 7e 3f 42 8b 83 3f a0 d5 7c 3f
       0.99518186 0.99358803 1.0276873 0.98763466
000010 91 bc 6f 3f 94 d8 78 3f a2 87 71 3f 50 44 81 3f
       0.93647105 0.9720547 0.94347584 1.0098972
000020 42 2f 6e 3f 52 55 88 3f d8 c5 79 3f 3e 8b 80 3f
       0.9304086 1.0651038 0.9756751 1.0042493
000030 cc cd 81 3f b7 9c 6e 3f 48 8b 64 3f d3 f5 6f 3f
       1.0140929 0.9320788 0.89275026 0.93734473
000040 7a e7 7b 3f cd 96 76 3f e5 9c 86 3f d9 a2 68 3f
       0.9840008 0.96323854 1.051663 0.90873486
000050 a6 d0 78 3f cc 3e 7a 3f 7e 34 65 3f 0f 48 7e 3f
       0.9719337 0.9775207 0.8953322 0.993287
000060 e8 b7 7b 3f c3 88 70 3f c8 3e 65 3f 46 8b 7c 3f
       0.98327494 0.9395868 0.8954892 0.98650014
000070 b6 93 7d 3f a2 c2 6b 3f 60 12 8b 3f 20 1a 6d 3f
       0.99053514 0.9209386 1.0864983 0.9261799
000080 b4 3f 78 3f 19 81 7e 3f 1d 2d 81 3f 83 e9 78 3f
       0.96972203 0.9941574 1.0091892 0.9723131
000090 fa 75 7c 3f cc 3c 82 3f 68 81 68 3f b4 d0 72 3f
       0.9861752 1.0174804 0.9082246 0.94849706
0000a0 a5 c8 72 3f b4 23 74 3f f3 9f 7f 3f cf 1a 7d 3f
       0.9483741 0.9536698 0.9985344 0.9886903
0000b0 72 5d 5d 3f b7 02 82 3f 20 ef 7f 3f 74 c0 6b 3f
       0.8647071 1.0157079 0.9997425 0.92090535
0000c0 59 10 72 3f 30 f1 78 3f 25 1c 77 3f 3c 13 6b 3f
       0.94556195 0.9724302 0.9652732 0.91826224
0000d0 af 5c 7c 3f ff 8c 64 3f ea cf 7e 3f 3e b9 82 3f
       0.98578924 0.8927764 0.99536 1.0212781
0000e0 0b 99 82 3f 49 77 80 3f 67 0f 73 3f 0c d8 6e 3f
       1.0202955 1.0036403 0.9494538 0.9329841
0000f0 35 1c 7a 3f c4 6d 83 3f 56 60 7b 3f 9d 94 76 3f
       0.9769929 1.0267873 0.9819387 0.96320516

bn1.bias f4 [64]
000000 f8 b3 33 3e c6 7c 75 3d f8 29 11 be f6 ca 4d 3e
       0.17549121 0.059933446 -0.14176166 0.20096955
000010 2f 37 18 3d 45 6a 93 3b 4d 94 13 3e 6a f2 1b be
       0.037162002 0.0044987523 0.14412041 -0.15229192
000020 fe 48 72 bd 8c 47 d8 bd 3b 87 8d 3b af 51 45 be
       -0.059151642 -0.105605215 0.0043190992 -0.19269441
000030 b3 f8 c0 bc 73 72 9f bc c7 d5 0b bc b3 e7 65 bd
       -0.023556089 -0.019463753 -0.008534855 -0.05612917
000040 8f 04 6c 3d 74 9f be bc 5a d2 9d bc 4b b5 0e be
       0.057621535 -0.023269393 -0.019265343 -0.13936345
000050 9e 32 01 bc 88 f2 aa 3d ab d3 86 ba c7 d1 62 3c
       -0.007885603 0.083470404 -0.0010286471 0.01384396
000060 36 a7 2e 3e b0 c9 77 3c f9 b0 97 bd 80 43 1c 3c
       0.17055973 0.01512377 -0.07406802 0.009537578
000070 ff 60 f1 bd 96 67 4d 3d bb 53 f4 bc 0d 0d 85 bd
       -0.11786079 0.050147615 -0.029825082 -0.0649663
000080 86 75 91 bd 17 34 07 be a9 e1 17 3c a1 fd 4b 3c
       -0.07102494 -0.13203464 0.00927011 0.012450607
000090 af aa dc bb 38 d3 02 be 9f f6 df 3d 72 a2 97 3c
       -0.0067342143 -0.12775886 0.10935711 0.018510077
0000a0 ad 39 25 bd a9 48 f0 3c 06 08 49 bc 5a 48 56 bc
       -0.040338207 0.029331522 -0.012269979 -0.013078773
0000b0 fb e4 cc 3c 40 33 27 3d 2e fc 5c bd 06 cf d4 3b
       0.02501153 0.04082036 -0.053951435 0.0064944057
0000c0 a8 02 b6 bc b5 22 08 be c9 e3 8b 3d 2b da 8f 3d
       -0.022218063 -0.1329449 0.06830556 0.07024034
0000d0 44 f4 a5 3d 48 33 be 3c 1b 35 e3 3d 62 7d e6 bd
       0.081032306 0.023217812 0.110941134 -0.112543836
0000e0 9f ac c8 bd 8a 52 0f 3c b8 28 07 3d dc 1c e6 bd
       -0.0979855 0.008747706 0.032997817 -0.11235973
0000f0 42 cd b3 3c 38 e4 ad 3c 87 0c 07 bd 12 9e 4d 3c
       0.02194846 0.021226987 -0.03297093 0.012549894

bn1.running_mean f4 [64]
000000 99 45 cf bb 89 14 be 3b 2d 6e 8f 39 d7 91 66 ba
       -0.0063254354 0.005800788 0.00027357173 -0.00087955355
000010 b8 69 28 bb 3e 1b 9f bb b1 bc 85 3b f4 ce 7a ba
       -0.002569778 -0.0048555424 0.0040813317 -0.00095675816
000020 9a 98 21 bb 3b e6 ba ba 32 9d 94 3a 23 2b 86 3c
       -0.0024657608 -0.0014259288 0.0011338352 0.016377991
000030 10 76 c7 b9 49 87 a3 ba ab 9a 29 bb d5 c3 0d bb
       -0.000380442 -0.0012476231 -0.0025879543 -0.0021631618
000040 1c 62 eb ba 9e f1 9e bb 22 34 66 3b 64 d8 2a 3a
       -0.0017958316 -0.0048505804 0.0035126288 0.000651723
000050 9c d7 da 3a f7 d3 5e ba 51 77 91 bb bf 2b 56 3a
       0.0016696337 -0.0008500213 -0.0044392725 0.0008169971
000060 43 25 e0 3b 80 7a 79 37 7d a8 f3 ba 6f 11 71 3a
       0.0068403794 1.4870078e-05 -0.0018589642 0.0009196018
000070 3a 62 9c bb ed 8d c1 3a b2 34 a4 3c 83 3d 32 bc
       -0.0047724517 0.0014767029 0.020044658 -0.010878923
000080 78 60 fb 39 84 c1 00 3b 5b af ae 3a 04 42 84 bc
       0.00047946326 0.0019646594 0.0013327406 -0.01614476
000090 e2 a9 d3 3a 34 65 3a 3a 35 d8 02 ba fb b7 65 ba
       0.0016148651 0.00071104174 -0.0004991324 -0.0008763072
0000a0 16 1f a5 b7 b7 c1 04 3b 05 04 a4 3a a4 3b 81 ba
       -1.9684008e-05 0.0020257065 0.0012513405 -0.0009859693
0000b0 7e ca 9d ba ec e3 b5 39 97 bc 07 38 a2 fe cc 3a
       -0.0012038497 0.00034692825 3.2362146e-05 0.0015639851
0000c0 00 0c 27 ba 69 b3 a2 3a 88 c6 30 bb 32 9b bc 3a
       -0.00063723326 0.0012413088 -0.0026973803 0.0014389514
0000d0 c9 ce 15 bb de 45 47 3c 85 37 65 bb b2 58 83 b9
       -0.002285885 0.012162654 -0.003497572 -0.0002505235
0000e0 9a a4 7c 3b ad 14 89 3a e4 83 97 39 50 e5 48 bb
       0.0038550259 0.0010458432 0.0002889923 -0.003065426
0000f0 ff 04 f0 ba 58 d7 93 3a ef b0 74 ba 17 93 aa 3b
       -0.0018312036 0.0011279387 -0.00093342265 0.0052055228

bn1.running_var f4 [64]
000000 0a ab d5 3d 33 9e 90 3e 3e b8 9c 3d 16 70 f6 3d
       0.10433014 0.28245696 0.07652329 0.120330974
000010 9b 2c e1 3e d8 1a d4 3d f1 d7 3b 3e 8b 63 84 3d
       0.43979344 0.103566825 0.18344094 0.06464299
000020 35 a0 b9 3e 94 36 1d 3e 32 9c 71 3e 76 05 3b 3e
       0.3625504 0.15352851 0.2359474 0.18263802
000030 76 fa 70 3e 05 28 47 3e 5c 18 9a 3e b1 ad 24 3f
       0.23533043 0.1944886 0.3009671 0.6432753
000040 52 49 d4 3e ec d7 52 3e c2 56 99 3e de 8c a0 3e
       0.4146219 0.2059018 0.29949003 0.31357473
000050 f5 5b 88 3e fc ec ea 3e c2 f3 53 3e e2 47 6a 3e
       0.26632658 0.4588393 0.20698455 0.22878984
000060 50 7c 9e 3e e2 ae 2b 3e 2b fa cb 3e a1 82 62 3e
       0.30954218 0.16765931 0.398393 0.22120143
000070 c0 84 51 3e 71 03 9e 3e f4 8e bd 3d 21 cd 8b 3e
       0.20460796 0.30862 0.09255782 0.27304938
000080 f1 fb 17 3f 9c 66 38 3e 02 59 e6 3e 73 6f c5 3e
       0.5936881 0.18007892 0.44989783 0.38561592
000090 66 7f 61 3e 12 bb 0b 3e 9e e3 1e 3e 0a 6b 66 3e
       0.22021255 0.1364558 0.15516517 0.2250177
0000a0 dd 3b 94 3e 95 c9 84 3e a8 8b b6 3e d2 2d 9a 3e
       0.28951922 0.25935045 0.35653424 0.30113083
0000b0 be 53 b9 3e b1 d7 d9 3d 67 df 84 3e 55 62 54 3e
       0.36196703 0.10636843 0.25951692 0.20740636
0000c0 7c 4c 1d 3e 0b 6b e5 3d c0 0f 58 3e 14 da db 3d
       0.15361208 0.112020575 0.21099758 0.107349545
0000d0 e7 1c a1 3e f2 28 47 3e 91 75 10 3e bf 69 13 3e
       0.31467363 0.19449213 0.14107348 0.14395808
0000e0 1e 8c 56 3e 63 03 33 3e 8e b5 ff 3d 32 4b b3 3e
       0.20951888 0.1748176 0.12485801 0.35018307
0000f0 18 46 d5 3d a4 34 81 3e 50 21 a7 3d ca 2b a2 3e
       0.1041376 0.25235474 0.08160651 0.31674033

conv2.weight f4 [128, 64, 5]
000000 83 f6 05 bd 5f 9a 5c bd 69 96 b0 bc 11 ff ee bc
       -0.032705795 -0.053858157 -0.021556096 -0.02917436
000010 d4 1e 51 bc b0 31 1f bc 2d 8d 2d 3d e0 15 4a 3d
       -0.012763698 -0.009716436 0.042370964 0.049337268
000020 00 80 17 3d b0 ad 43 3d 8a b2 73 bd a5 3c 8e bc
       0.036987305 0.047773063 -0.05949644 -0.017362902
000030 03 8a b1 bd 7c d2 ce 3c 18 3a be bd 48 11 21 bd
       -0.08668902 0.025246851 -0.09288424 -0.03932312
000040 cd 3b 8f bd 06 f7 8e 3c 12 da aa bc 88 c6 1c bd
       -0.06993828 0.017451774 -0.020855937 -0.03827527
000050 14 c2 75 3d 5a 36 0f 3d a2 3a 1b 3d 61 df e9 3c
       0.05999954 0.034963943 0.037897713 0.028548898
000060 c9 79 8f 3b 43 1d 39 bd 60 c3 ac bd a1 59 b6 bb
       0.0043785316 -0.04519392 -0.08435702 -0.005564884
000070 05 d2 79 bd aa ff 65 bd db 7e 8d bb f5 b3 d6 bd
       -0.060991306 -0.056152023 -0.004318101 -0.10483543
000080 f0 ca fe bd d5 1b 1a bd c6 00 90 bd c6 8c 55 bd
       -0.12441051 -0.0376242 -0.070313975 -0.052136205
000090 ec 4d c2 3b bb 39 14 bd d8 ee 3e be 4f e0 fe bd
       0.005929699 -0.03618787 -0.18645799 -0.12445127
0000a0 4b 69 45 3b 34 bf b0 bd 97 7a eb bc 75 37 51 bd
       0.0030122574 -0.08630219 -0.028744979 -0.05107828
0000b0 10 e5 ac 3c 47 b1 1b 3d 3d 0b c9 bd 49 a7 a0 bc
       0.02110532 0.03801086 -0.09816597 -0.019611018
0000c0 94 26 87 bd 3b 1b 43 bb 74 b3 be 3b 73 8c 65 bd
       -0.06599155 -0.002977087 0.0058197323 -0.056042146
0000d0 a7 5e 1e bd 82 26 a8 bd 37 ed 82 bc 1f 94 4a bd
       -0.038664486 -0.0821047 -0.015982253 -0.049457666
0000e0 10 58 c1 bd 42 b8 a2 3b ec b9 9e bd fa c8 30 3c
       -0.09440625 0.004965813 -0.077503055 0.010790104
0000f0 fd 99 4e bd 67 43 1e 3c 74 ce 96 ba 2b 8f 1c 3d
       -0.050439823 0.009659625 -0.001150562 0.038222473
000100 a3 3c 87 bc 82 b0 25 bc 44 96 42 bd b4 68 15 bd
       -0.016508406 -0.0101128835 -0.047506586 -0.036476806
000110 e8 63 86 bc 3b 18 95 3b a2 93 85 3d fd 7f bd 3a
       -0.01640506 0.0045500076 0.06522299 0.0014457699
000120 5b 66 35 bd 03 28 01 bd 5e 48 13 bc ae c4 52 3d
       -0.044287067 -0.0315323 -0.008989422 0.0514571
000130 cc 8d b4 3c e3 ba cf 3c b4 c1 c4 bc 6f 87 9a bc
       0.02204027 0.02535767 -0.024018146 -0.018863408
000140 56 35 92 3c 41 70 f7 bc 1a 59 3b 3b de bc 8a bd
       0.017847698 -0.030204894 0.0028587044 -0.06774305
000150 0b 91 f8 3c 5f 71 68 bd 21 6c 6d 3c c4 b5 99 3b
       0.0303426 -0.056748744 0.014491112 0.0046908576
000160 4a 6c d8 bc e4 c9 20 bc de e0 70 bd 6e cc d6 3a
       -0.026418824 -0.0098137595 -0.0588082 0.0016387829
000170 ae bd fe 3c b7 6f 72 bd 86 65 2c 3d f2 aa a7 3c
       0.031096306 -0.05918857 0.042089008 0.020467255
000180 3d 8e 1e 3d 9d 79 99 3c b4 e2 eb 3c 29 36 04 3d
       0.038709868 0.018734748 0.028794624 0.032278214
000190 39 47 09 3c 75 ee 96 bd 4f ef 34 bd e3 ed a2 3b
       0.008378797 -0.07369701 -0.044173535 0.004972206
0001a0 bb 3a 7a bd 83 92 a9 3c 92 2f 8c 3d b7 b8 67 bc
       -0.061091166 0.020699745 0.06845011 -0.014143161
0001b0 b0 ef 69 3d 74 33 76 3c 8b 1d 3b bd f3 32 37 bd
       0.05711335 0.015026916 -0.04568247 -0.044726323
0001c0 a0 2f cc bb ba fc 15 bd 3d e0 8b bd 8e 97 dc bc
       -0.0062312633 -0.036617972 -0.068298794 -0.026927736
0001d0 a2 f1 f0 bc 30 1e 44 bd 74 03 42 bd b1 e8 df 3c
       -0.029412095 -0.04788035 -0.047366574 0.027332636
0001e0 4e 32 eb 3c ff 9e 98 3c 3c f4 e1 bc b3 6c 8b bd
       0.02871051 0.018630503 -0.02758228 -0.06807842
0001f0 62 03 ce 3c 38 a7 a6 3c 78 42 a1 bc f3 be b6 bd
       0.025148097 0.020343408 -0.019685015 -0.089231394
000200 9a be e3 3b f5 14 84 bd 1d 12 10 3d cb ae 81 bd
       0.0069502117 -0.0644931 0.035173524 -0.06332167
000210 b4 8b 7e bc 96 16 b8 bc 01 50 e9 3c b2 cd c6 3c
       -0.0155362375 -0.022471707 0.028480532 0.024268005
000220 aa 67 75 bd 00 e9 94 bd 67 da 33 bd 14 46 b6 3c
       -0.059913315 -0.07271004 -0.043909457 0.022250213
000230 02 3f 6a bd 70 0b 20 bd 36 27 6a 3b 7f 77 26 bd
       -0.057188995 -0.039073408 0.0035728938 -0.040641304
000240 d6 63 8d 3b da 0b c4 bb ed cf d3 bc de 89 bb 3c
       0.00431488 -0.005982858 -0.025855983 0.022892889
000250 31 5f 28 3c d8 9c d6 3c 6f 38 7c 3d 8c 3f c4 bc
       0.010276602 0.026197836 0.061577257 -0.023956083
000260 b8 04 6e bc 11 9a 68 bd 6b e3 6a bc 6d 1e 30 3d
       -0.014527492 -0.056787554 -0.014336447 0.042997766
000270 c0 83 22 3d b5 4c 0c 3d a9 3f 36 3d 78 bd 16 3d
       0.039676428 0.03425284 0.044494305 0.036801785
000280 5e dc 2a 3c b2 d6 d0 3b 07 a5 27 3b f2 3d ad 3c
       0.010428516 0.00637325 0.0025580542 0.021147702
000290 e1 3b 60 3d 27 3f 88 bd c2 0a 6c ba 4a 22 85 bc
       0.054744605 -0.0665267 -0.00090042886 -0.016251702
0002a0 4b c8 3b bd b7 22 32 3d a9 20 55 bd 9a ed 21 bd
       -0.04584531 0.043490138 -0.0520331 -0.039533235
0002b0 6f 90 1d bd a4 a1 27 3d ef 36 0b bd 13 0d a0 3c
       -0.03846782 0.040925637 -0.033987936 0.019537484
0002c0 0f f1 41 bd e9 bd d8 bc 30 4a 2f bd 2b 27 72 bc
       -0.047349032 -0.026457744 -0.04279536 -0.014779846
0002d0 95 c4 c2 bc 41 b5 59 3b 51 bc b4 bc c4 e8 98 3c
       -0.023775378 0.0033219608 -0.022062453 0.018665679
0002e0 b8 9e b4 3c f9 7e 4c 3d cb 5c 43 bd 70 9b 9b bd
       0.02204834 0.049925778 -0.047695916 -0.07598007
0002f0 8c c7 49 3d 1c e2 5a bd af 58 b4 bc 57 c3 80 bd
       0.04926257 -0.05343829 -0.022014944 -0.06287258
000300 6c e7 3a bd 35 62 93 bd a0 af bb 3b f7 2f 71 3d
       -0.045630857 -0.07196466 0.0057277232 0.058883633
000310 d6 4b 21 bc 17 c4 d3 3c cf 6c 72 3d 3c 53 f6 bc
       -0.009844741 0.025850339 0.0591858 -0.030068986
000320 ae b9 06 bd 93 0c d5 bc 82 38 28 3a 90 d3 fd 3b
       -0.03289192 -0.026006972 0.0006417112 0.0077461675
000330 b7 4a bf 3c d3 8d cb bc 85 41 30 bd 02 55 64 bc
       0.023351057 -0.0248479 -0.043031234 -0.013936283
000340 2b 47 eb bc 9c 44 18 3d 3b 4f c6 bc ec 51 6c bc
       -0.028720459 0.037174806 -0.024207702 -0.014423829
000350 b0 3b 85 bd e3 3d 42 bd 36 18 47 bd 28 67 2a 3d
       -0.06505525 -0.0474223 -0.048607074 0.041602284
000360 19 91 9f 3c 85 5b 3d bd 38 c0 2a bc 0a b6 9e 3c
       0.019478368 -0.046229858 -0.010421805 0.019373912
000370 01 dd f3 3c 60 5f 8b bd 15 f1 89 bd e7 b2 b5 ba
       0.029768469 -0.06805301 -0.06735436 -0.0013862521
000380 74 06 62 bc 30 a8 98 bc d2 21 ed 3c 17 e7 23 be
       -0.013795484 -0.018634886 0.02894679 -0.16006123
000390 14 89 03 be b8 40 d5 bd 9b 40 71 bc 6d 0c 32 3d
       -0.1284526 -0.10412735 -0.014724876 0.04346888
0003a0 9b 86 54 3c 1a e2 32 3d 3a 09 4e 3d 6b 16 69 3d
       0.012971546 0.04367266 0.050301768 0.056906145
0003b0 52 85 af bc b4 8e 60 3c 09 8e 15 3b 56 b4 79 bc
       -0.021425877 0.013705898 0.0022820255 -0.015240749
0003c0 f2 f5 3c bd 9f 01 1a 3d 8a 79 68 bc 6e 70 56 bd
       -0.04613299 0.037599202 -0.014189133 -0.052353315
0003d0 7f 59 0a bd ca db 3f bd 52 f0 3e bd 69 0e 06 bd
       -0.033776756 -0.046840467 -0.046615906 -0.032728586
0003e0 76 df 8b bc 24 ea e9 3c 0f 85 7b bd 76 56 5d bb
       -0.017074328 0.02855403 -0.06140619 -0.0033773459
0003f0 4c 03 a5 bc c2 38 1d 3a c6 8c ed bc 76 0d e5 bc
       -0.020143174 0.0005997532 -0.02899779 -0.02796052

conv2.bias f4 [128]
000000 5c 53 a9 b8 d1 f9 18 37 96 ca 74 37 44 d1 6f 38
       -8.074075e-05 9.118071e-06 1.45907015e-05 5.7176934e-05
000010 11 61 31 38 2e 49 7c 38 47 24 25 b8 2b eb 73 38
       4.229049e-05 6.0149636e-05 -3.937285e-05 5.8154732e-05
000020 52 08 8b 37 d9 8f c2 b7 41 f4 92 b7 d3 56 d5 b7
       1.6573966e-05 -2.3193586e-05 -1.7518296e-05 -2.543201e-05
000030 05 14 66 b7 bc c4 36 b7 fd b7 c6 b5 ce f2 1e 39
       -1.37137295e-05 -1.0893851e-05 -1.4805697e-06 0.00015158506
000040 c4 e2 83 38 d4 a5 8b b8 d0 fc ba b7 a2 8f c5 37
       6.288805e-05 -6.6589244e-05 -2.2290653e-05 2.3551114e-05
000050 30 bd 70 35 04 c1 47 36 1f 2f 17 b8 96 2e 9e 37
       8.968227e-07 2.976566e-06 -3.604509e-05 1.8856761e-05
000060 4c a0 0e 38 c8 55 2d b6 c9 f6 86 34 79 f0 0e 37
       3.4004726e-05 -2.582894e-06 2.5139005e-07 8.519849e-06
000070 49 67 17 39 98 33 db 37 c2 3f 99 36 f8 6f e4 37
       0.00014438959 2.613086e-05 4.5671777e-06 2.7231858e-05
000080 ee ee 4f b6 51 68 c2 36 aa 02 c1 b6 bc 6f 14 38
       -3.098448e-06 5.7937946e-06 -5.7521584e-06 3.539001e-05
000090 2d ff 17 37 50 ea 4a b7 8c 3e 10 b7 8e 69 19 b7
       9.059714e-06 -1.2094693e-05 -8.597632e-06 -9.144087e-06
0000a0 5f 8d 46 37 2e 62 0e 38 1e f7 07 38 50 0c f0 b7
       1.1834635e-05 3.3946875e-05 3.2416654e-05 -2.8615963e-05
0000b0 be d6 76 37 e6 5a ce b6 99 e6 b6 b7 b7 a7 b1 37
       1.4712741e-05 -6.1498604e-06 -2.1803471e-05 2.1178143e-05
0000c0 34 b0 b4 36 35 4a d3 b8 9b f8 20 37 ab 20 dd b7
       5.384931e-06 -0.00010075086 9.594626e-06 -2.6360465e-05
0000d0 fc 9d b5 b6 1c 7b 79 37 8a d1 e7 b6 3e 27 0e 38
       -5.412612e-06 1.487022e-05 -6.90873e-06 3.3891985e-05
0000e0 e8 c1 cb b6 87 53 84 38 3a 67 22 38 a8 56 dd b2
       -6.072445e-06 6.309809e-05 3.8719947e-05 -2.5767193e-08
0000f0 a3 df 48 b7 4a 3e b0 b7 cc 1a 82 35 4f 79 2b b7
       -1.1972998e-05 -2.100984e-05 9.693554e-07 -1.0220639e-05
000100 b3 a6 99 35 03 09 76 b8 e2 85 40 b7 a8 3e 22 b6
       1.1447904e-06 -5.8659363e-05 -1.1475264e-05 -2.4176352e-06
000110 e0 20 13 37 6d 86 05 39 ca 85 cb b7 5b 7b 12 38
       8.769537e-06 0.00012733946 -2.4261786e-05 3.4923996e-05
000120 e0 ba f1 b7 98 99 23 37 86 76 1a b8 5e f5 2e 38
       -2.881646e-05 9.751318e-06 -3.6826845e-05 4.171335e-05
000130 79 45 6f 38 ab 21 b5 b7 32 70 08 37 40 a6 90 b5
       5.7046742e-05 -2.159256e-05 8.132354e-06 -1.0777221e-06
000140 9a d8 8b b6 82 e9 d9 37 5a 05 42 b7 7d d1 14 b8
       -4.1677386e-06 2.5977151e-05 -1.1564547e-05 -3.548105e-05
000150 d9 59 98 37 90 23 7e b8 fb 63 02 b8 4b cb ae 38
       1.816165e-05 -6.059144e-05 -3.108753e-05 8.334833e-05
000160 c6 1a 77 b6 30 bf de b7 67 0b 9f b7 40 71 50 36
       -3.6821452e-06 -2.655349e-05 -1.8959587e-05 3.1060335e-06
000170 d6 05 2f b7 b5 3e ac 36 5d 8c 22 37 9e 6d dc 35
       -1.0432172e-05 5.1332995e-06 9.688633e-06 1.642318e-06
000180 26 63 07 b8 21 09 61 b7 60 be 4d b8 90 8d b7 37
       -3.2278847e-05 -1.3413171e-05 -4.905311e-05 2.188122e-05
000190 97 12 e9 36 48 10 a8 37 ae 48 3e 38 50 18 62 b7
       6.9461053e-06 2.0034742e-05 4.536722e-05 -1.347631e-05
0001a0 48 91 6e b6 96 ed e4 36 e2 60 12 b8 a6 95 1d 37
       -3.5549328e-06 6.822588e-06 -3.489934e-05 9.392772e-06
0001b0 84 13 9b b9 45 89 f7 b7 6d e1 c0 b7 2d 05 d4 b6
       -0.00029578444 -2.9508616e-05 -2.2993156e-05 -6.318695e-06
0001c0 9c 1a 7d 37 0b db 84 37 00 f2 92 b5 85 a4 7d 37
       1.5086171e-05 1.5837626e-05 -1.0948279e-06 1.511828e-05
0001d0 9b 3e 29 37 28 0b d7 b7 54 2f 2c 37 be 16 47 b8
       1.0087761e-05 -2.5635192e-05 1.0263018e-05 -4.7466478e-05
0001e0 bf 74 a4 b7 df 3d a2 b7 75 c2 98 b8 8c d2 35 36
       -1.9604688e-05 -1.9340716e-05 -7.284145e-05 2.7093656e-06
0001f0 90 73 2d b8 4e 0e eb b7 b2 fd 1d b8 f0 17 77 36
       -4.135404e-05 -2.8020844e-05 -3.766799e-05 3.6819802e-06

bn2.weight f4 [128]
000000 f8 89 6c 3f 58 02 4b 3f fc 64 6c 3f 2e f3 7a 3f
       0.92398024 0.7930045 0.9234159 0.9802731
000010 3c df 71 3f 99 24 80 3f e1 ea 6a 3f 69 63 7c 3f
       0.94481254 1.0011169 0.91764647 0.9858919
000020 9c 17 58 3f 75 b1 78 3f 65 69 64 3f 79 3d 5f 3f
       0.84411025 0.9714578 0.8922332 0.87203175
000030 68 0c 55 3f f6 72 65 3f 56 67 63 3f 0f 72 85 3f
       0.83222055 0.8962854 0.88829553 1.0425433
000040 d6 8d 71 3f 8d cb 6a 3f 87 83 84 3f 9f 5b 78 3f
       0.9435705 0.91716844 1.0352639 0.970148
000050 8d bf 96 3f f1 49 57 3f 42 86 6b 3f 98 e7 77 3f
       1.1777207 0.840972 0.92001736 0.9683776
000060 ef 99 7e 3f df 47 80 3f 22 e4 6c 3f bb 29 5f 3f
       0.99453634 1.0021933 0.92535603 0.8717305
000070 e5 f1 78 3f 2c d2 73 3f a4 c8 54 3f 56 50 86 3f
       0.972441 0.9524257 0.83118653 1.0493267
000080 88 bb 4c 3f c1 1e 79 3f 35 e4 5c 3f f4 8e 61 3f
       0.7997365 0.9731255 0.86285716 0.88108754
000090 82 1e 65 3f e2 88 6a 3f 78 b9 5b 3f 16 1e 4d 3f
       0.89499676 0.91615117 0.8582988 0.8012403
0000a0 52 63 6d 3f 31 b9 68 3f 8a 3f 63 3f e0 46 55 3f
       0.92729676 0.9090758 0.8876883 0.8331127
0000b0 84 5c 78 3f 82 8a 69 3f 0a b1 7d 3f 64 fe 6e 3f
       0.9701617 0.9122697 0.99098265 0.9335692
0000c0 2c 98 5d 3f d3 a0 65 3f 17 b1 5d 3f 61 03 54 3f
       0.8656032 0.89698523 0.8659834 0.82817656
0000d0 5f f0 83 3f f4 89 5c 3f 23 de 84 3f be a0 79 3f
       1.030773 0.86148 1.0380291 0.975109
0000e0 7f 84 63 3f fa 4d 83 3f ec 0f 7f 3f 6a 30 5c 3f
       0.8887405 1.0258172 0.9963367 0.86011374
0000f0 48 82 79 3f d3 e7 65 3f fb 49 53 3f 5e 71 65 3f
       0.9746442 0.8980686 0.8253476 0.8962611
000100 10 db 4e 3f 89 66 80 3f 0b d9 74 3f 47 1e 6c 3f
       0.8080301 1.0031291 0.9564368 0.922337
000110 6e 7d 68 3f 52 82 80 3f dc a2 78 3f 0e 04 74 3f
       0.9081639 1.0039771 0.97123504 0.95318687
000120 13 49 72 3f 94 ed 80 3f 42 46 5c 3f 92 53 7d 3f
       0.9464275 1.0072503 0.86044705 0.98955643
000130 09 5c 6d 3f 73 13 70 3f 50 da 4e 3f c7 81 78 3f
       0.9271856 0.9377968 0.8080187 0.97073025
000140 c0 6e 6d 3f 95 57 73 3f 99 d4 64 3f b8 a0 6d 3f
       0.92747116 0.95055515 0.893869 0.9282336
000150 8c 82 68 3f a0 7b 84 3f c6 36 79 3f 8d 06 75 3f
       0.908242 1.0350227 0.973492 0.9571312
000160 fc 35 5e 3f 62 9a 6e 3f 67 c4 67 3f e2 56 54 3f
       0.86801124 0.9320432 0.9053406 0.8294507
000170 b0 bc 6e 3f 0f 43 65 3f a7 bb 68 3f 9c 2b 63 3f
       0.93256664 0.8955545 0.90911335 0.8873842
000180 3f 8f 66 3f 5b e6 49 3f 5e f3 7a 3f 91 3b 67 3f
       0.90062326 0.7886712 0.980276 0.90325266
000190 e8 1b 6c 3f 7c e8 62 3f 0b 93 81 3f b5 c7 62 3f
       0.9223008 0.88635993 1.0122999 0.8858598
0001a0 bd af 76 3f 8e 7e 4d 3f f9 52 70 3f c6 6f 78 3f
       0.96361905 0.8027123 0.93876606 0.9704555
0001b0 58 70 84 3f 77 e9 77 3f 44 b6 72 3f 70 1f 5e 3f
       1.0346785 0.96840614 0.94809365 0.8676672
0001c0 f9 12 58 3f 53 35 67 3f 93 e1 7c 3f 8e 3a 73 3f
       0.8440395 0.9031574 0.987817 0.9501122
0001d0 3f 37 5f 3f a2 d3 69 3f d5 a3 77 3f 86 6d 71 3f
       0.87193674 0.9133855 0.9673436 0.94307745
0001e0 9d ff 58 3f e6 d1 76 3f 85 e6 88 3f 4f d8 7f 3f
       0.84765035 0.9641403 1.0695349 0.99939436
0001f0 3b 5b 62 3f 4a d7 5e 3f 30 b8 86 3f bb a8 5a 3f
       0.88420457 0.87047255 1.052496 0.8541371

bn2.bias f4 [128]
000000 60 22 0b be e7 59 e6 bd f9 dd 16 be a5 27 32 3d
       -0.13587332 -0.11247616 -0.14733113 0.04349484
000010 2a 51 9d bd 63 4f 62 bd 06 d0 91 bd 23 77 57 bd
       -0.076814964 -0.05525149 -0.071197554 -0.052603852
000020 2c 4e ea bd 49 58 02 be c2 f4 da bc fa ad 22 bd
       -0.11440691 -0.1272899 -0.026728038 -0.0397167
000030 2f da 0f be 31 24 b4 bd 2d b7 4c bd 55 fa a7 bd
       -0.14048074 -0.087959655 -0.049979378 -0.08202044
000040 6e 3e f0 bd fe 8b e5 bd 8e 40 22 bb 75 ea e1 bc
       -0.117306575 -0.11208342 -0.0024757716 -0.027577618
000050 e3 5b d9 bc cd 32 35 be 20 56 92 bd 12 62 34 bd
       -0.026533073 -0.1769516 -0.07145333 -0.04403884
000060 7d e2 ca bd 7f 27 78 bd 17 72 06 be d9 09 97 bd
       -0.099064805 -0.06058454 -0.1312946 -0.07374925
000070 e4 3c 9a bd c7 f8 ab bc c0 a8 d6 bd 3f fd 9e bd
       -0.07531145 -0.02099265 -0.10481405 -0.077631466
000080 6f cb 2f be 9b 8b f9 bd 97 a3 a4 bd 63 a8 9c bd
       -0.17167448 -0.12184831 -0.08039015 -0.07649305
000090 99 9b a5 bd c1 5d d7 bd 85 ac 01 be f9 36 06 bd
       -0.080863185 -0.10515929 -0.12663467 -0.03276727
0000a0 a8 09 2c 3b 69 18 f4 bd 2d 24 00 be 1e ff 04 be
       0.0026250873 -0.11918718 -0.125138 -0.12987944
0000b0 b2 8e 53 bd af b0 0e bd 90 43 76 bd a5 7b fe bd
       -0.051649757 -0.034836467 -0.060123026 -0.12425927
0000c0 10 29 05 be df 4b 13 be d2 58 20 be a6 a9 19 be
       -0.13003945 -0.14384411 -0.15658882 -0.15006122
0000d0 63 6c 18 be 85 ef cb bd 4e 92 eb bd e8 3b a2 bd
       -0.14885096 -0.09957794 -0.11502515 -0.079215825
0000e0 eb 41 dd bd 7b 69 98 bd 79 fb 1b be fe 0a 21 be
       -0.108035885 -0.07441994 -0.15232648 -0.1572685
0000f0 ba f0 94 bd 2b 27 3e bd 6b 32 39 bd 44 99 11 be
       -0.072724774 -0.046424072 -0.045214098 -0.14218622
000100 7a 2a 06 be 1b 84 55 be 71 18 bc bd d0 29 e5 bd
       -0.13102141 -0.20851175 -0.09184349 -0.11189616
000110 fa a9 9e bc 6f cb dc bc 99 da 79 bd 70 2c 2a bd
       -0.01936816 -0.026952473 -0.060999487 -0.041546285
000120 cc 14 cc bd d0 2f ba 3c 53 a3 8c bd a0 21 9b bb
       -0.09964904 0.022727877 -0.06867089 -0.004734233
000130 83 2d 8c bd 47 48 9e bd 67 ae 36 be 5e 08 ab bd
       -0.06844618 -0.077286296 -0.17839967 -0.08351205
000140 96 78 4c bd 33 ae 25 bb 42 79 99 bd 70 0a 91 bd
       -0.049919687 -0.0025280833 -0.07493831 -0.07082069
000150 e7 f5 2b bd 8a d0 42 bd 05 9a 1d be 71 09 0a bd
       -0.041982558 -0.04756216 -0.15390785 -0.03370041
000160 da 3f a8 bd 9c 05 0a be 8c 11 33 bd 56 b5 76 be
       -0.08215304 -0.13478702 -0.043717906 -0.24092612
000170 ef f6 aa bd 9f 94 0c be 92 6d 3e bd 68 92 92 3d
       -0.0834788 -0.1372857 -0.046491213 0.07156831
000180 1c 37 bf bd ba 99 f0 bd b7 73 03 be f1 0c 41 bd
       -0.09336683 -0.11748071 -0.1283711 -0.047131483
000190 64 44 f7 bd 24 4c 24 be 00 6d b3 bd cb af dc bd
       -0.12073591 -0.1604467 -0.087610245 -0.10775717
0001a0 38 52 c7 bd 8c a7 c2 bd 62 f6 8e bd 93 a9 4d be
       -0.09732479 -0.09504613 -0.069805875 -0.20084219
0001b0 c1 4b 80 bd f4 81 04 be 89 01 5a bc fc 0d 19 be
       -0.06264449 -0.12940198 -0.01330603 -0.14946741
0001c0 83 e7 f3 bd 90 a3 01 be 36 87 2d be 45 cb 04 be
       -0.11909392 -0.1266005 -0.1694611 -0.12968166
0001d0 1f 83 36 be 98 da 9b bd 9c ae 12 be 19 cd d0 bd
       -0.17823456 -0.07610053 -0.1432442 -0.10195369
0001e0 6f 27 bb bd cb cf 91 bd 97 b7 9b bd ae c3 93 bd
       -0.09138381 -0.071197115 -0.07603376 -0.07215057
0001f0 07 ca d5 bd bd 35 a4 bd fd 75 e0 bd 2b e0 a5 bd
       -0.10438924 -0.08018062 -0.109600045 -0.08099397

bn2.running_mean f4 [128]
000000 41 12 ea bf 7a 4d 5c bf c1 c9 ce 3d a9 0d 0e bf
       -1.8286821 -0.8605572 0.10097075 -0.55489594
000010 d8 40 95 be ed 4b 8e be a7 2e 7d bf af c6 bf be
       -0.29151034 -0.27792302 -0.9889931 -0.3745627
000020 24 61 2f 3e 94 d2 5e bf de fa 3a bf c7 65 a0 bf
       0.171269 -0.87040067 -0.7303904 -1.253106
000030 13 f6 f3 3c bd 37 0f 3f 51 36 81 3e 6f 69 26 bf
       0.029780423 0.55944425 0.25236753 -0.6500463
000040 73 36 05 bf a6 34 13 bf 4c 4a 77 bf 03 00 9e bf
       -0.5203621 -0.5750221 -0.96597743 -1.2343754
000050 cb 72 66 be bc d3 8a 3f 7c 68 99 bf 55 9d 1f bb
       -0.22504728 1.0845866 -1.1985011 -0.0024355252
000060 81 c1 5d 3d 2f 32 46 3e 20 22 11 3a b5 34 38 bf
       0.054139618 0.19355081 0.0005536396 -0.71955425
000070 04 26 2b bf 49 8a 03 bf e0 1f 6c bf 72 e4 bf be
       -0.6685488 -0.5138288 -0.9223614 -0.37478977
000080 8d 94 bb 3e 1a 24 e7 3f 2c 16 20 3f a8 74 fa be
       0.36636773 1.8057892 0.6253383 -0.48917127
000090 c2 ea 05 bf d7 61 38 bf a9 23 ad 3e a8 25 6a bf
       -0.52311337 -0.7202429 0.3381627 -0.9146371
0000a0 9f 17 e3 bf 7e 78 00 bf 8e 2e 8e bf 7f 5d 79 be
       -1.7741584 -0.50183856 -1.1107957 -0.24352072
0000b0 f2 3e d9 bf 62 12 54 bf 68 52 fd 3e 33 db c9 be
       -1.6972334 -0.8284055 0.49476933 -0.39425048
0000c0 fd 93 97 bd c3 19 22 bf 9e 5d 79 3f 8b 05 95 be
       -0.074012734 -0.6332056 0.97408473 -0.2910579
0000d0 ee 7b 0b bf e1 65 98 bf d4 e2 38 3d e5 d3 a9 be
       -0.54485977 -1.1906091 0.045138195 -0.33169475
0000e0 34 08 c2 be e3 db 46 be 0f 1e a7 3f a5 b4 8d bd
       -0.37896883 -0.19419818 1.3056048 -0.06919221
0000f0 f9 98 0a bf 56 13 b0 bf f1 96 65 bf c4 2d 1a 3e
       -0.5413967 -1.3755901 -0.89683443 0.1505652
000100 70 77 14 bf 6a 7e 1b 3f 8b 4b f9 be 67 7d 20 bf
       -0.5799475 0.6073977 -0.48690447 -0.6269135
000110 d9 09 86 bf dc fe 69 bf 86 73 62 3d 5a a7 f1 bf
       -1.0471755 -0.9140451 0.055285953 -1.8879197
000120 2e c5 16 bd 09 ee b9 bf 32 10 08 bf cb e5 1c c0
       -0.03680914 -1.4525768 -0.5314971 -2.4515254
000130 be 82 a3 be 65 32 90 bf 59 a2 09 bd d2 8f 1b bf
       -0.31935686 -1.1265379 -0.033602092 -0.6076633
000140 0b 2d 92 bf 42 f6 5d bf 37 c4 a6 be 32 fc ae bf
       -1.1419996 -0.86703885 -0.32571575 -1.3670714
000150 c1 e8 d0 bf 54 38 2a bf 4d 6b 26 bf 27 87 91 bf
       -1.6321031 -0.664922 -0.6500748 -1.136937
000160 f2 e3 72 bf 85 d4 81 bd 88 c3 bb bf e0 de d2 3f
       -0.94879067 -0.06339363 -1.4669046 1.6474266
000170 1a 3e 43 bd 26 f4 c6 bf 2d 7c 27 bf 38 e1 31 bf
       -0.047666647 -1.5543258 -0.6542385 -0.6948428
000180 a7 57 7a be 49 9c 5d bf 3b 50 e4 3f 01 2e a7 bf
       -0.24447499 -0.865666 1.7836984 -1.3060914
000190 ed c7 ab 3e 42 50 0c bf 5f c0 3c bf cb 3d 2e bf
       0.3355097 -0.54809964 -0.73731035 -0.6806304
0001a0 11 f0 f0 3f a2 43 a0 be 12 bf 58 bf 02 85 8d be
       1.8823262 -0.313016 -0.8466655 -0.2764054
0001b0 84 e9 2b 3f 49 ff 86 3f b0 12 4a bf 5b 81 38 3f
       0.6715319 1.0546657 -0.78934765 0.7207238
0001c0 17 ae 26 bf a8 20 22 be 10 51 82 3e 38 4d d3 3f
       -0.6510939 -0.1583277 0.2545247 1.650794
0001d0 23 8c 5b 3d 75 d5 97 be b9 f0 5e bd 52 2a e8 be
       0.05360044 -0.29655042 -0.05442879 -0.45344788
0001e0 f0 58 75 bf 86 3f 0d bf 27 f1 10 bf eb 1a c4 be
       -0.9583883 -0.55175054 -0.5661797 -0.38301787
0001f0 94 cc 47 bf 67 15 00 bf 94 51 05 3f 23 5b 42 bf
       -0.78046536 -0.5003266 0.52077603 -0.75920314

bn2.running_var f4 [128]
000000 ff 34 e5 3f 01 ac a9 3f 16 09 21 3f 22 1d 90 3f
       1.7906798 1.3255616 0.6290449 1.1258891
000010 27 a9 1a 3f 10 dd 31 3f 84 db bd 3f a2 2b 1f 3f
       0.60414356 0.6947794 1.4832616 0.62175953
000020 e6 2e 3d 3f 28 c7 6a 3f 49 16 86 3f a7 71 f6 3f
       0.73899686 0.9171014 1.0475551 1.9253434
000030 8e 4c 9f 3f 87 8b 10 3f c8 21 90 3f db f8 00 3f
       1.2445238 0.564629 1.1260309 0.50379723
000040 11 d7 47 3f 09 c1 82 3f c7 ca 44 3f a2 30 b2 3f
       0.7806254 1.021516 0.76871914 1.3921092
000050 f7 97 07 3f f0 09 8e 3f f6 23 dd 3f 3f 92 45 3f
       0.52966255 1.1096783 1.72766 0.7717628
000060 a4 a5 ec 3e 4e 53 11 3f a6 b4 14 3f 4f ab a7 3f
       0.46220124 0.5676774 0.5808815 1.3099154
000070 b2 d6 2b 3f b2 29 1f 3f 48 db c3 3f 8b cb 03 3f
       0.67124474 0.62172997 1.5301294 0.51482457
000080 61 a0 9e 3f ab 40 90 3f 3b c6 38 3f d3 ba 2c 3f
       1.2392694 1.1269735 0.72177476 0.6747257
000090 5d 60 2f 3f c3 4a 87 3f 08 59 41 3f b9 a9 d4 3f
       0.68506414 1.056969 0.75526476 1.6614295
0000a0 3c e6 bc 3f c5 60 76 3f db fb db 3f e4 04 56 3f
       1.4757762 0.9624141 1.7186235 0.8360121
0000b0 41 79 96 3f 3f ae a2 3f 57 eb 30 3f 16 28 3c 3f
       1.1755754 1.2709426 0.691091 0.73498666
0000c0 8b 8f 31 3f 88 14 61 3f f8 68 1c 3f 3e 2f d8 3e
       0.69359654 0.87921953 0.6109767 0.42223543
0000d0 fa 56 06 3f 07 09 ea 3f d7 7d b5 3e 5f 6d 01 3f
       0.52476466 1.8284005 0.3544757 0.5055751
0000e0 b3 db cf 3e 03 7d 0b 3f c5 75 38 3f 7b 01 f6 3e
       0.40597305 0.5448763 0.720547 0.48048005
0000f0 39 f2 5f 3f ff b2 84 3f 7a b7 9a 3f 7e 63 14 3f
       0.8747898 1.0367125 1.2087243 0.57964313
000100 a2 a2 6a 3f e6 78 c7 3e e3 70 2c 3f 32 6a 43 3f
       0.9165441 0.38959426 0.6735975 0.76333916
000110 9b 00 0e 40 a1 9e e2 3e 21 39 e6 3e af 6a b8 3f
       2.218787 0.4426165 0.4496546 1.4407557
000120 26 80 17 3f 03 7d 8b 3f ae fd ab 3f 5b f4 00 40
       0.59179914 1.0897526 1.3436792 2.0149143
000130 36 5f f4 3e 02 4a ec 3f 1e 78 27 3f 7d ec 62 3f
       0.4772889 1.8460085 0.6541766 0.886421
000140 32 57 0a 40 08 16 2a 3f a1 e1 0e 3f fe 1c b9 3f
       2.161572 0.66439867 0.5581303 1.4461973
000150 d4 fc 21 40 6f 8e f1 3e c8 15 33 3f 28 6f ba 3f
       2.5310564 0.4717898 0.6995511 1.4565172
000160 6c bc cc 3f 72 d9 f1 3e c7 71 c2 3f 6d b1 82 3f
       1.5995002 0.4723621 1.5190972 1.0210396
000170 8d 20 82 3f 23 4e ec 3f d8 21 5e 3f f7 af ba 3f
       1.0166184 1.8461345 0.8677039 1.458495
000180 97 93 11 3f 14 4a 92 3f 68 a1 90 3f 85 85 d2 3f
       0.5686583 1.1428857 1.1299257 1.6446997
000190 14 06 50 3f ac ab 0b 3f e0 51 2e 3f b2 bc 82 3f
       0.81259274 0.54558825 0.6809368 1.0213835
0001a0 02 10 bf 3f a8 3a 33 3f ff b7 52 3f 93 ad d9 3e
       1.492676 0.7001138 0.82312006 0.4251524
0001b0 95 65 f3 3e b2 8a 2c 3f c3 6d 9e 3f 5b 8f 94 3f
       0.47538438 0.6739913 1.2377247 1.1606249
0001c0 f9 5e 65 3f 07 2c b5 3e 78 52 1a 3f 38 b5 97 3f
       0.8959804 0.35385153 0.6028209 1.1852179
0001d0 48 c0 3a 3f b2 29 62 3f 7e 11 21 3f 9d 79 45 3f
       0.7294965 0.8834487 0.62917316 0.7713869
0001e0 fc e5 bf 3f 35 e6 2f 3f f4 e0 25 3f d8 c8 2c 3f
       1.4992061 0.68710643 0.64796376 0.67493963
0001f0 85 48 9f 3f 0e cf 36 3f 42 31 02 3f 56 cb a4 3f
       1.2444006 0.7140969 0.5085641 1.2874553

conv3.weight f4 [256, 128, 3]
000000 8f 11 c7 bb ce 8d 11 3c bc a0 29 3c 86 10 39 bd
       -0.006075091 0.0088839065 0.0103532635 -0.045181774
000010 6c e0 be 3b 60 73 86 bc 8a e7 20 bd 83 be cf 3c
       0.005825093 -0.016412437 -0.039283313 0.025359398
000020 7c a3 7d bc 3c 73 8d 3d 2a b1 d3 3c ad 5a c5 3c
       -0.015480872 0.06906745 0.025841314 0.02409109
000030 73 ba 9c bc 39 3d 8c bb 9b fe 3b 3d 12 1e 47 bd
       -0.019131875 -0.0042797592 0.045897108 -0.04861266
000040 58 ca 06 bd b8 a3 52 bd 9d e2 8c bb da 1b 26 3d
       -0.032907814 -0.051425666 -0.0042994753 0.040553905
000050 8b 97 12 3d 16 6a f5 bb 50 05 24 bd 74 61 9e bd
       0.035789054 -0.007489453 -0.04004413 -0.077334315
000060 1d 86 62 bb 64 0f e3 3c 43 c6 f6 3c 13 42 9c 3b
       -0.00345648 0.0277173 0.030123835 0.004768619
000070 b2 1c 2d 3a c8 42 89 3c 01 7d 04 3d e7 51 21 3d
       0.0006603702 0.016755477 0.032345776 0.03938475
000080 82 d8 16 3c a9 20 75 3c c9 18 d8 bc 6b 30 11 bd
       0.009206893 0.0149614 -0.026379006 -0.035446566
000090 d5 f9 42 3d c9 36 66 3c 57 56 f4 3b d4 82 9c bc
       0.04760154 0.014051148 0.0074565816 -0.019105352
0000a0 ae af 9b bc 8d ac 1d bd 51 1c 8e bc b9 b7 4b bb
       -0.019004669 -0.038494635 -0.017347487 -0.003108485
0000b0 00 b6 43 3c b8 9c ca bc cf cb 3b bc 5f 34 1f bd
       0.011945248 -0.024732932 -0.011462166 -0.038868304
0000c0 a2 7c 73 bd d7 6a d8 3c b4 cf 4d bc 4e 85 b3 3d
       -0.05944503 0.026418133 -0.012561727 0.0876566
0000d0 6e c6 87 3a 4a 37 34 3d 21 ba e6 3c 6f d5 6e 3d
       0.0010358819 0.04399804 0.028164925 0.058309015
0000e0 d5 b8 dd 3c ce f9 8c bd 1e 1b 4b bd 06 bc 76 bd
       0.027065674 -0.06883584 -0.049586408 -0.060237907
0000f0 6e dc 51 3d f3 a5 2b 3d ae e3 99 3d 4c 95 98 bb
       0.05123561 0.04190631 0.075141296 -0.0046564694
000100 28 ac cd 3c 1a 23 ff 3c c8 08 b3 bc 72 f6 3c bd
       0.025106505 0.031144667 -0.021854773 -0.046133466
000110 1e e8 26 bd 20 1e 07 3d 6a 82 4c 3d 3b 99 bd 3d
       -0.040748708 0.032987714 0.04992906 0.09257742
000120 e2 5a 06 3d 0a 94 19 3c 40 cb 06 3d de de 8b bc
       0.032801516 0.009373674 0.032908678 -0.017074045
000130 ea 64 5a 3d 32 bc 4b 3c e3 13 6c bc 3a e0 14 3d
       0.053318895 0.012435006 -0.014409038 0.03634665
000140 20 20 21 3c f6 b6 11 3c e6 45 0e 3c f4 eb 02 3c
       0.009834319 0.008893719 0.008683657 0.007990826
000150 9a f1 bf 3b ce 4e 42 3d df 97 66 3d cd ae 4c bb
       0.0058576586 0.047438435 0.05629718 -0.003123212
000160 53 95 5e bc 1a 4a b5 3a 7a d8 99 3c ed 2b 66 bb
       -0.013585406 0.0013831288 0.018779982 -0.0035121397
000170 06 57 9c 3b 1e 75 66 bc 11 c7 d7 bc 09 40 24 bd
       0.004771116 -0.014066009 -0.02634004 -0.04010013
000180 52 ee 1a bd 3e dd b2 3c a7 ab e3 bc 80 12 9a bc
       -0.037824936 0.021834012 -0.027791811 -0.01880765
000190 b7 42 fa bc 28 38 ce bc 78 2c 0e bd 9c 73 ca bc
       -0.03054939 -0.025173262 -0.034710377 -0.02471333
0001a0 61 71 a4 bc 2c b7 2d 3c 0b b0 91 3c d3 93 3a 3d
       -0.020073595 0.010602754 0.01778414 0.045551132
0001b0 8b 84 77 bb a5 23 1c bc 77 42 23 bd 20 17 32 3b
       -0.003776821 -0.009529983 -0.039858308 0.0027174428
0001c0 76 05 3b 3c 75 5c 50 bc c0 3c 55 3a c3 32 3e bb
       0.011414876 -0.012717356 0.00081343576 -0.0029021956
0001d0 d2 58 49 bd 2e 84 9e bc 8c ab 89 bc 47 fc 84 3c
       -0.04915697 -0.019350138 -0.016805433 0.016233576
0001e0 bd 75 56 bd bb 66 c3 bc 79 0f 65 bd 57 b0 40 bd
       -0.052358378 -0.023852697 -0.05592296 -0.04704317
0001f0 25 16 4f bd b0 43 14 3b 93 ea 80 bb ab 0d 3b bc
       -0.050558228 0.0022623353 -0.0039342134 -0.011416833
000200 92 e0 0b bd 5b bf 19 3c 80 e7 b8 bb 6f 95 1e bd
       -0.034149714 0.009384002 -0.0056428313 -0.03871673
000210 1e d7 8a 3c 65 2e 10 3d 92 c8 2b 3d b9 26 fc b9
       0.016948279 0.035200495 0.041939326 -0.00048094036
000220 12 a3 a7 bc d6 db 43 bd de 2f ff bc b0 9d 00 bd
       -0.0204635 -0.047817074 -0.031150755 -0.031400383
000230 52 8b 7a bc 4e f6 07 3d 46 ff f8 b8 62 02 69 3d
       -0.015292006 0.03319388 -0.0001187311 0.056887038
000240 e7 f4 e4 3b b7 23 59 3d 5b 61 b0 bc 06 ec 44 3d
       0.0069872024 0.053012576 -0.021530798 0.048076652
000250 8e e1 d5 bb 24 ff 66 ba 3c ac 13 bc 69 f5 7b bc
       -0.0065271324 -0.00088118226 -0.009013232 -0.015378335
000260 86 0f 3f b9 1a 44 1f 3c e4 83 42 3b 47 bc ea 3c
       -0.00018220962 0.0097208265 0.0029680664 0.02865423
000270 9f 0b 10 3c 07 7b 9d bd 94 7c f0 bc 8d 80 8c ba
       0.008791833 -0.07689481 -0.029356278 -0.0010719463
000280 f0 bd 84 bb 0b eb 6d bd 78 14 c4 3d 0f 84 4b 3d
       -0.0040509626 -0.058085483 0.095742166 0.049686488
000290 c9 d1 a3 3d 32 36 96 3d b4 ac f7 3c f4 34 13 3c
       0.07998998 0.07334556 0.030233718 0.008984793
0002a0 e2 39 50 3d 0e de 5e 3c b3 46 08 bc f2 fa d2 3c
       0.05083645 0.013602747 -0.008317637 0.025754426
0002b0 95 9a 02 3d f7 6f f2 3c 77 e9 04 3a 8c 54 71 bd
       0.031885702 0.029594405 0.00050701894 -0.05891852
0002c0 dc 2f fc bc 71 25 de bc 1f b6 0f 3d cc b4 b0 39
       -0.03078454 -0.027117463 0.035085794 0.0003370404
0002d0 0b 35 a1 bc 0f ed 6b bd 76 eb f5 bc e6 ed 07 3d
       -0.019678613 -0.057599124 -0.030019503 0.033185862
0002e0 ef b5 09 3d 61 90 a9 bc 3c 35 77 bd d9 9d a7 3b
       0.03362077 -0.020698728 -0.060353503 0.0051152525
0002f0 e3 92 36 bc 9f ad 68 bd 76 77 47 bd 9d e7 be bc
       -0.011143419 -0.056806203 -0.04869791 -0.023303801
000300 35 54 a9 3b ef 2e d1 3c 79 69 d9 3c b4 f4 1f 3d
       0.005167509 0.025535075 0.026539551 0.039051726
000310 30 9d 56 3d 7d 25 de 3d e4 5f bf 3b 2c 78 17 3d
       0.052396 0.10846994 0.0058402885 0.03697984
000320 fe 99 f8 3b 34 0a 33 bd 42 7a 78 bc de ed 8c 3c
       0.0075867167 -0.043710902 -0.015165867 0.017203268
000330 46 2f b0 bb b7 05 97 bc 81 28 cf bc ee b5 be bc
       -0.005376729 -0.018435342 -0.025287868 -0.02328011
000340 df 23 9c 3c 95 50 8f 3c 06 b0 99 bd 46 3e 90 bd
       0.019060073 0.01749448 -0.07504277 -0.07043128
000350 80 a4 73 bc fd 6e 0d 3d cd 6c f0 3c 99 41 a5 3c
       -0.014870763 0.034529675 0.029348755 0.020172881
000360 23 0f c0 3c be 1c 1c 3d e8 f6 30 bc 53 64 05 bb
       0.023444718 0.03811335 -0.010801055 -0.0020353987
000370 01 1b 5b 3d a4 ab 12 bc 5b c8 12 bc 67 3d 6d bc
       0.05349255 -0.008952055 -0.008958901 -0.0144799715
000380 a1 ef 4b bd ae de 16 3d a7 7d 23 3c 6f 3c 22 bb
       -0.049789075 0.036833458 0.009978688 -0.002475526
000390 45 3e 9f 3d 3a c9 3b 3d 97 6d 49 3d 3f 24 98 bd
       0.07775549 0.0458462 0.04917678 -0.074287884
0003a0 69 5c 44 bc 33 f5 fc bc f2 7b 2c 3d 4f a4 ab ba
       -0.011984923 -0.030878639 0.04211039 -0.0013095232
0003b0 c8 cb be 3c db bc b8 bc 30 49 0e 3d 08 a6 d1 bc
       0.02329053 -0.02255099 0.034737766 -0.025591865
0003c0 ae e3 23 bd e4 32 8e bc 75 32 ad bb 03 1a 65 bd
       -0.040012054 -0.01735825 -0.005285556 -0.05593301
0003d0 36 27 8d bd 34 19 98 bc 32 73 d0 3b 17 fb 88 3c
       -0.068922445 -0.018566705 0.0063613886 0.016721291
0003e0 fd 78 87 3c 5e bf 38 3c 0b 97 dc 3c 59 15 06 3c
       0.016537184 0.011276094 0.026927492 0.008183801
0003f0 01 a2 14 bd e6 ee 87 bd 38 ba 3f bd fe f9 69 bd
       -0.03628731 -0.06637363 -0.04680845 -0.057123177
