peak_extractor.pt (torch, 16142 bytes, 5 tensors)

net.0.weight f4 [16, 1, 5]
0	0x3e28ecaa	0.1649653
1	0x3d3b62e1	0.045748595
2	0x3f1155b6	0.5677141
3	0x3df32f13	0.11874213
4	0x3ecd11d3	0.4005266
5	0xbf7ccd12	-0.9875041
6	0xbee332b5	-0.44374624
7	0x3cdd7618	0.02703385
8	0x3f5afefe	0.8554534
9	0x3f4feb69	0.8121858
10	0xbf5297b6	-0.8226274
11	0x3e5e91cd	0.21735306
12	0x3f74f135	0.9568055
13	0xbeddf4a5	-0.4335071
14	0x3dbfef56	0.093718216
15	0x3f7a2295	0.9770902
16	0x3f347c4b	0.70502156
17	0xbe6c2fb5	-0.23065074
18	0xbf16bbfa	-0.5888058
19	0xbf536d7c	-0.82588935
20	0xbe9cdf31	-0.30639032
21	0x3d89898c	0.06715688
22	0xbf2cc229	-0.67483765
23	0xbec9985c	-0.39374053
24	0x3ded0ec6	0.115750834
25	0x3a1d8a5b	0.0006009691
26	0x3a778491	0.0009442056
27	0x3a7590ec	0.00093676033
28	0x3a0474ba	0.0005052794
29	0x3a9ee4e6	0.001212266
30	0x3e8da657	0.2766597
31	0xbd84606c	-0.064637035
32	0x3f0b6f18	0.5446639
33	0xbef1c0fe	-0.47217554
34	0xbf5c5cd3	-0.8607914
35	0x3bc89166	0.0061208485
36	0x3b62b86b	0.0034594785
37	0x3ad5712f	0.0016284342
38	0xb871529c	-5.7535814e-05
39	0xbb4a3965	-0.0030856964
40	0x3f6ae1a8	0.91750574
41	0xbf52e067	-0.8237366
42	0xbdfbbb91	-0.12291635
43	0x3f67ba0c	0.9051826
44	0xbf1b961a	-0.6077591
45	0xbf169243	-0.5881693
46	0x3f2c3dc5	0.6728175
47	0xbf0bf98a	-0.5467764
48	0xbef3860e	-0.47563213
49	0x3f86d357	1.0533246
50	0xbf3e1eda	-0.74265826
51	0xbe6a0fe1	-0.2285762
52	0xbea83753	-0.3285471
53	0x3ea7a49e	0.3274278
54	0x3f500844	0.8126261
55	0x3f84c93a	1.037391
56	0x3ea8b758	0.3295238
57	0x3c430489	0.011902937
58	0xbf383ad5	-0.7196477
59	0xbf36e008	-0.71435595
60	0x3c111d8f	0.008857145
61	0x3b1031ee	0.0022002417
62	0x3af1af15	0.0018439019
63	0xbab04330	-0.0013447758
64	0xbbcdc696	-0.006279777
65	0x3de7ec34	0.11324349
66	0x3e62bc2f	0.22142099
67	0x3e9b4310	0.30324602
68	0x3e468c7f	0.19389533
69	0x3e83d7f8	0.2575071
70	0xbf3c2692	-0.73496354
71	0xbea9d75b	-0.33172116
72	0xbcb0135d	-0.021493608
73	0x3f1b4ede	0.60667217
74	0x3eaa0451	0.33206418
75	0x3f60b2ba	0.87772715
76	0x3dda3a09	0.106556006
77	0x3ea2c6c4	0.3179227
78	0xbea0efe0	-0.3143301
79	0xbf836c0a	-1.0267346

net.0.bias f4 [16]
0	0xbe5cc269	-0.21558537
1	0xbee25a7d	-0.44209662
2	0xbcb8d917	-0.022564454
3	0xbc159b9f	-0.009131341
4	0xbf4d3306	-0.8015598
5	0xbcd14672	-0.025546286
6	0xbe4ec4f9	-0.20192327
7	0xbd8aefe9	-0.067840405
8	0x3db49373	0.08817186
9	0x3d6f2784	0.058387294
10	0xbe80a3d4	-0.2512499
11	0x3e8b28f1	0.27179673
12	0xbcf9f129	-0.030510502
13	0xbf5f2455	-0.87164813
14	0x3d77a977	0.06046435
15	0xbdabecf7	-0.08394807

net.3.weight f4 [32, 16, 5]
0	0x3e4676f0	0.19381309
1	0x3de136fa	0.10996814
2	0x3b59d212	0.0033236784
3	0x3d50244b	0.05081586
4	0x3d719800	0.05898285
5	0xbdaecf90	-0.08535683
6	0xbe54f61b	-0.20797007
7	0xbe472c09	-0.19450392
8	0x3d908da6	0.07058267
9	0x3dc55ba8	0.09636623
10	0x3e8c0c1d	0.27352992
11	0x3d2a42e8	0.041567713
12	0xbe0e404f	-0.1389172
13	0xbd732a00	-0.059366226
14	0x3df7bfca	0.12097128
15	0xbbaf7b74	-0.005355293
16	0x3e6e8c6f	0.23295759
17	0x3da9c3f3	0.082893275
18	0xbdb6c4b1	-0.08924235
19	0xbdafa8ce	-0.08577119
20	0xbe62d402	-0.22151187
21	0xbea9636b	-0.33083662
22	0xbea6458b	-0.32474932
23	0xbe4f73f7	-0.20259081
24	0xbeab3724	-0.33440506
25	0xb0d1fb11	-1.5278109e-09
26	0x314829cc	2.912759e-09
27	0x31ed9da2	6.9155286e-09
28	0x326a5711	1.3640389e-08
29	0x326cad61	1.377643e-08
30	0x3ef5e3a7	0.48025247
31	0x3d7890ae	0.060684852
32	0xbcd60960	-0.026127517
33	0xbe166c74	-0.14689809
34	0xbeb25f82	-0.34838492
35	0x3ccc5abb	0.024945607
36	0x3ce46576	0.027880412
37	0x3d012655	0.031530697
38	0x3d07e0ec	0.033173487
39	0x3ce8e779	0.028430687
40	0x3e0150a8	0.12628424
41	0x3dfc2fe4	0.12313822
42	0xbd77fc76	-0.0605435
43	0xbdd194d1	-0.102334626
44	0xbe9690dd	-0.29407397
45	0x3cc8d263	0.024514383
46	0xbe492c3a	-0.19645777
47	0xbd9948ce	-0.074845895
48	0x3e590f78	0.21197307
49	0xbd820025	-0.06347684
50	0xbd9dff0b	-0.07714661
51	0xbd1a7aaf	-0.037714656
52	0xbe80414b	-0.25049815
53	0x3d895f82	0.0670767
54	0x3da6ced5	0.08144919
55	0x3d2d36b9	0.042288516
56	0x3ea413a9	0.3204625
57	0x3e5a260a	0.21303573
58	0xbea5ee87	-0.32408544
59	0xbf0fc919	-0.56166226
60	0x38c22480	9.2574395e-05
61	0x380a8005	3.302099e-05
62	0xba0316e7	-0.0005000666
63	0xb7336d6e	-1.069471e-05
64	0xb772aac6	-1.4464085e-05
65	0x3e2bc479	0.16774167
66	0x3ddfdd1a	0.10930844
67	0xbd1a91b8	-0.037736624
68	0xbe08b519	-0.13350333
69	0xbe3f9c60	-0.18711996
70	0xbdffe0d9	-0.12494058
71	0xbe8d313b	-0.27576622
72	0x3ba3f014	0.005002985
73	0x3e455a67	0.19272767
74	0x3e817385	0.25283447
75	0xbca47bc6	-0.020078551
76	0x3e20b72d	0.15694876
77	0xbdf2a0fb	-0.11847111
78	0xbd74b9ae	-0.05974739
79	0xbd6f7e78	-0.05847022
80	0x3d5ca441	0.053867582
81	0x3cd98675	0.026553372
82	0x3c4f7ba8	0.012663759
83	0x3c705f23	0.01467112
84	0x3d194c89	0.037426505
85	0x3ca2c3f0	0.01986882
86	0x3af16d9a	0.0018419505
87	0x3c215e07	0.009849078
88	0x3d33154e	0.04372149
89	0x3d841a75	0.06450359
90	0x3c05ffd1	0.008178667
91	0xbc24e46d	-0.010064227
92	0xbd425717	-0.047446337
93	0x3c5dc311	0.013535277
94	0xbbfb7340	-0.007673651
95	0xbd945dbb	-0.0724444
96	0xbd50b338	-0.050952166
97	0xbd849744	-0.06474164
98	0xbc74ddfc	-0.014945503
99	0xbb138794	-0.002251123
100	0x3e02d70d	0.12777348
101	0x3ddaf67c	0.106915444
102	0x3e04bc06	0.1296235
103	0x3e226e6a	0.15862432
104	0xbdbd4f21	-0.09243608
105	0xa743dc4d	-2.7181112e-15
106	0xa8dbcf2e	-2.4403734e-14
107	0xa96db322	-5.2779944e-14
108	0xa966097c	-5.1078486e-14
109	0xa8b550c0	-2.0130056e-14
110	0x3c02f5de	0.00799319
111	0x3c525a1b	0.012838866
112	0x3cc675e0	0.024226129
113	0x3d2da57e	0.042394154
114	0xbe2c7fc2	-0.1684561
115	0x3c20ddde	0.009818522
116	0x3c48ec95	0.012263437
117	0x3c6a2f1c	0.014293458
118	0x3c85853f	0.016298888
119	0x3bdd15e8	0.006746996
120	0x3d2cb104	0.042161003
121	0x3c4b2b27	0.012400425
122	0x3c575fb9	0.013145381
123	0xbce5fd1b	-0.028074792
124	0xbb269e6b	-0.0025424014
125	0x3bc8388c	0.0061102565
126	0xbcd92173	-0.026505208
127	0xbb886e5c	-0.0041635465
128	0x3df0fff1	0.11767567
129	0xbcf6d469	-0.030130582
130	0xbca015cd	-0.019541645
131	0xbd133201	-0.03593636
132	0xba307e0a	-0.00067326485
133	0x3db687a1	0.08912588
134	0x3d646325	0.055758614
135	0xbe4c2783	-0.19936948
136	0xbe23938d	-0.15974255
137	0xbe289f98	-0.1646713
138	0xbd6a9366	-0.057269476
139	0xbe1820e9	-0.14856304
140	0x2fef4b87	4.3527512e-10
141	0x30b49ff4	1.3142185e-09
142	0x3050480d	7.577235e-10
143	0x3a3de122	0.0007243325
144	0xb780346c	-1.52832e-05
145	0x3dc5ef3f	0.09664773
146	0x3de26264	0.11053923
147	0x3dfa11e5	0.12210444
148	0x3e047160	0.12933874
149	0x3e16ad89	0.14714636
150	0xbdd32681	-0.103100784
151	0xbe0a0c4b	-0.13481252
152	0xbdc09081	-0.09402562
153	0xbd8ad0f0	-0.06778133
154	0xbcc8d2b0	-0.024514526
155	0xbc8b2826	-0.016986918
156	0xbb8897d6	-0.004168491
157	0xbbe1bc22	-0.0068888823
158	0x3cdc02ff	0.026856897
159	0x3cbf5ce4	0.023359723
160	0xbcb9406d	-0.022613728
161	0x3dfb2e35	0.12264673
162	0x3e31f459	0.17378367
163	0x3e5d5df0	0.21617866
164	0x3e978d91	0.29600194
165	0xbe301853	-0.17196779
166	0xbe498fe6	-0.19683799
167	0xbe7d05d7	-0.24709259
168	0xbe55a64b	-0.20864217
169	0xbe27dd52	-0.16393021
170	0x3d870154	0.0659205
171	0x3db34553	0.08753457
172	0xbbb70009	-0.005584721
173	0x3d058307	0.03259566
174	0x3dae88cc	0.08522186
175	0xbe054fff	-0.13018797
176	0xbe01084d	-0.12600823
177	0xbe0c5caa	-0.13707224
178	0xbe09f996	-0.13474116
179	0xbd3ef764	-0.04662265
180	0x3e968d24	0.29404557
181	0x3de978d9	0.11400003
182	0xbdc6bb7a	-0.09703727
183	0xbe36ac14	-0.1783908
184	0xbdc55f31	-0.09637297
185	0x2d84f349	1.5114703e-11
186	0x2b859bf9	9.49351e-13
187	0x294506bb	4.3748625e-14
188	0x2949e244	4.482722e-14
189	0x2a9a0284	2.735764e-13
190	0x3d84cbdc	0.064841956
191	0xbce6800b	-0.028137228
192	0xbe3972d9	-0.18110217
193	0xbe2a2173	-0.16614322
194	0xbe262845	-0.16226299
195	0x3c4bec8f	0.012446537
196	0x3c691669	0.014226534
197	0x3c57f213	0.013180274
198	0x3caa6476	0.020799857
199	0x3d0fdc8b	0.035122436
200	0x3daaf0bb	0.08346697
201	0x3d931642	0.0718198
202	0x3c7b407c	0.0153351985
203	0x3da6784a	0.08128412
204	0x3dc96309	0.098333426
205	0x3e193974	0.14963323
206	0x3e0e7236	0.13910756
207	0x3d419910	0.047265112
208	0x3de147ef	0.11000048
209	0x3ddff37b	0.10935112
210	0xba272750	-0.00063764025
211	0xbcfc1deb	-0.030775985
212	0xbd70e91c	-0.05881606
213	0xbcd1d111	-0.025612386
214	0xbd82fbbe	-0.06395672
215	0xbe2a4037	-0.16626059
216	0xbe61eae4	-0.2206226
217	0xbea9f6ad	-0.3319601
218	0xbeb65fa8	-0.35619855
219	0xbe899d87	-0.26877996
220	0x347c46bd	2.3495063e-07
221	0x35a35bb0	1.2171131e-06
222	0x3644d12b	2.9328028e-06
223	0x369e42eb	4.716557e-06
224	0x36acbc67	5.1479324e-06
225	0xbde6fa6d	-0.11278234
226	0xbe4e370b	-0.20138185
227	0xbe574359	-0.21021785
228	0xbe35cc5a	-0.17753735
229	0xbe09bf0e	-0.13451788
230	0xbba472b6	-0.0050185574
231	0x3bccfdf5	0.00625586
232	0xbc409bf1	-0.011755929
233	0xbd3cfd06	-0.04613974
234	0xbd01698e	-0.031594805
235	0xbd0738fd	-0.033013333
236	0xbd9e3382	-0.07724668
237	0xbd34c582	-0.04413367
238	0xbd808b0a	-0.062765196
239	0xbc30fab1	-0.010801957
240	0x3d3f5017	0.04670724
241	0x3dd1a52a	0.10236581
242	0x3dec67ee	0.115432605
243	0x3de74dc8	0.112941325
244	0x3d91f1e5	0.07126216
245	0xbe346d09	-0.17619719
246	0xbe0c4a30	-0.13700175
247	0xbe80a582	-0.25126272
248	0xbe6f5e6a	-0.2337586
249	0xbe6b5c62	-0.2298446
250	0x3daffb2c	0.08592829
251	0x3cb8295b	0.022480657
252	0xbe2714cb	-0.16316526
253	0xbce1b12b	-0.0275503
254	0xbdecd3a0	-0.11563802
255	0xbe2849d0	-0.16434407

net.3.bias f4 [32]
0	0xbdbf05c8	-0.093272746
1	0xbef91e34	-0.48655856
2	0x3cc52fd0	0.02407065
3	0x3e863815	0.26214662
4	0x3e05332b	0.130078
5	0x3ccf63e0	0.025316179
6	0xb3ef8edb	-1.115529e-07
7	0x3d6c5f70	0.057708204
8	0xb06c8d4a	-8.6057084e-10
9	0xbd9e4b76	-0.07729237
10	0x3e836ffb	0.25671372
11	0x3ee467bd	0.44610396
12	0x3d89ad8d	0.06722555
13	0x3e785487	0.24250995
14	0xbe7f8c24	-0.24955803
15	0x3de1aa51	0.110188134
16	0x3eca0d74	0.3946339
17	0xbf44b0da	-0.76832354
18	0x3e046651	0.12929656
19	0xbe6e6846	-0.23281965
20	0x3e3023cf	0.1720116
21	0xbc3fed2a	-0.011714259
22	0xbd46f57d	-0.04857396
23	0x3ed9c3c9	0.42532185
24	0x3ecab441	0.39590648
25	0xbee97a5c	-0.45601165
26	0xbf0bbdce	-0.54586494
27	0x3e884c97	0.26620933
28	0x3df7bf6e	0.12097059
29	0x3e5947fc	0.21218866
30	0x3e5cc511	0.2155955
31	0x3d28834c	0.04114084

net.8.weight f4 [1, 640]
0	0xbe04e3df	-0.12977551
1	0xbe34acc9	-0.17644037
2	0xbe136d99	-0.14397277
3	0xbe013d3a	-0.12621012
4	0xbe943354	-0.2894541
5	0xbebd5520	-0.36979008
6	0xbee3a3be	-0.44460863
7	0xbf01e33a	-0.50737345
8	0xbf02d7e0	-0.5111065
9	0xbed38560	-0.41312695
10	0xbdec1085	-0.11526588
11	0xbe133d3e	-0.14378831
12	0xbcc0aeba	-0.023520816
13	0x3db44af2	0.08803357
14	0x3db04d7b	0.08608528
15	0x3e814163	0.252452
16	0x3e60b47d	0.21943851
17	0x3e96c7a3	0.29449186
18	0x3efd507b	0.49475464
19	0xbdb3d9a9	-0.0878175
20	0x3c198bb3	0.009371686
21	0x3e074ae8	0.13212168
22	0x3e07ed30	0.13274074
23	0x3dc2cef1	0.09512127
24	0x3ca5231c	0.020158343
25	0xbbb01dad	-0.0053746314
26	0xbc1a7962	-0.009428354
27	0x3d6e7505	0.058217067
28	0x3e310a55	0.17289098
29	0x3e7c20e8	0.24621928
30	0x3dee651e	0.1164038
31	0x3ca7057e	0.020388361
32	0x3dedc83d	0.11610458
33	0x3e582ed3	0.21111612
34	0x3e1d3c48	0.15355027
35	0x3dfdf10d	0.123994924
36	0x3a37c9d3	0.000701097
37	0xbd6d6607	-0.05795863
38	0xbded1a84	-0.11577323
39	0x3e314833	0.17312698
40	0x3d17bbd3	0.037044358
41	0x3e2e9047	0.17047225
42	0x3e6664e8	0.2249943
43	0x3e393346	0.18085966
44	0x3e579845	0.2105418
45	0x3ebeb003	0.3724366
46	0x3ebfeab8	0.37483764
47	0x3e5996b7	0.212489
48	0x3e68b0b6	0.2272366
49	0x3e9f0f41	0.31066325
50	0x3f04a813	0.5181896
51	0x3e85cba0	0.26131916
52	0x3ea5af60	0.32360363
53	0x3e31052d	0.1728713
54	0x3d91369d	0.07090495
55	0x3d8e5f65	0.06951789
56	0xbca601fb	-0.020264616
57	0xbdb5cbbe	-0.08876751
58	0x3d48a70c	0.048987433
59	0xbe3cf2b1	-0.18451954
60	0x3e23cecf	0.1599686
61	0x3e77e360	0.2420783
62	0x3e0a987d	0.13534732
63	0x3e5d2a37	0.21598135
64	0x3e0edaa4	0.13950592
65	0x3dbf78be	0.093492016
66	0x3ccbb389	0.024865882
67	0x3dd3154a	0.10306795
68	0x3dc302b5	0.09522001
69	0x3f0bd464	0.5462096
70	0x3ef76ccc	0.48325193
71	0x3e43d3bc	0.19123739
72	0x3d26920a	0.040666617
73	0x3d936d32	0.07198562
74	0xbd2e7999	-0.042596433
75	0xbe50c564	-0.20387799
76	0xbe9138ad	-0.28363553
77	0xbe24ba48	-0.16086686
78	0xbe90da3b	-0.28291497
79	0xbe103a2b	-0.1408469
80	0xbd031f33	-0.032012176
81	0x3e4e33c4	0.20136935
82	0x3e7c9d9a	0.24669495
83	0x3e84df76	0.25951737
84	0x3e4eb2a5	0.20185335
85	0x3e8a48d8	0.270087
86	0x3e69b065	0.22821195
87	0x3e841d47	0.25803587
88	0x3e8aab77	0.27083942
89	0x3e7232ca	0.23652187
90	0x3e677d4a	0.22606388
91	0x3e9e19a7	0.30878946
92	0x3ea12474	0.31473124
93	0x3e7ce803	0.2469788
94	0x3e1da78c	0.15395945
95	0x3de58d2c	0.11208567
96	0xbd80e4fa	-0.06293674
97	0xbdb4b390	-0.08823311
98	0x3da7557a	0.081706
99	0xbd06d95b	-0.03292213
100	0x3d9e0671	0.07716072
101	0x3e67f393	0.2265151
102	0x3e36af59	0.17840327
103	0x3c2c246a	0.010506729
104	0x3d99c7a2	0.0750878
105	0x3e173e9b	0.14769976
106	0x3d3b8bf9	0.045787785
107	0xbe378e65	-0.17925413
108	0xbeda536f	-0.4264178
109	0xbf3eb163	-0.7448942
110	0xbf369b2b	-0.7133052
111	0xbf22aeb1	-0.6354781
112	0xbe91309f	-0.28357407
113	0xbddc9112	-0.107698575
114	0xbda0d336	-0.07852785
115	0x3c8711bd	0.01648795
116	0x3c9287da	0.017887045
117	0x3dbc31f2	0.09189214
118	0x3e451190	0.19244981
119	0x3e323389	0.17402472
120	0xb0192cfe	-5.5725013e-10
121	0xb14df001	-2.9967853e-09
122	0x2ea2556e	7.3820824e-11
123	0x2bd18ae9	1.4888898e-12
124	0xace91f3b	-6.6257256e-12
125	0xab0525f8	-4.7303784e-13
126	0x294d745e	4.5620076e-14
127	0xa9a8e974	-7.5011964e-14
128	0x2a80e42c	2.2895694e-13
129	0xa8f95e23	-2.7685379e-14
130	0xa9a25f30	-7.2107576e-14
131	0x2dbf795f	2.1768086e-11
132	0x2f233548	1.4843693e-10
133	0xb38d7fa2	-6.5890404e-08
134	0x33043f03	3.0790954e-08
135	0xb3adbcba	-8.0902694e-08
136	0x35c19a5a	1.4424543e-06
137	0x35ca6575	1.5079701e-06
138	0xb4bf248f	-3.5603122e-07
139	0xb3ad5376	-8.071122e-08
140	0x3e174984	0.14774138
141	0x3d81092a	0.06300576
142	0x3e3a8a3e	0.18216798
143	0x3e722b70	0.23649383
144	0x3e997adf	0.29976556
145	0x3e77958e	0.24178144
146	0x3e6caf21	0.23113681
147	0x3e2dbf69	0.16967548
148	0x3d9c058a	0.07618244
149	0x3dbcf4a8	0.09226352
150	0x3d1e107a	0.038589932
151	0xbce97663	-0.028498834
152	0xbd2e8efe	-0.042616837
153	0x3db0d845	0.08635
154	0x3ea676e1	0.32512572
155	0x3e3dfa8c	0.18552607
156	0x3dee954f	0.11649572
157	0x3e0d2f17	0.13787495
158	0x3e39d24e	0.18146631
159	0x3cc4b1b7	0.024010522
160	0xa4356f2d	-3.9342288e-17
161	0xa0015417	-1.0954548e-19
162	0x0aa0cb9e	1.5484032e-32
163	0x8009535a	-8.5642e-40
164	0x8041da11	-6.047535e-39
165	0x0042d2ad	6.136719e-39
166	0xad41152b	-1.097548e-11
167	0x8011da58	-1.63953e-39
168	0xb04a9cc6	-7.370996e-10
169	0x803ee0ad	-5.774399e-39
170	0xad853511	-1.5143916e-11
171	0x00218fd9	3.082174e-39
172	0xa94b1e1d	-4.5101174e-14
173	0xa2f9e4bd	-6.773377e-18
174	0x001af334	2.474968e-39
175	0x05be5a24	1.7900627e-35
176	0xa14f3edf	-7.0217537e-19
177	0x10bb7411	7.3937323e-29
178	0xa9034f90	-2.9156853e-14
179	0x9acb390e	-8.405101e-23
180	0x3e4d2eac	0.20037335
181	0x3d1f180f	0.038841303
182	0x3e2d8dc3	0.16948609
183	0x3e267441	0.16255285
184	0x3e4f7450	0.20259213
185	0x3e683d57	0.2267965
186	0x3e2213a6	0.15827808
187	0x3dc0dbbc	0.09416911
188	0x3e16620e	0.14685842
189	0x3dfb8ec3	0.12283089
190	0x3e3f6728	0.18691695
191	0x3e100dd6	0.14067778
192	0x3e49ee23	0.19719748
193	0x3eaa7010	0.33288622
194	0x3ee604a6	0.4492542
195	0x3ec1abd5	0.3782641
196	0x3f060cc2	0.52363217
197	0x3f175589	0.5911489
198	0x3e8b0a3c	0.27156246
199	0x3e8a3f91	0.27001622
200	0x3cde62a0	0.027146637
201	0x3e742ab0	0.23844409
202	0x3ddca251	0.10773147
203	0x3ddb7ef0	0.10717571
204	0x3e23cbfd	0.15995784
205	0x3e30a601	0.17250825
206	0x3e815d19	0.2526634
207	0x3eb1d15c	0.3473004
208	0x3f0b6b7f	0.544609
209	0x3f1bddfc	0.60885596
210	0x3f23f07c	0.64038825
211	0x3f0964c2	0.5366937
212	0x3ef24de1	0.47325042
213	0x3eb84151	0.35987332
214	0x3e52ffcd	0.20605393
215	0x3e690a5f	0.22757863
216	0x3e3c63c6	0.18397436
217	0x3e2a07b8	0.16604507
218	0x3de18b2a	0.110128716
219	0xbc50fbee	-0.012755377
220	0x3e9c125c	0.30482757
221	0xbd9f3a53	-0.07774796
222	0xbe179ebb	-0.14806645
223	0xbe82511a	-0.254525
224	0xbe865134	-0.26233828
225	0xbe7eb341	-0.24873067
226	0xbea405b8	-0.32035613
227	0xbee05033	-0.43811187
228	0xbed8968b	-0.42302355
229	0xbf178c5f	-0.59198564
230	0xbf26e248	-0.6518903
231	0xbf1ca031	-0.6118193
232	0xbf053f94	-0.5205014
233	0xbe82911a	-0.2550133
234	0xbe1907ca	-0.14944378
235	0xbd3692dc	-0.04457365
236	0xbb4c4d48	-0.0031173993
237	0x3d64d06a	0.05586282
238	0x3d972ce0	0.07381606
239	0xbe589bc2	-0.21153167
240	0x3a56ccd3	0.00081939733
241	0x3dbdae0b	0.09261712
242	0x3d1777b4	0.036979392
243	0x3c7bb2e0	0.015362471
244	0x3c8ce67a	0.017199744
245	0x3c294c0b	0.010333071
246	0xbd8d8ca6	-0.06911592
247	0xbdb272a5	-0.08713273
248	0xbdd81ee0	-0.10552764
249	0xbef97a88	-0.48726296
250	0xbedb321d	-0.4281167
251	0xbed190ef	-0.40930888
252	0xbe8427a4	-0.25811493
253	0xbd435e89	-0.047697578
254	0xbda7d672	-0.08195199
255	0xbca95f23	-0.020675248
